model_Att.pkl (torch_old, 797928 bytes, 77 tensors)

conv.weight f4 [16, 1, 3, 3]
-0.0093416115 -0.18280657 0.18563262 -0.2588778 -0.25284344 -0.023422403 -0.16420403 -0.015152262
0.29899794 -0.30970004 -0.025461342 0.23346373 0.21747068 0.15691553 -0.057270877 0.21369697
-0.15445603 -0.23518732 0.26419038 -0.38745305 0.17207265 0.3100762 0.36805397 0.01715033
-0.078913756 -0.11216281 0.26448673 0.102712475 -0.12158684 0.012176519 -0.276669 0.34528324
-0.29971078 0.22431956 -0.05629144 -0.104704216 -0.5350359 -0.19439949 0.14467227 0.19000593
0.11948935 -0.060496587 -0.34634268 -0.21323451 -0.02455322 -0.07529701 0.31487045 0.045140926
0.13546224 0.29734242 -0.10365512 0.2040166 -0.054895576 0.1117062 0.019125968 0.22128879
-0.0043629687 -0.25380173 -0.30110404 -0.34888974 0.33411002 0.13389276 -0.0008222839 0.25049233
-0.19587885 0.011366368 0.03393627 -0.4489942 -0.17816299 0.12088204 -0.24619257 0.062505
0.18888703 0.11531445 0.28389597 0.29644594 -0.07758396 0.05801601 0.1547818 0.14588484
0.12971868 0.109391004 0.20979804 -0.18064834 -0.013670838 0.06188326 -0.36315808 0.11003387
-0.09591294 -0.3630273 -0.07578651 0.014793425 0.028667137 -0.027913941 -0.6874086 -0.21043308
-0.18289174 -0.13400395 -0.32561934 0.22992606 -0.1689611 0.3174172 0.29707918 -0.31337932
0.12582098 -0.25250363 -0.25109985 0.03130622 -0.024692055 -0.043563973 0.36984333 -0.05577053
-0.5599471 -0.22724019 0.0037726022 -0.32649764 -0.0031733993 -0.39249122 -0.2610587 0.22331765
-0.13373178 0.25318366 0.30308187 -0.14016221 -0.09004789 0.24849959 0.23727244 -0.16665924
-0.0728088 0.052667294 0.1165117 -0.16665594 0.17693837 -0.02253697 -0.15741354 -0.0538305
-0.11820418 0.10152333 -0.39298248 0.21996285 0.16414051 -0.6163203 -0.2468168 -0.2105148
00000000: 8f0d 19bc a531 3bbe 7a16 3e3e a28b 84be
00000010: b274 81be 57e0 bfbc 1a25 28be 3141 78bc
00000020: 4216 993e 0191 9ebe 4e94 d0bc 1e11 6f3e
00000030: a2b0 5e3e 77ae 203e de94 6abd 61d3 5a3e
00000040: b929 1ebe f2d4 70be f643 873e 3f60 c6be
00000050: d033 303e 4fc2 9e3e 9271 bc3e d97e 8c3c
00000060: 899d a1bd 9eb5 e5bd ce6a 873e eb5a d23d
00000070: 8502 f9bd 0680 473c 8fa7 8dbe f7c8 b03e
00000080: b173 99be 07b4 653e da91 66bd 2a6f d6bd
00000090: 1df8 08bf a910 47be f824 143e ea90 423e
000000a0: d5b6 f43d 45cb 77bd d453 b1be 265a 5abe
000000b0: d623 c9bc 5235 9abd b336 a13e b1e5 383d
000000c0: 9db6 0a3e 443d 983e 2349 d4bd bae9 503e
000000d0: 2fda 60bd 38c6 e43d 10ae 9c3c 8799 623e
000000e0: 3cf7 8ebb 4df2 81be 4f2a 9abe ada1 b2be
000000f0: 7810 ab3e 2f1b 093e 8a8e 57ba 8840 803e
00000100: 7794 48be 013a 3a3c c200 0b3d 91e2 e5be
00000110: 5c70 36be 0191 f73d e819 7cbe 9f02 803d
00000120: 9a6b 413e fb29 ec3d d05a 913e c3c7 973e
00000130: 57e4 9ebd 32a2 6d3d 1f7f 1e3e d662 153e
00000140: f9d4 043e 6408 e03d 4cd5 563e e1fb 38be
00000150: a7fb 5fbc 4d79 7d3d dbef b9be 7059 e13d
00000160: 016e c4bd b7de b9be f535 9bbd 1f60 723c
00000170: 58d7 ea3c c7ab e4bc 03fa 2fbf c57b 57be
00000180: f947 3bbe 5538 09be 94b7 a6be bd71 6b3e
00000190: 2304 2dbe 8284 a23e c31a 983e 4173 a0be
000001a0: 37d7 003e 2848 81be 2990 80be f33a 003d
000001b0: fe46 cabc 2370 32bd 1b5c bd3e a46f 64bd
000001c0: b158 0fbf a7b1 68be c33d 773b b32a a7be
000001d0: cef8 4fbb 9cf4 c8be 7ca9 85be 62ad 643e
000001e0: fcf0 08be 4aa1 813e 8c2d 9b3e af86 0fbe
000001f0: 076b b8bd ad76 7e3e 8cf7 723e b8a8 2abe
00000200: c81c 95bd a9b9 573d b09d ee3d dba7 2abe
00000210: 552f 353e 749f b8bc 0431 21be 5f7d 5cbd
00000220: 0815 f2bd 77eb cf3d 0035 c9be f13d 613e
00000230: 7314 283e 2bc7 1dbf 8bbd 7cbe 3191 57be

bn.weight f4 [16]
0.89608836 0.66704357 0.058926195 0.6839608 0.54699093 0.4175796 0.41456437 0.36820272
0.5283508 0.52508855 0.44328645 0.91203916 0.86071974 0.6149277 0.9225974 0.3459337
00000000: 0c66 653f 5ec3 2a3f 985c 713d 0e18 2f3f
00000010: 9907 0c3f fecc d53e c841 d43e 1185 bc3e
00000020: ff41 073f 346c 063f 71f6 e23e 667b 693f
00000030: 2158 5c3f e76b 1d3f 582f 6c3f 391e b13e

bn.bias f4 [16]
-0.22238976 0.079939574 -0.070013344 -0.020145828 -0.21040937 -0.105960146 -0.07251738 -0.12843293
0.005592952 -0.18620269 -0.19018695 0.16781971 -0.244601 0.13379966 -0.009123335 -0.12994203
00000000: 24ba 63be 5cb7 a33d 2863 8fbd dd08 a5bc
00000010: 8e75 57be a201 d9bd fe83 94bd ec83 03be
00000020: 1545 b73b ebab 3ebe 5ec0 42be eed8 2b3e
00000030: af78 7abe c702 093e 0a7a 15bc 860f 05be

bn.running_mean f4 [16]
-0.09501562 0.007918311 0.18103144 -0.039626084 -0.19556548 0.20027786 -0.04250358 -0.13576473
0.2775227 -0.119358405 -0.34989673 0.0035196845 -0.19877255 0.0014935524 9.702045e-05 -0.26833165
00000000: 8d97 c2bd cebb 013c 4e60 393e f64e 22bd
00000010: 5142 48be a415 4d3e 3c18 2ebd e905 0bbe
00000020: 7517 8e3e 2e72 f4bd aa25 b3be 82aa 663b
00000030: 088b 4bbe 4dc3 c33a 7577 cb38 c462 89be

bn.running_var f4 [16]
0.030669576 0.004033415 0.065476894 0.0066560335 0.0782858 0.07966999 0.01223971 0.049619958
0.14271404 0.043622524 0.2443251 0.0127243325 0.093652725 0.027047839 0.008670427 0.15625517
00000000: c33e fb3c bd2a 843b c018 863d db1a da3b
00000010: 4e54 a03d 052a a33d 1189 483c 4c3e 4b3d
00000020: a123 123e 88ad 323d 5c30 7a3e b879 503c
00000030: 00cd bf3d 6e93 dd3c 680e 0e3c 5b01 203e

layer1.0.conv1.weight f4 [16, 16, 3, 3]
0.110993735 -0.12382662 -0.04774164 0.12086576 -0.13292833 -0.09239378 -0.009658103 -0.07905575
-0.011230242 -0.015259108 0.0038989868 -0.0742211 0.16023664 -0.107003875 -0.017599547 -0.026369777
-0.13723911 0.08246783 -0.104610965 -0.07961805 -0.0394838 -0.032434355 -0.025651034 0.010702742
-0.011803576 -0.016739935 0.008665643 0.09405322 -0.020734742 -0.10616558 -0.07551384 -0.12806527
-0.12972797 0.00021685885 -0.010254958 -0.058559164 0.045436937 -0.017991977 -0.081338145 -0.028662596
-0.05272122 -0.029833483 0.025869375 -0.032724336 -0.06859397 -0.037369367 -0.06095094 -0.11880518
0.046757948 -0.007497127 -0.0019853853 0.007962581 0.02967132 -0.012627741 -0.126116 0.09110877
0.120400265 0.035919286 0.049700193 0.1101703 0.05144195 0.046016496 -0.0075661456 -0.04559281
-0.2026958 0.0023382013 -0.07960428 -0.06870954 -0.051204413 -0.031108713 -0.05412267 -0.10359616
-0.0788007 0.010596345 -0.017091457 0.027834922 -0.044431265 0.065082714 -0.044592068 0.048136026
-0.027791115 -0.0580747 -0.11780652 0.00091296114 -0.048472434 -0.09358092 -0.09223015 0.08527462
-0.004531694 -0.0788011 0.04342641 0.010069753 -0.06639174 -0.023213735 -0.09950959 -0.00039296542
0.0732923 -0.03822656 0.051154308 -0.098362505 -0.042628277 0.078572445 0.09456917 -0.007956677
-0.0044986685 0.03897783 -0.03502465 -0.0073635355 0.02406042 -0.098654434 0.026454117 0.022674123
-0.02986276 0.059852187 0.042841535 0.06567617 0.062084127 0.06869868 -0.077596754 0.13029933
0.060565583 -0.09907279 0.04800685 0.12754983 -0.08315642 -0.064236864 -0.1625328 -0.14405067
-0.1424376 -0.12440174 -0.031205973 -0.17512232 -0.13541043 -0.067382745 -0.1858824 -0.06029174
0.018404704 0.018687204 0.011762484 -0.060594294 0.056710314 -0.04537402 0.0005604473 0.102302186
-0.06481934 -0.17891179 0.06085181 -0.073657304 -0.09704777 0.07782307 -0.072900765 -0.060789898
-0.04971739 0.10617958 0.15634884 -0.009333312 -0.063167006 0.09383739 0.06802269 -0.04016138
-0.032506023 0.09222556 0.010022909 0.13374984 -0.0023988986 -0.03359053 0.0035800608 -0.10616628
0.11862904 -0.006638433 -0.080094606 0.10067678 -0.01431441 0.044398937 0.011450724 0.08807264
0.009951461 -0.05817166 0.054787036 0.028200792 -0.024459751 -0.005432397 -0.05625032 0.017582543
0.14645594 0.08331509 0.04720557 0.020571366 -0.015606362 0.018405698 -0.052914325 0.04063154
-0.03903328 0.012729648 -0.054275185 0.047830243 0.018048963 0.06285653 0.083866164 -0.026844574
-0.1029152 0.0070832283 0.046818715 0.12840474 0.026773114 -0.08956904 -0.024947682 0.07372664
-0.053874906 -0.117456436 -0.024117047 -0.07027938 -0.13676353 -0.113758236 -0.03556882 -0.16793823
-0.0067640743 0.06441682 -0.08377881 -0.044354726 -0.007958964 0.038899157 0.054006238 -0.010210692
-0.025987055 -0.027578477 -0.07535575 -0.052341513 -0.07486375 -0.16237725 -0.15919016 -0.08571861
-0.050250664 -0.1349879 -0.03535788 -0.06496277 -0.03554514 -0.12422929 -0.17199855 -0.08959645
-0.06232692 -0.21764179 -0.06665567 -0.03652083 0.047631778 0.028592663 -0.02699702 0.07373434
-0.13199355 -0.019511094 -0.023700265 0.14607805 -0.05735013 -0.06571106 0.057520185 -0.16352905
00000000: af50 e33d d098 fdbd bd8c 43bd 7888 f73d
00000010: 5d1e 08be f338 bdbd 053d 1ebc fbe7 a1bd
00000020: 0dff 37bc 5601 7abc 2586 7f3b 3b01 98bd
00000030: 1315 243e d924 dbbd ed2c 90bc 6e05 d8bc
00000040: 6988 0cbe e5e4 a83d 463e d6bd ca0e a3bd
00000050: c4b9 21bd e3d9 04bd 1e22 d2bc 8e5a 2f3c
00000060: c963 41bc 3022 89bc 57fa 0d3c f99e c03d
00000070: e8db a9bc 576d d9bd 00a7 9abd 8b23 03be
00000080: 69d7 04be 9b64 6339 6904 28bc bcdb 6fbd
00000090: 151c 3a3d e963 93bc 9d94 a6bd d2cd eabc
000000a0: 35f2 57bd 5965 f4bc 03ec d33c f409 06bd
000000b0: ff7a 8cbd 9f10 19bd b1a7 79bd 2150 f3bd
000000c0: 4385 3f3d 76aa f5bb 3d1d 02bb 7c75 023c
000000d0: 4511 f33c 96e4 4ebc 8d24 01be 3c97 ba3d
000000e0: 6a94 f63d 1a20 133d 6e92 4b3d f7a0 e13d
000000f0: cbb4 523d cb7b 3c3d 6eed f7bb 87bf 3abd
00000100: 7d8f 4fbe 823c 193b 9207 a3bd 96b7 8cbd
00000110: b8bb 51bd b3d7 febc bcaf 5dbd 392a d4bd
00000120: 4362 a1bd 4b9c 2d3c 6203 8cbc 1006 e43c
00000130: 8ffd 35bd 164a 853d 2ca6 36bd 482a 453d
00000140: 31aa e3bc bddf 6dbd 8b44 f1bd c953 6f3a
00000150: 088b 46bd 5aa7 bfbd 29e3 bcbd 76a4 ae3d
00000160: 9b7e 94bb 7962 a1bd e4df 313d 9bfb 243c
00000170: 65f8 87bd bb2a bebc afcb cbbd ed06 ceb9
00000180: 461a 963d 7493 1cbd 2e87 513d 4872 c9bd
00000190: fd9a 2ebd 97ea a03d 7bad c13d b95c 02bc
000001a0: 9169 93bb 38a7 1f3d 0276 0fbd d049 f1bb
000001b0: 5c1a c53c 560b cabd 4eb6 d83c 15bf b93c
000001c0: bfa2 f4bc 9127 753d 9b7a 2f3d 3a81 863d
000001d0: ed4b 7e3d e5b1 8c3d 0ceb 9ebd 306d 053e
000001e0: 9e13 783d ade6 cabd d5a2 443d 6c9c 023e
000001f0: ea4d aabd 9e8e 83bd 006f 26be 0582 13be
00000200: 2adb 11be 57c6 febd aba3 ffbc 4453 33be
00000210: 08a9 0abe f7ff 89bd f557 3ebe 79f4 76bd
00000220: 76c5 963c e815 993c 6fb7 403c b931 78bd
00000230: 1349 683d 1cda 39bd fbea 123a cf83 d13d
00000240: 01c0 84bd a734 37be bf3f 793d a4d9 96bd
00000250: fbc0 c6bd b461 9f3d ff4c 95bd d4fe 78bd
00000260: 76a4 4bbd ae74 d93d e919 203e bfea 18bc
00000270: b45d 81bd d12d c03d 7b4f 8b3d 4280 24bd
00000280: 0925 05bd c1e0 bc3d 2137 243c b8f5 083e
00000290: d736 1dbb 3996 09bd 749f 6a3b b56d d9bd
000002a0: c8f3 f23d 3687 d9bb a408 a4bd a12f ce3d
000002b0: fd86 6abc a9db 353d d19b 3b3c 6e5f b43d
000002c0: 740b 233c 6845 6ebd 5f68 603d 5905 e73c
000002d0: d15f c8bc 4002 b2bb bc66 66bd 4409 903c
000002e0: 8cf8 153e 1aa1 aa3d a15a 413d 4885 a83c
000002f0: d4b1 7fbc 8cc7 963c b1bc 58bd 426d 263d
00000300: 5ce1 1fbd 0390 503c a84f 5ebd a5e9 433d
00000310: 6bdb 933c edba 803d 06c2 ab3d 27e9 dbbc
00000320: 34c5 d2bd 6d1a e83b fbc4 3f3d 887c 033e
00000330: 4a53 db3c f96f b7bd 155f ccbc fefd 963d
00000340: efab 5cbd 008d f0bd 1d91 c5bc a3ee 8fbd
00000350: bd0b 0cbe 14fa e8bd 9cb0 11bd 00f8 2bbe
00000360: 2ba5 ddbb f7ec 833d 3a94 abbd 4dad 35bd
00000370: 5166 02bc b954 1f3d a535 5d3d bf4a 27bc
00000380: cee2 d4bc 42ec e1bc 1e54 9abd 0e64 56bd
00000390: 2a52 99bd 3946 26be bf02 23be 3d8d afbd
000003a0: a4d3 4dbd 453a 0abe 6dd3 10bd 330b 85bd
000003b0: c897 11bd ed6b febd 6320 30be 587e b7bd
000003c0: 834a 7fbd 7ddd 5ebe c582 88bd de96 15bd
000003d0: 8a19 433d 293b ea3c db28 ddbc 0802 973d
000003e0: 5129 07be bbd5 9fbc 0f27 c2bc 7c95 153e
000003f0: f8e7 6abd 8593 86bd 499a 6b3d 2974 27be

layer1.0.bn1.weight f4 [16]
0.5153023 0.711323 0.3539803 0.31229872 0.56254286 0.1468727 0.27917635 0.9506508
0.34258696 0.8254752 0.49288958 0.6404632 0.63065237 0.7523524 0.52727985 0.5900964
00000000: daea 033f 4419 363f e83c b53e 9ee5 9f3e
00000010: cf02 103f cc65 163e 34f0 8e3e da5d 733f
00000020: 8f67 af3e 5852 533f 065c fc3e 65f5 233f
00000030: 6f72 213f 2b9a 403f d0fb 063f 8f10 173f

layer1.0.bn1.bias f4 [16]
-0.039086383 -0.105899446 -0.023470636 -0.029902706 0.049220946 -0.03264965 -0.032932933 -0.19675064
-0.058593754 -0.11157525 -0.057491362 -0.14237982 -0.058294713 -0.13209735 -0.016705211 -0.11151904
00000000: 0b19 20bd cfe1 d8bd 7e45 c0bc 85f6 f4bc
00000010: e79b 493d a4bb 05bd afe4 06bd 0079 49be
00000020: 0100 70bd 9181 e4bd 107c 6bbd 04cc 11be
00000030: 70c6 6ebd 8744 07be 5ed9 88bc 1864 e4bd

layer1.0.bn1.running_mean f4 [16]
-0.41123816 -0.27590662 -0.42525104 -0.40562242 -0.3355342 -0.256721 0.15380457 0.15979286
-0.25527477 -0.14180388 -0.051924545 0.2778732 0.041130397 -0.012494141 -0.354544 -0.29378963
00000000: cf8d d2be a243 8dbe 81ba d9be bead cfbe
00000010: 23cb abbe ef70 83be f27e 1d3e bda0 233e
00000020: 60b3 82be 0935 11be d5ae 54bd 6545 8e3e
00000030: 5978 283d 3ab4 4cbc cb86 b5be 986b 96be

layer1.0.bn1.running_var f4 [16]
0.31284815 0.16418576 0.29682228 0.27757308 0.16215733 0.14839834 0.12878515 0.2686347
0.2905693 0.24575211 0.081197046 0.36654648 0.2491291 0.17724769 0.22222875 0.24234723
00000000: a22d a03e 5020 283e 17f9 973e 0f1e 8e3e
00000010: 920c 263e bcf5 173e 41e0 033e 7d8a 893e
00000020: 80c5 943e 71a6 7b3e a34a a63d fbab bb3e
00000030: b31b 7f3e 6b80 353e ef8f 633e df29 783e

layer1.0.conv2.weight f4 [16, 16, 3, 3]
-0.069516584 -0.10461 -0.09231635 -0.023278639 0.034126766 -0.052002653 -0.075754404 -0.040993206
-0.014151019 -0.12425463 -0.040873606 0.0083408225 -0.18606277 -0.032197952 -0.071499765 -0.13646649
0.017038722 0.030636862 0.092702106 0.21773832 0.079340175 0.104533106 0.09421598 0.041398283
0.16102526 0.0031620676 0.09630854 0.04922626 -0.08274476 0.047277268 0.13739763 0.04761087
-0.010990377 0.05537 0.05814625 -0.008145254 -0.040138066 0.0015266268 0.1569624 -0.04632507
0.08734647 -0.028244147 -0.12123214 0.060615815 -0.074423976 0.041751508 -0.011169194 0.12865004
-0.122696824 -0.024827372 0.0946149 -0.0757062 -0.070296936 0.15908161 -0.04721232 -0.0055960887
0.05903407 -0.14681956 0.04086811 0.0377234 0.05825338 -0.0128949545 0.0039297077 -0.0870801
0.06579637 -0.06277096 -0.051909596 0.004684225 -0.005608913 0.05275001 -0.051930916 -0.13203841
0.011814561 -0.04094284 -0.12663302 0.03090907 0.018016899 -0.011674028 -0.12318974 0.037556376
-0.059677258 -0.055673257 -0.07718437 -0.1270847 -0.057631213 0.041991044 -0.12593219 0.0141911255
-0.052157465 -0.06219828 -0.019786583 -0.014876499 0.0924494 0.021342942 0.06877616 0.18805104
0.07367185 0.14956042 0.11462897 -0.045182295 0.008505329 -0.0023089214 0.09391626 0.06874485
-0.04926289 0.12163507 0.11039239 -0.021748662 -0.06586892 0.019994263 0.013629584 -0.12124657
0.074624665 -0.10566315 0.04193666 -0.057425912 -0.065596394 0.024644878 -0.1115594 -0.017354598
0.056688193 -0.05236019 -0.02938172 0.052667443 -0.016498204 -0.01375079 -0.021783499 0.016686888
-0.067529246 0.030195411 0.026905764 0.11197931 -0.03542613 -0.00831628 -0.053048503 -0.0776525
-0.05877533 -0.05214741 0.031174093 0.018246321 0.027939614 -0.10629007 -0.0041669393 -0.03886943
-0.05447658 0.054812104 -0.10101723 -0.11395475 -0.10105599 -0.060518477 0.07927226 -0.11583965
0.027813971 0.08354526 -0.034290947 -0.12781197 0.052043326 -0.031039128 -0.047914453 -0.07712608
0.08181573 -0.070192955 -0.00088071084 0.06431875 0.008689864 0.10862298 0.018162405 0.022619287
0.022015696 -0.035320763 -0.013674622 -0.008636947 0.019100597 -0.09182091 0.088790126 0.05919682
0.0100177 0.13035552 -0.005402177 0.032908622 -0.12865002 -0.053229924 0.06394567 -0.04979947
-0.055414453 0.10962867 -0.08509717 -0.017361829 0.058426585 -0.05217062 -0.0019560694 -0.006661568
-0.09768939 -0.032209527 0.0322768 -0.010549375 0.10429412 0.09333587 -0.056021854 -0.10542835
-0.030024013 -0.077485286 -0.042296715 0.030796863 -0.036471747 -0.10308878 0.048156224 0.106394656
0.07125283 0.084667325 -0.029627804 0.03500136 0.03122534 -0.054592032 -0.029918853 0.12014015
-0.1144984 -0.051246893 -0.12846144 -0.007214276 -0.03355097 -0.26789552 -0.023335885 -0.057118393
-0.016902098 0.17380817 0.07962812 0.024136687 0.055069666 0.07132115 0.055831384 -0.08366113
0.05570876 0.0694368 -0.11424932 0.043574795 0.09100982 -0.07436606 0.113620415 0.110681884
-0.016847085 0.06874551 0.010663762 -7.237248e-05 0.083685376 0.074628755 -0.022112548 0.066454776
-0.029729541 -0.12474103 -0.002047972 0.04564081 0.021923114 -0.08569441 -0.099932365 -0.057056423
00000000: b65e 8ebd c53d d6bd 5b10 bdbd d8b2 bebc
00000010: 82c8 0b3d bc00 55bd 2025 9bbd 7ee8 27bd
00000020: add9 67bc 3679 febd 156b 27bd f2a7 083c
00000030: 3d87 3ebe 00e2 03bd 786e 92bd dfbd 0bbe
00000040: ca94 8b3c 28fa fa3c 9ada bd3d cbf6 5e3e
00000050: 1a7d a23d 7415 d63d 4ff4 c03d 3f91 293d
00000060: cee3 243e b13a 4f3b 693d c53d 7aa1 493d
00000070: 1676 a9bd cfa5 413d f7b1 0c3e 9e03 433d
00000080: fb10 34bc a7cb 623d c32a 6e3d ac73 05bc
00000090: d067 24bd 1819 c83a c0ba 203e 5bbf 3dbd
000000a0: b5e2 b23d 4560 e7bc 8e48 f8bd 4a48 783d
000000b0: 996b 98bd a103 2b3d fffe 36bc d6bc 033e
000000c0: 7948 fbbd c662 cbbc 75c5 c13d da0b 9bbd
000000d0: d7f7 8fbd 4ae6 223e b561 41bd 655f b7bb
000000e0: b5cd 713d de57 16be 5265 273d da83 1a3d
000000f0: 199b 6e3d 5c45 53bc c7c4 803b 0d57 b2bd
00000100: 3fc0 863d 108e 80bd 289f 54bd 217e 993b
00000110: f9ca b7bb 6510 583d 83b5 54bd 1435 07be
00000120: dc91 413c aeb3 27bd 16ac 01be 0535 fd3c
00000130: 2d98 933c 6c44 3fbc e74a fcbd b7d4 193d
00000140: 2470 74bd a409 64bd d712 9ebd 7e22 02be
00000150: b50e 6cbd cdfe 2b3d 5ef4 00be e581 683c
00000160: 11a3 55bd a0c3 7ebd 7917 a2bc 8fbc 73bc
00000170: 1c56 bd3d 65d7 ae3c 84da 8c3d 7490 403e
00000180: 44e1 963d 5e26 193e 98c2 ea3d 1211 39bd
00000190: ef59 0b3c 4651 17bb 2b57 c03d 1aca 8c3d
000001a0: e2c7 49bd cf1b f93d 6815 e23d 402a b2bc
000001b0: 49e6 86bd 02cb a33c 9e4e 5f3c 1f50 f8bd
000001c0: d1d4 983d ec65 d8bd c6c5 2b3d 6f37 6bbd
000001d0: 6757 86bd 0ee4 c93c 4179 e4bd 3b2b 8ebc
000001e0: e131 683d a377 56bd efb1 f0bc d1b9 573d
000001f0: 3e27 87bc fe4a 61bc 4f73 b2bc f1b2 883c
00000200: c64c 8abd 5e5c f73c 7a69 dc3c 6955 e53d
00000210: fd1a 11bd 0241 08bc 6349 59bd 4608 9fbd
00000220: 67be 70bd 8698 55bd d060 ff3c 4f79 953c
00000230: 9ee1 e43c 9cae d9bd d28a 88bb 8d35 1fbd
00000240: d622 5fbd a882 603d 1fe2 cebd 1c61 e9bd
00000250: 71f6 cebd 39e2 77bd 7f59 a23d 573d edbd
00000260: 20da e33c c719 ab3d aa74 0cbd 24e1 02be
00000270: 622b 553d c545 febc f241 44bd 47f4 9dbd
00000280: 018f a73d 53c1 8fbd 81df 66ba 8cb9 833d
00000290: ee5f 0e3c ba75 de3d 53c9 943c 154c b93c
000002a0: 435a b43c 81ac 10bd 860b 60bc fb81 0dbc
000002b0: db78 9c3c 9a0c bcbd 99d7 b53d 5d78 723d
000002c0: 4721 243c eb7b 053e bf04 b1bb 31cb 063d
000002d0: d5bc 03be 9f07 5abd f3f5 823d 87fa 4bbd
000002e0: 44fa 62bd ff84 e03d 6d47 aebd 653a 8ebc
000002f0: b750 6f3d dcb0 55bd 6631 00bb 4849 dabb
00000300: 6011 c8bd 23ee 03bd ae34 043d 49d7 2cbc
00000310: 2898 d53d e026 bf3d 2c77 65bd d2ea d7bd
00000320: ebf4 f5bc 9bb0 9ebd 523f 2dbd b449 fc3c
00000330: 6663 15bd 3620 d3bd 763f 453d 71e5 d93d
00000340: 01ed 913d 1066 ad3d 02b6 f2bc 965d 0f3d
00000350: 49cc ff3c e59b 5fbd 6218 f5bc 0a0c f63d
00000360: 237e eabd 43e8 51bd 658b 03be bc65 ecbb
00000370: be6c 09bd 9a29 89be e62a bfbc faf4 69bd
00000380: 4576 8abc c5fa 313e 1114 a33d 4dba c53c
00000390: bb90 613d d310 923d 73af 643d 8756 abbd
000003a0: de2e 643d e234 8e3d 8cfb e9bd 7c7b 323d
000003b0: 5b63 ba3d 3c4d 98bd d2b1 e83d 2fad e23d
000003c0: e602 8abc 72ca 8c3d 0fb7 2e3c aec6 97b8
000003d0: 3d63 ab3d f6d6 983d 6025 b5bc 7119 883d
000003e0: 5e8b f3bc 3a78 ffbd 4537 06bb dcf1 3a3d
000003f0: 1a98 b33c 8d80 afbd 57a9 ccbd ffb3 69bd

layer1.0.bn2.weight f4 [16]
0.6819372 0.38216174 0.5305888 0.7800553 0.9524899 1.0114139 0.62513506 0.85009426
0.8338592 0.42501256 0.8058937 0.5666925 0.7707616 0.5931697 0.46876588 0.60945404
00000000: 7093 2e3f b4aa c33e abd4 073f b4b1 473f
00000010: 61d6 733f 0376 813f da08 203f c79f 593f
00000020: cc77 553f 3f9b d93e 0d4f 4e3f c212 113f
00000030: a250 453f f8d9 173f 1502 f03e 2e05 1c3f

layer1.0.bn2.bias f4 [16]
-0.111849986 -0.016457273 -0.03430411 -0.054440983 -0.038238913 -0.029271249 -0.049356006 -0.009275659
-0.044974577 -0.0036928642 -0.026120419 -0.12515628 -0.02701445 -0.1633331 -0.03509651 -0.107751586
00000000: 9b11 e5bd 67d1 86bc 7782 0cbd 82fd 5ebd
00000010: 68a0 1cbd 42ca efbc 8629 4abd eff8 17bc
00000020: 4337 38bd fb03 72bb 7dfa d5bc f828 00be
00000030: 684d ddbc cb40 27be 5cc1 0fbd ddac dcbd

layer1.0.bn2.running_mean f4 [16]
-0.18490694 -0.077628575 0.32043177 -0.32698253 0.14490809 0.093441635 -0.0755096 -0.22563866
-0.39822572 -0.056206655 -0.09400626 -0.30074778 -0.089027226 -0.06270057 -0.27998203 -0.140585
00000000: 3f58 3dbe bbfb 9ebd a20f a43e 416a a7be
00000010: c962 143e 545e bf3d c7a4 9abd d20d 67be
00000020: 3ee4 cbbe f338 66bd 5b86 c0bd 9dfb 99be
00000030: e853 b6bd 2869 80bd ce59 8fbe 84f5 0fbe

layer1.0.bn2.running_var f4 [16]
0.12191926 0.16625597 0.10472157 0.07524632 0.11522792 0.062492386 0.062504105 0.106531106
0.083497755 0.090894 0.06574371 0.06484707 0.10373036 0.062011324 0.08421316 0.05037287
00000000: ceb0 f93d 013f 2a3e 4378 d63d be1a 9a3d
00000010: 9efc eb3d 04f8 7f3d 2702 803d fb2c da3d
00000020: df00 ab3d a226 ba3d a3a4 863d 8ace 843d
00000030: 9570 d43d 96ff 7d3d f377 ac3d c853 4e3d

layer1.1.conv1.weight f4 [16, 16, 3, 3]
-0.01760148 0.008262281 0.0035003203 0.069849685 -0.05663872 0.023011267 0.004413235 -0.014788255
0.059438787 0.05058203 -0.09474064 -0.13175285 -0.083283566 -0.10031487 -0.10433415 -0.06539441
-0.07343546 -0.01161859 -0.015567938 0.09773572 -0.021681141 0.058732845 0.12316982 -0.091204785
0.07531236 0.086292066 0.10404292 0.11349838 -0.0021823728 0.04099111 -0.007947853 0.031218782
0.026507756 0.023970954 0.021125799 0.043508653 -0.12994318 -0.12332936 -0.07577874 -0.08469348
-0.13566346 -0.08900587 -0.027104627 -0.12458064 0.008355512 0.09441334 -0.010471526 0.0022189342
0.1793837 0.060704585 0.10985835 0.20799643 0.09396483 0.07056937 -0.047971327 -0.10099566
-0.08920637 0.015779873 -0.042982083 -0.033064377 0.031266764 0.104446284 0.034086276 0.07220328
-0.046618838 -0.03772076 0.09260815 -0.058243096 0.02470006 0.09561414 -0.041700363 -0.07647716
0.059281994 0.003296784 -0.028937923 -0.012032413 -0.031093474 0.02008876 -0.035067618 -0.08903814
0.05468179 0.029492585 -0.048240874 0.046796087 0.007564949 -0.08771943 -0.025696868 -0.0050485274
-0.05767329 0.06640333 0.044894584 0.020510038 -0.032594014 -0.068631805 -0.033982936 -0.002985198
0.10855505 0.025583694 -0.06272071 0.045460906 -0.008269517 -0.14879744 0.07923446 -0.020200828
-0.071814254 -0.07876916 -0.071926184 -0.022002412 -0.080010146 -0.11129928 0.09280891 0.01230313
0.01638543 0.06856768 -0.04479844 -0.017529955 -0.00041839396 0.067680255 0.11146827 -0.06415962
0.08010391 -0.018874915 -0.047314797 0.0023556477 0.09072768 -0.058750976 -0.083486445 0.05919541
0.07331953 0.08159572 -0.05702183 -0.08573651 -0.099740565 -0.05000383 -0.12120709 -0.07916326
-0.19278225 -0.020641536 0.017232647 -0.069816194 -0.15663743 -0.11369602 -0.16650055 -0.1644549
-0.046483953 0.075659856 -0.029101428 0.022488879 -0.055979572 -0.0065671112 -0.031484913 -0.021020591
0.056449685 0.01323538 -0.025437512 0.08364284 0.083724625 -0.0041617304 0.06776876 0.046609115
-0.035903767 -0.10897849 0.11867154 -0.06336976 0.001303943 0.11677062 -0.036747802 0.055679057
0.13233833 0.0892981 0.0052957665 0.17368153 0.06460445 -0.10233343 0.032371216 0.021515999
-0.055466436 0.11236516 0.08256268 0.0975673 0.12066153 0.10214621 0.09645416 0.058820028
-0.050176684 -0.12998368 0.022097394 -0.107466 -0.11770859 -0.13895015 -0.14431523 -0.07045837
-0.06563794 -0.06586428 -0.12589099 -0.04491731 -0.03405077 -0.17799067 0.10968169 0.07107763
0.12482307 -0.097743586 -0.018110417 -0.03433072 0.0035361184 -0.039026726 -0.09487138 -0.036110047
-0.094181776 0.07240907 0.077503346 0.00029130728 0.05100997 0.09281035 0.00066033495 0.07703351
-0.07070162 -0.016432993 0.04309125 0.08295177 -0.026482513 -0.04399265 -0.05119028 0.03186329
0.10227309 0.09529508 0.09660934 0.027587047 0.09721358 0.032880876 -0.04431426 0.10407305
-0.025500387 -0.041255403 -0.029399123 -0.06274826 0.08827685 0.016710544 0.026137965 0.0035532021
-0.07822764 -0.00028391182 0.05056966 -0.05872505 -0.116838455 0.068571195 -0.04631465 -0.12367542
-0.106379785 0.030357918 0.044974275 -0.16242728 -0.007942701 0.013608411 -0.10723701 -0.030243069
00000000: fb30 90bc 855e 073c a165 653b 5a0d 8f3d
00000010: 01fe 67bd 2082 bc3c e69c 903b 704a 72bc
00000020: 1676 733d 1a2f 4f3d 6107 c2bd 38ea 06be
00000030: 9390 aabd e271 cdbd 25ad d5bd 81ed 85bd
00000040: 5565 96bd e65b 3ebc aa10 7fbc aa29 c83d
00000050: a69c b1bc da91 703d 7540 fc3d 93c9 babd
00000060: 5e3d 9a3d e5b9 b03d 7414 d53d d771 e83d
00000070: 2406 0fbb 4be6 273d b637 02bc 88be ff3c
00000080: cb26 d93c bc5e c43c 0310 ad3c 2136 323d
00000090: d30f 05be 1a94 fcbd e231 9bbd c673 adbd
000000a0: 5deb 0abe b648 b6bd 860a debc 2224 ffbd
000000b0: 8fe5 083c c85b c13d c390 2bbc 8a6b 113b
000000c0: 5cb0 373e 5fa5 783d 6afd e03d 04fd 543e
000000d0: a270 c03d ad86 903d 957d 44bd d0d6 cebd
000000e0: d4b1 b6bd cb44 813c fb0d 30bd 836e 07bd
000000f0: 9411 003d efe7 d53d 0d9e 0b3d 50df 933d
00000100: 65f3 3ebd 1581 1abd 57a9 bd3d 5090 6ebd
00000110: c857 ca3c 59d1 c33d 00ce 2abd 0fa0 9cbd
00000120: add1 723d db0e 583b 390f edbc 9923 45bc
00000130: beb7 febc 2f91 a43c 10a3 0fbd a159 b6bd
00000140: 03fa 5f3d 6f9a f13c 3998 45bd 41ad 3f3d
00000150: 64e3 f73b 3fa6 b3bd 3d82 d2bc 1e6e a5bb
00000160: d43a 6cbd 78fe 873d 62e3 373d ab04 a83c
00000170: 4d81 05bd d58e 8cbd b131 0bbd 50a3 43bb
00000180: 1c52 de3d e594 d13c b773 80bd 3735 3a3d
00000190: de7c 07bc 5b5e 18be ad45 a23d 357c a5bc
000001a0: 5a13 93bd ba51 a1bd 094e 93bd 673e b4bc
000001b0: 5cdc a3bd e0f0 e3bd 9912 be3d 1193 493c
000001c0: bd3a 863c 366d 8c3d 927e 37bd fb9a 8fbc
000001d0: e35b dbb9 f29b 8a3d 7a49 e43d 1e66 83bd
000001e0: 850d a43d 919f 9abc 29cd 41bd 3661 1a3b
000001f0: 6fcf b93d dda4 70bd f1fa aabd e376 723d
00000200: 8d28 963d a81b a73d b98f 69bd a096 afbd
00000210: c844 ccbd d1d0 4cbd 6c3b f8bd 5920 a2bd
00000220: b668 45be 7018 a9bc 7b2b 8d3c cbfb 8ebd
00000230: 9065 20be 75d9 e8bd 1f7f 2abe de66 28be
00000240: f565 3ebd 8ef3 9a3d 1e66 eebc 993a b83c
00000250: d64a 65bd ec30 d7bb 53f6 00bd 6033 acbc
00000260: c937 673d 35d9 583c 5462 d0bc f04c ab3d
00000270: d177 ab3d 205f 88bb 59ca 8a3d 33e9 3e3d
00000280: d40f 13bd 1d30 dfbd 100a f33d 01c8 81bd
00000290: 11e9 aa3a 6f25 ef3d dd84 16bd b90f 643d
000002a0: b383 073e ece1 b63d 1c88 ad3b 92d9 313e
000002b0: 564f 843d 3094 d1bd ae97 043d 5242 b03c
000002c0: c630 63bd b41f e63d 9f16 a93d 5dd1 c73d
000002d0: 641d f73d 0832 d13d c289 c53d 45ed 703d
000002e0: 1186 4dbd 711a 05be 9805 b53c 2217 dcbd
000002f0: 3411 f1bd f348 0ebe 5fc7 13be 7a4c 90bd
00000300: 2f6d 86bd dae3 86bd 91e9 00be 37fb 37bd
00000310: d278 0bbd 3043 36be cba0 e03d 2691 913d
00000320: 3da3 ff3d ca2d c8bd 4c5c 94bc 5e9e 0cbd
00000330: 39be 673b 7dda 1fbd ed4b c2bd 21e8 13bd
00000340: 60e2 c0bd 354b 943d 13ba 9e3d 9aba 9839
00000350: d5ef 503d 5a13 be3d 541a 2d3a bfc3 9d3d
00000360: 03cc 90bd 7c9e 86bc 7380 303d 9ee2 a93d
00000370: dbf1 d8bc a331 34bd e6ac 51bd 1583 023d
00000380: 8e74 d13d 112a c33d 1edb c53d 3bfe e13c
00000390: ea17 c73d 19ae 063d df82 35bd 4024 d53d
000003a0: 30e6 d0bc 6dfb 28bd 6ed6 f0bc 2982 80bd
000003b0: 7eca b43d 8de4 883c 491f d63c d7dc 683b
000003c0: d035 a0bd 00da 94b9 2222 4f3d ae89 70bd
000003d0: 0049 efbd 0e6f 8c3d 6eb4 3dbd 8a49 fdbd
000003e0: a5dd d9bd 2bb1 f83c f236 383d 5653 26be
000003f0: 1a22 02bc d0f5 5e3c 149f dbbd 50c0 f7bc

layer1.1.bn1.weight f4 [16]
0.3816782 0.44997466 0.4791401 0.80861604 0.85436016 0.6485177 0.2679256 0.4975813
0.09204645 0.7745205 0.6819819 0.2078105 0.5746198 0.7162354 0.71361613 0.49917445
00000000: 536b c33e 1463 e63e da51 f53e 7601 4f3f
00000010: 59b7 5a3f 4205 263f 8b2d 893e fac2 fe3e
00000020: d982 bc3d fa46 463f 5e96 2e3f 47cc 543e
00000030: 491a 133f 345b 373f 8caf 363f cb93 ff3e

layer1.1.bn1.bias f4 [16]
0.044717565 -0.10968303 -0.045525894 -0.046986572 -0.054719564 -0.23604023 -0.077879004 0.068578236
-0.038400095 -0.058197893 0.002939528 -0.07170209 -0.07225322 0.0055925045 -0.0127428975 -0.013098957
00000000: c429 373d 7fa1 e0bd 5c79 3abd fe74 40bd
00000010: 9f21 60bd 88b4 71be 077f 9fbd bf72 8c3d
00000020: 6b49 1dbd ea60 6ebd 19a5 403b 8cd8 92bd
00000030: 7ff9 93bd 5441 b73b 96c7 50bc 029d 56bc

layer1.1.bn1.running_mean f4 [16]
-0.4400041 -0.107911065 -0.84970915 -0.7375774 -0.49246597 -0.3197544 -0.35229144 -0.06309674
-0.39503118 -0.25728914 -0.7301793 0.16465661 -1.2058061 -0.1531276 -0.23067434 -1.3401557
00000000: 3848 e1be 7a00 ddbd 8a86 59bf dfd1 3cbf
00000010: 8024 fcbe d9b6 a3be 8b5f b4be dd38 81bd
00000020: 8741 cabe 67bb 83be 08ed 3abf be9b 283e
00000030: db57 9abf 7bcd 1cbe e535 6cbe 398a abbf

layer1.1.bn1.running_var f4 [16]
0.3006341 0.34484828 0.5446742 0.46513978 0.3573657 0.40680325 0.3989524 0.20615663
0.36778814 0.3684452 0.36743227 0.3288318 0.56057936 0.51696277 0.5793481 0.8353948
00000000: b6ec 993e f48f b03e c56f 0b3f cd26 ee3e
00000010: a3f8 b63e 8448 d03e 7d43 cc3e b91a 533e
00000020: ba4e bc3e d9a4 bc3e 1520 bc3e a45c a83e
00000030: 2182 0f3f ac57 043f 2850 143f 6fdc 553f

layer1.1.conv2.weight f4 [16, 16, 3, 3]
0.007998685 -0.018747559 -0.031760998 -0.03218125 0.02154008 -0.02271206 -0.027500898 -0.04533299
0.029997936 -0.10559504 0.06239619 0.09622352 0.05636574 0.11826478 0.08907147 -0.026188288
0.0099777635 -0.011666007 0.035054125 0.049552046 -0.08598883 0.023385456 0.08540526 0.071816646
-0.0510112 0.14181584 0.015564008 -0.084832855 0.061387897 0.00042615685 -0.09625524 0.10832534
0.00018340003 0.019825064 0.118573606 0.04648743 0.07801593 0.109284766 -0.036053564 0.18367502
-0.007863668 -0.07997422 0.09822579 -0.03805764 0.023184534 -0.115945555 0.017568866 0.06239184
-0.15560463 -0.08863912 0.04095132 -0.07473359 0.06799357 -0.019264534 -0.1350626 -0.19326955
-0.14098649 -0.0982501 -0.17405045 0.08893961 -0.065064624 -0.072084084 0.12015158 0.107525505
0.09482683 -0.08197633 0.0032580802 -0.054796502 -0.029761206 -0.0043328516 -0.04608751 -0.084700175
-0.01901938 -0.08772589 -0.01049094 0.047084853 0.11356169 -0.041806445 0.0407464 0.062342677
-0.02805738 -0.03385421 -0.012853609 -0.06886419 0.05649753 0.069201395 0.006046435 -0.030106112
-0.006338534 -0.06647399 0.093833946 0.043697722 0.051466353 0.11815746 0.07880988 -0.039204244
-0.0042822976 -0.07647743 -0.07079475 -0.17710792 -0.046273857 0.13542384 -0.12652802 0.024457265
0.065004185 -0.08632984 0.015169955 0.11184248 0.08074736 0.05750222 0.08964407 -0.014564254
0.14065464 0.036143277 0.011384337 0.09105645 0.028613247 0.030364448 -0.05649172 -0.020918505
0.037643176 0.036582336 -0.16310726 0.106766544 0.0024385904 0.044794433 -0.103406824 -0.09292978
0.087233625 -0.03061281 -0.12108636 -0.00551982 -0.057859942 -0.0580127 0.11412621 -0.052959815
-0.000580445 -0.015460948 -0.021727404 0.052577093 0.09508795 0.106397055 0.16219757 0.01723612
-0.028945023 0.06538053 -0.045840014 -0.12755339 -0.01457332 0.03767699 -0.15628946 0.04050274
0.061675835 0.039956093 0.126256 0.050845556 -0.11167532 -0.0075913216 0.037700526 -0.115735084
0.009502803 0.031292308 0.031193685 -0.034161724 0.015046354 0.081224434 -0.005400755 -0.015698347
0.05758153 -0.033398293 -0.03398666 -0.0026227022 -0.18627937 -0.14683214 0.016266273 -0.02534708
-0.18037426 -0.061430015 -0.17233062 -0.067811035 -0.041714482 0.013049624 -0.044462994 -0.054075945
0.021182483 -0.015752705 -0.036321357 0.057816017 0.049631782 0.17851573 0.13148516 -0.038269
0.07779715 0.087440714 0.027486121 -0.08215191 -0.028822219 0.106570095 0.009906231 -0.043905128
-0.12244222 -0.014649091 0.12117602 0.007661114 -0.030350463 0.11749604 0.055492755 0.07456304
0.13317068 0.0018656198 0.07230585 0.0125413295 0.035221808 0.037991248 -0.046052065 -0.077875644
0.03851422 0.057005525 -0.020387892 0.024737231 0.044931985 -0.009114789 0.042948432 0.07383566
-0.08544797 0.15124685 0.07446801 0.08440748 0.019252637 0.07738643 0.055506032 -0.022708561
0.050864883 0.11982551 0.039329026 0.1600453 -0.03219017 0.11626479 0.041511066 0.008410817
-0.06653366 0.07960926 -0.09561318 -0.044996075 -0.1383523 -0.07833568 0.095677845 -0.108244196
-0.11716432 -0.056504637 0.01209963 -0.025488747 -0.09208763 -0.0510341 -0.008052318 0.027433317
00000000: eb0c 033c 7b94 99bc d217 02bd 7dd0 03bd
00000010: d274 b03c a40e babc 9049 e1bc 16af 39bd
00000020: 3bbe f53c 3642 d8bd 2693 7f3d d610 c53d
00000030: c3df 663d ce34 f23d 1a6b b63d d288 d6bc
00000040: c679 233c c822 3fbc ea94 0f3d 16f7 4a3d
00000050: e91a b0bd db92 bf3c f4e8 ae3d 9b14 933d
00000060: 1ff1 50bd 2c38 113e 2e00 7f3c d9bc adbd
00000070: e071 7b3d ce6d df39 7821 c5bd add9 dd3d
00000080: 124f 4039 2c68 a23c b8d6 f23d 9a69 3e3d
00000090: d1c6 9f3d b1d0 df3d e7ac 13bd 4e15 3c3e
000000a0: 9dd6 00bc 86c9 a3bd 9a2a c93d 54e2 1bbd
000000b0: 7eed bd3c dd74 edbd 95ec 8f3c 968e 7f3d
000000c0: d256 1fbe 6d88 b5bd 92bc 273d ed0d 99bd
000000d0: 3640 8b3d a8d0 9dbc da4d 0abe 74e8 45be
000000e0: c35e 10be 5937 c9bd 483a 32be f825 b63d
000000f0: 9a40 85bd d2a0 93bd 0812 f63d 5536 dc3d
00000100: 9234 c23d 35e3 a7bd 8485 553b 4c72 60bd
00000110: c6cd f3bc 98fa 8dbb 42c6 3cbd 4977 adbd
00000120: 88ce 9bbc a2a9 b3bd 31e2 2bbc 0cdc 403d
00000130: 0893 e83d 3c3d 2bbd b2e5 263d 095b 7f3d
00000140: 97d8 e5bc b6aa 0abd f297 52bc ab08 8dbd
00000150: f469 673d 76b9 8d3d 2c21 c63b 18a1 f6bc
00000160: 7ab3 cfbb 8423 88bd 032c c03d 62fc 323d
00000170: 62ce 523d 8afc f13d 1367 a13d a194 20bd
00000180: 8452 8cbb 33a0 9cbd d6fc 90bd c75b 35be
00000190: a889 3dbd 8cac 0a3e 9090 01be 9a5a c83c
000001a0: ea20 853d b3cd b0bd 678b 783c ac0d e53d
000001b0: df5e a53d 7387 6b3d 4f97 b73d e99e 6ebc
000001c0: c507 103e f90a 143d 5f85 3a3c ce7b ba3d
000001d0: 5466 ea3c ddbe f83c dd63 67bd 495d abbc
000001e0: bb2f 1a3d 5cd7 153d 9705 27be 6ba8 da3d
000001f0: c2d0 1f3b 5e7a 373d f5c6 d3bd f851 bebd
00000200: 8ba7 b23d b7c7 fabc 20fc f7bd 9bdf b4bb
00000210: 8cfe 6cbd ba9e 6dbd 01bb e93d 64ec 58bd
00000220: 0129 18ba eb4f 7dbc abfd b1bc 145b 573d
00000230: 79bd c23d b3e6 d93d 1f17 263e c332 8d3c
00000240: 1d1e edbc 3ae6 853d bdc2 3bbd 5b9d 02be
00000250: efc4 6ebc 3053 1a3d 580a 20be 33e6 253d
00000260: cd9f 7c3d 00a9 233d 4149 013e 6e43 503d
00000270: 08b6 e4bd 9fc0 f8bb de6b 1a3d 8406 edbd
00000280: a5b1 1b3c 5d2c 003d e689 ff3c 2aed 0bbd
00000290: fc84 763c ff58 a63d d1f8 b0bb d299 80bc
000002a0: 9cda 6b3d a6cc 08bd 9935 0bbd a4e1 2bbb
000002b0: 05c0 3ebe 2a5b 16be d940 853c aea4 cfbc
000002c0: 08b4 38be 0a9e 7bbd 7077 30be 83e0 8abd
000002d0: cedc 2abd 17ce 553c d41e 36bd bd7e 5dbd
000002e0: e386 ad3c d10b 81bc b4c5 14bd 7dd0 6c3d
000002f0: b24a 4b3d d4cc 363e 0ca4 063e f4bf 1cbd
00000300: 1d54 9f3d 1e14 b33d 932a e13c 433f a8bd
00000310: 931c ecbc 6c41 da3d bf4d 223c ddd5 33bd
00000320: fdc2 fabd be02 70bc 222b f83d 150a fb3b
00000330: 89a1 f8bc c4a1 f03d 5f4c 633d 82b4 983d
00000340: e55d 083e d087 f43a 1715 943d 267a 4d3c
00000350: be44 103d b69c 1b3d 17a1 3cbd 447d 9fbd
00000360: 16c1 1d3d a07e 693d 8204 a7bc bca5 ca3c
00000370: 9a0a 383d 3256 15bc b2ea 2f3d 2737 973d
00000380: 58ff aebd 74e0 1a3e af82 983d d4dd ac3d
00000390: b5b7 9d3c c77c 9e3d 4b5a 633d 4e07 babc
000003a0: b257 503d 1467 f53d 7917 213d eae2 233e
000003b0: d7d9 03bd 3c1c ee3d 8207 2a3d 86cd 093c
000003c0: cd42 88bd 2e0a a33d d8d0 c3bd ce4d 38bd
000003d0: 3aac 0dbe 756e a0bd bff2 c33d 22af ddbd
000003e0: d9f3 efbd 6871 67bd 873d 463c c7cd d0bc
000003f0: 7098 bcbd 2209 51bd dfed 03bc d6bb e03c

layer1.1.bn2.weight f4 [16]
0.0964714 0.32919347 0.98136675 0.1885153 0.3161924 0.34892687 0.96131146 0.7917139
0.40723878 0.119191736 0.9461068 0.28750378 0.2873241 0.9495342 0.75313306 0.5926031
00000000: cc92 c53d 0c8c a83e da3a 7b3f 280a 413e
00000010: f8e3 a13e 8ba6 b23e 8218 763f c3ad 4a3f
00000020: 9a81 d03e cc1a f43d 0e34 723f b233 933e
00000030: 251c 933e ac14 733f 54cd 403f d6b4 173f

layer1.1.bn2.bias f4 [16]
-0.03846776 0.009639545 -0.05418676 0.037210897 -0.012381794 0.05506848 0.006760679 -0.024158029
-0.14428772 -0.038519826 -0.054179233 -0.038871463 -0.004833626 -0.14409523 -0.03711994 -0.096283905
00000000: 5f90 1dbd 2fef 1d3c f0f2 5dbd 746a 183d
00000010: 02dd 4abc 7d8f 613d b088 dd3b 0fe7 c5bc
00000020: 29c0 13be f7c6 1dbd 0beb 5dbd af37 1fbd
00000030: 6563 9ebb b38d 13be 140b 18bd 7f30 c5bd

layer1.1.bn2.running_mean f4 [16]
0.20009004 -0.080351755 -0.047778916 -0.2718027 -0.3096974 0.43756646 0.0817317 -0.37926576
-0.31291893 -0.4338307 -0.19538623 -0.03993166 -0.08332502 -0.36998555 -0.10419333 -0.5353144
00000000: 67e4 4c3e 768f a4bd d3b3 43bd b929 8bbe
00000010: a890 9ebe b608 e03e f362 a73d 1f2f c2be
00000020: e936 a0be 0f1f debe 5413 48be 618f 23bd
00000030: 4fa6 aabd bf6e bdbe 5063 d5bd 5d0a 09bf

layer1.1.bn2.running_var f4 [16]
0.160483 0.13126937 0.22483228 0.14369223 0.10396053 0.19466522 0.09264122 0.20257589
0.24222232 0.21598315 0.13502865 0.13091286 0.13426985 0.160582 0.120574325 0.08101358
00000000: a855 243e 7a6b 063e 6f3a 663e 0e24 133e
00000010: 42e9 d43d 5256 473e aeba bd3d 0e70 4f3e
00000020: 2109 783e b02a 5d3e f344 0a3e 050e 063e
00000030: 097e 093e 9c6f 243e acef f63d 73ea a53d

layer2.0.conv1.weight f4 [32, 16, 3, 3]
-0.05068869 -0.09689348 0.01859115 -0.077735454 -0.08420303 0.0541487 -0.10974416 -0.07627339
-0.021398377 -0.021378977 0.03900891 0.05339033 0.0011990566 0.08522663 0.10571154 0.0039156876
0.07791528 0.052192237 0.018276617 -0.063341014 0.0997626 -0.0066999393 0.07687189 0.07085112
0.04506334 0.12499894 0.05192905 -0.1785562 -0.10970908 -0.065790385 -0.10598132 -0.012904354
-0.014225013 -0.13370222 -0.016823603 0.08238158 -0.03079747 -0.041179825 -0.09406953 -0.059093844
-0.09240462 -0.118201226 -0.029518757 -0.037313495 -0.08677694 0.017211908 0.103411146 -0.0042684968
0.04783947 0.03884699 -0.06727635 -0.07203225 0.06312429 0.020295091 -0.07653163 -0.01398861
0.01765711 0.04985919 -0.04545778 0.051945895 -0.0017132957 -0.0033383393 0.083936304 -0.058601268
-0.07823985 0.027393159 -0.043804772 -0.027004508 0.03681776 -0.03607623 -0.0014661947 -0.0021039224
-0.1767539 -0.050839182 -0.05969848 -0.075464085 -0.111210585 0.044763032 0.021583593 0.03762115
-0.07203995 -0.017610664 -0.06907235 0.006124345 -0.045449726 0.05688239 -0.04414176 0.018636059
0.06341017 -0.07719827 0.04992519 0.07074784 0.11588969 -0.017018467 -0.0021174715 0.06945439
-0.039424878 -0.035627816 0.07278248 0.064473875 -0.052557573 -0.030657023 0.030400435 0.029662795
-0.0102419425 -0.0074736373 0.10479537 0.026906524 0.04693243 -0.13307871 -0.20446627 -0.13628991
-0.17027949 -0.13830215 -0.009303729 -0.061829824 -0.11040762 0.0012219842 0.040048085 0.055025775
0.01931441 0.15829115 0.09000396 -0.013469703 -0.024614848 0.022307323 -0.07809697 -0.21528828
-0.08184477 -0.12817197 -0.1665628 -0.093984224 -0.104850136 -0.11386113 -0.098128565 0.07352962
0.030505706 -0.0985833 -0.041743256 0.13777342 0.10390329 -0.035308532 0.0007705478 0.106321216
-0.04025133 -0.00093560485 0.042898744 -0.104009904 -0.12828457 -0.037005592 -0.073612615 0.024924487
-0.02686485 -0.10737385 -0.04292066 -0.051291533 -0.026103448 -0.04348602 -0.0050415904 0.054945774
-0.06649948 -0.025775528 0.03216058 0.07773876 0.036112588 0.06657424 0.19575383 0.12860496
0.087583125 0.120930165 0.11428457 0.021049192 0.10683248 -0.0032904707 -0.03509964 0.08020575
0.07873413 0.07275426 0.06781081 0.03372149 -0.016840564 0.050591033 -0.009074246 0.06612669
0.034447663 0.06582968 -0.013363287 0.03209609 0.04170607 -0.06443015 0.0021073169 -0.054026585
0.019731114 -0.095030434 -0.048227556 -0.12735622 -0.025862541 -0.034037106 -0.13526095 -0.18631606
-0.14822985 0.08699318 0.014870673 -0.023086885 0.05273842 -0.035681345 0.077965155 -0.06925275
-0.08413723 -0.10650579 -0.13908538 -0.18665564 -0.20838329 -0.08317703 -0.02031261 -0.17287852
0.074462794 0.08992965 0.120770074 -0.022397796 0.053849474 -0.025721919 -0.013998228 -0.01275777
-0.015437338 0.012942287 -0.0058608013 0.090336196 0.060028236 0.06402209 0.047551237 0.029275976
0.019296259 0.031993758 -0.082214415 0.009394293 0.0058072275 -0.062364228 -0.16134296 -0.10262761
-0.17368631 -0.13878867 -0.013089155 0.091159105 0.12086056 0.14136639 0.07684557 0.057390355
0.14777872 0.04053869 -0.017233301 0.054126192 0.11525251 0.12236468 0.096694104 0.052568868
00000000: f29e 4fbd 1770 c6bd 784c 983c c433 9fbd
00000010: a372 acbd 07cb 5d3d 8cc1 e0bd 3935 9cbd
00000020: a64b afbc f722 afbc cfc7 1f3d d2af 5a3d
00000030: aa29 9d3a 4d8b ae3d 4b7f d83d 2b4f 803b
00000040: 0c92 9f3d 87c7 553d d8b8 953c efb8 81bd
00000050: 5650 cc3d 2a8b dbbb 026f 9d3d 641a 913d
00000060: 5694 383d 72ff ff3d 8eb3 543d 70d7 36be
00000070: 27af e0bd 1cbd 86bd bc0c d9bd c96c 53bc
00000080: 0710 69bc 3ce9 08be a7d1 89bc acb7 a83d
00000090: fa4a fcbc 2dac 28bd 87a7 c0bd 630c 72bd
000000a0: a23e bdbd 7c13 f2bd 52d1 f1bc 09d6 18bd
000000b0: 1cb8 b1bd fdff 8c3c 39c9 d33d bfde 8bbb
000000c0: 52f3 433d 051e 1f3d 2fc8 89bd a585 93bd
000000d0: 4f47 813d e441 a63c 9dbc 9cbd 7c30 65bc
000000e0: a5a5 903c 2639 4c3d f031 3abd 38c5 543d
000000f0: aa90 e0ba 0ac8 5abb cce6 ab3d e207 70bd
00000100: 373c a0bd 9e67 e03c a26c 33bd 8f38 ddbc
00000110: 38ce 163d abc4 13bd 552d c0ba f6e1 09bb
00000120: f9fe 34be bf3c 50bd 6586 74bd ea8c 9abd
00000130: 60c2 e3bd 7159 373d 13d0 b03c a318 1a3d
00000140: ae89 93bd 3d44 90bc ce75 8dbd bbae c83b
00000150: 7e29 3abd 82fd 683d fdcd 34bd a6aa 983c
00000160: 31dd 813d 201a 9ebd 5b7e 4c3d 3ee4 903d
00000170: 9357 ed3d 506a 8bbc 47c5 0abb 1a3e 8e3d
00000180: fb7b 21bd 79ee 11bd fb0e 953d e10a 843d
00000190: 9c46 57bd 7024 fbbc 550a f93c 64ff f23c
000001a0: d2cd 27bc 6ae5 f4bb f49e d63d 126b dc3c
000001b0: 383c 403d c945 08be 9b5f 51be 958f 0bbe
000001c0: bf5d 2ebe 149f 0dbe ab6e 18bc 4541 7dbd
000001d0: 641d e2bd fc2a a03a 7609 243d b562 613d
000001e0: 4139 9e3c 1317 223e ff53 b83d 07b0 5cbc
000001f0: 14a5 c9bc d9bd b63c 4ef1 9fbd 8874 5cbe
00000200: 3b9e a7bd 833f 03be 708f 2abe cd7a c0bd
00000210: abbb d6bd 0630 e9bd a1f7 c8bd b396 963d
00000220: 1ae7 f93c 0be6 c9bd fafa 2abd 7a14 0d3e
00000230: 40cb d43d ae9f 10bd 96fe 493a f0be d93d
00000240: 94de 24bd 6143 75ba 98b6 2f3d 2503 d5bd
00000250: 085d 03be 2d93 17bd 36c2 96bd 702e cc3c
00000260: ad13 dcbc d2e6 dbbd 93cd 2fbd 1217 52bd
00000270: e6d6 d5bc 661e 32bd ed33 a5bb d20e 613d
00000280: e130 88bd 3327 d3bc d0ba 033d 8035 9f3d
00000290: cbea 133d 1358 883d b173 483e 05b1 033e
000002a0: c85e b33d 3caa f73d 070e ea3d 5b6f ac3c
000002b0: fdca da3d f0a4 57bb a4c4 0fbd ea42 a43d
000002c0: 5c3f a13d 2f00 953d 65e0 8a3d 8c1f 0a3d
000002d0: 39f5 89bc 8b38 4f3d 25ac 14bc 6e6d 873d
000002e0: fe18 0d3d b6d1 863d b0f1 5abc 3177 033d
000002f0: fcd3 2a3d f4f3 83bd e91a 0a3b fb4a 5dbd
00000300: 25a3 a13c 519f c2bd 428a 45bd ab69 02be
00000310: aedd d3bc 7e6a 0bbd d981 0abe a3c9 3ebe
00000320: 91c9 17be 7b29 b23d 20a4 733c b520 bdbc
00000330: 3e04 583d 9a26 12bd 32ac 9f3d 63d4 8dbd
00000340: 2450 acbd b51f dabd 666c 0ebe a822 3fbe
00000350: 6e62 55be b858 aabd a166 a6bc 1107 31be
00000360: f37f 983d 092d b83d 4d56 f73d 957b b7bc
00000370: 4491 5c3d c6b6 d2bc d358 65bc f705 51bc
00000380: e3ec 7cbc e30b 543c f70b c0bb 2f02 b93d
00000390: 2be0 753d 031e 833d 16c5 423d 2cd4 ef3c
000003a0: 3013 9e3c e30b 033d 0860 a8bd 85ea 193c
000003b0: 8e4a be3b a271 7fbd 1737 25be 6d2e d2bd
000003c0: d3da 31be 9e1e 0ebe e573 56bc a0b1 ba3d
000003d0: be85 f73d 5ac2 103e 3661 9d3d 2612 6b3d
000003e0: 4e53 173e e60b 263d da2c 8dbc 6db3 5d3d
000003f0: 8209 ec3d 559a fa3d 8f07 c63d 7452 573d

layer2.0.bn1.weight f4 [32]
0.16376199 0.7383467 0.13022871 0.16668949 0.73050535 0.9107738 0.583182 0.34165236
0.98769045 0.2759799 0.6394781 0.5396285 0.758348 0.33724952 0.25753626 0.25015813
0.8821544 0.5201218 0.5199538 0.93368304 0.06432401 0.6421732 0.34060383 0.63528764
0.39396396 0.87428004 0.89770806 0.6014616 0.21407872 0.63928705 0.35873356 0.74555486
00000000: 39b1 273e 4a04 3d3f ad5a 053e a6b0 2a3e
00000010: 6602 3b3f 7928 693f 6a4b 153f 0fed ae3e
00000020: 48d9 7c3f 3d4d 8d3e d6b4 233f 1825 0a3f
00000030: 1823 423f f8ab ac3e cbdb 833e ba14 803e
00000040: dfd4 613f b426 053f b11b 053f da05 6f3f
00000050: 4ebc 833d 7665 243f a063 ae3e 36a2 223f
00000060: a5b5 c93e d1d0 5f3f 32d0 653f 63f9 193f
00000070: 7437 5b3e 51a8 233f edab b73e afdc 3e3f

layer2.0.bn1.bias f4 [32]
-0.051937323 -0.0885977 -0.08414043 -0.088840745 -0.115371354 0.00043042592 0.005328058 -0.05497795
-0.038457043 -0.041894943 -0.011013672 -0.02218075 -0.073923185 -0.0337286 -0.066141844 -0.00996814
-0.075914204 -0.06905642 -0.017550135 -0.078600116 -0.01551285 -0.104263246 -0.032100745 -0.027844803
0.00046539493 -0.08806936 -0.11616974 0.027969409 -0.015097084 -0.055119094 -0.055697784 0.011741565
00000000: 3bbc 54bd b672 b5bd d151 acbd 23f2 b5bd
00000010: d147 ecbd caaa e139 fd96 ae3b 8f30 61bd
00000020: 2285 1dbd 089a 2bbd b072 34bc 67b4 b5bc
00000030: 0a65 97bd 0027 0abd 6075 87bd 6951 23bc
00000040: e878 9bbd 746d 8dbd 4dc5 8fbc 19f9 a0bd
00000050: 9c29 7ebc f887 d5bd 127c 03bd c91a e4bc
00000060: 4000 f439 b55d b4bd 67ea edbd 1a20 e53c
00000070: c359 77bc 8fc4 61bd 5c23 64bd b15f 403c

layer2.0.bn1.running_mean f4 [32]
-1.039828 0.021902325 1.057383 -1.7160301 -1.1174903 -0.8158781 -0.7833547 -0.14664035
0.22833072 0.93169177 -0.26669946 0.7400293 -0.22198461 0.6304161 -0.4848678 -1.6497909
-1.1787002 0.17083345 -0.08463698 -1.0206674 0.6719201 -0.6351177 -1.3937062 0.16393834
-0.51684254 -0.25203732 0.12949553 -1.1253818 -0.7676586 0.46537024 1.1689504 -1.8526733
00000000: 1519 85bf 816c b33c 5358 873f e0a6 dbbf
00000010: ec09 8fbf 63dd 50bf ef89 48bf e328 16be
00000020: 87cf 693e 5a83 6e3f d58c 88be 8f72 3d3f
00000030: ef4f 63be f362 213f 9840 f8be 592c d3bf
00000040: a6df 96bf f7ee 2e3e 2756 adbd 3ba5 82bf
00000050: f502 2c3f 1397 22bf f764 b2bf 74df 273e
00000060: cb4f 04bf 090b 81be 7a9a 043e 830c 90bf
00000070: 4685 44bf 0245 ee3e 2ba0 953f 6624 edbf

layer2.0.bn1.running_var f4 [32]
0.6943043 1.616353 0.5617864 0.5481412 0.74213696 1.0866568 0.7521302 0.6834346
1.2150823 0.65988225 1.0708408 1.2130165 0.92195714 1.396527 0.71090174 0.7974532
1.9451318 0.91928715 0.78314584 0.89028955 1.1570659 0.37817767 1.1075643 1.1539167
1.2390383 1.157858 1.8146902 1.0915296 0.5665421 0.8993329 1.5131208 0.8985007
00000000: edbd 313f a8e4 ce3f 3cd1 0f3f fb52 0c3f
00000010: b0fc 3d3f 9217 8b3f 9b8b 403f 92f5 2e3f
00000020: d187 9b3f 0bee 283f 5011 893f 2044 9b3f
00000030: 6205 6c3f 66c1 b23f a8fd 353f e525 4c3f
00000040: 14fa f83f 6756 6b3f 3f7c 483f 04ea 633f
00000050: bc1a 943f 81a0 c13e abc4 8d3f 8bb3 933f
00000060: cf98 9e3f b134 943f c547 e83f 3eb7 8b3f
00000070: e708 113f ae3a 663f f1ad c13f 2404 663f
