refinemodel.pkl (torch_old, 797928 bytes, 77 tensors)

conv.weight f4 [16, 1, 3, 3]
-0.14304517 -0.008821085 0.27928254 -0.38706908 0.110381044 0.22515044 -0.2829744 0.28545573
-0.011063523 -0.19808908 -0.11702077 -0.39068606 -0.06598441 -0.025151767 0.30028313 -0.031980928
-0.11989752 0.3343382 -0.449141 0.29667372 -0.053087432 -0.9216053 -0.4640788 0.15206331
-0.05182153 0.12956512 0.13077052 -0.21551141 -0.53420347 -0.2456595 0.023429487 -0.8409056
0.33194593 0.1672966 -0.3716586 0.08324904 -0.32046035 -0.072815746 0.39507073 0.074710675
-0.327799 0.29616535 0.25117856 -0.056052066 -0.1802426 0.18067452 -0.28568363 0.23887436
0.13285401 -0.10774102 -0.5624595 -0.19437906 0.10702137 -0.9224501 -0.043681856 -0.07833548
0.13107932 0.27054048 0.22257946 -0.34008247 0.4404718 0.18740211 0.027507456 0.19546925
-0.081205785 0.30081937 0.026676973 -0.10934212 0.050003696 -0.26353323 0.0301808 -0.43694773
0.19323857 -0.40739334 0.0792697 -0.51087207 -1.0888603 -0.24090958 0.02592214 -0.13613199
0.018443001 0.057594817 -0.20726153 0.13738482 0.14195868 -1.361662 0.013756325 -0.31392393
-1.5489699 -0.1307255 0.05017212 -0.7036081 -0.7792617 0.14078486 -0.35168114 -0.10975228
-0.013436287 0.2635402 0.17584741 0.33899516 -0.30693778 -0.1890942 -0.106034815 0.280863
0.24366206 -0.014461731 0.28906688 -0.3848929 0.055567592 0.16003701 -0.25548267 0.32431805
0.037705913 -0.32414225 0.1654002 -0.2752033 -0.035390127 0.2387034 -0.26180872 -0.04548592
-0.19332081 -0.30886942 -0.65842277 0.31542808 0.09333053 -0.3080924 -0.06679956 0.21293184
0.43540704 0.15725178 0.2505393 -0.17810774 0.12292098 0.2144068 -0.20087108 0.12275899
0.31939796 0.08940754 -0.43917516 0.12371748 -0.20614862 -0.3230182 0.26448146 0.11484654
00000000: 6f7a 12be 5086 10bc 1ffe 8e3e eb2d c6be
00000010: 750f e23d d68d 663e 05e2 90be 4127 923e
00000020: c743 35bc ddd7 4abe 96a8 efbd 0108 c8be
00000030: d622 87bd 140b cebc b6be 993e 6ffe 02bd
00000040: d58c f5bd 602e ab3e cff5 e5be 9ee5 973e
00000050: 3572 59bd 53ee 6bbf bd9b edbe 7cb6 1b3e
00000060: d042 54bd b8ac 043e b5e8 053e 06af 5cbe
00000070: 8fc1 08bf 2a8e 7bbe 32ef bf3c 9745 57bf
00000080: d1f4 a93e cd4f 2b3e 094a bebe 797e aa3d
00000090: 6113 a4be 6c20 95bd b646 ca3e e901 993d
000000a0: 45d5 a7be fca2 973e 7a9a 803e da96 65bd
000000b0: 8491 38be be02 393e 2045 92be 7b9b 743e
000000c0: e20a 083e 53a7 dcbd 59fd 0fbf 4e0b 47be
000000d0: 052e db3d b125 6cbf bfeb 32bd 5a6e a0bd
000000e0: a839 063e 4884 8a3e dfeb 633e 4a1f aebe
000000f0: 8585 e13e 57e6 3f3e 5157 e13c 1729 483e
00000100: 384f a6bd ff04 9a3e ab89 da3c c3ee dfbd
00000110: add0 4c3d d4ed 86be ba3d f73c 9db7 dfbe
00000120: 55e0 453e dc95 d0be 2758 a23d 83c8 02bf
00000130: c65f 8bbf 00b1 76be ab5a d43c 2f66 0bbe
00000140: c715 973c 8be8 6b3d 5e3c 54be 9bae 0c3e
00000150: 9e5d 113e f14a aebf 3562 613c a3ba a0be
00000160: a544 c6bf e8dc 05be 4881 4d3d a91f 34bf
00000170: b27d 47bf e829 103e 8d0f b4be cec5 e0bd
00000180: df23 5cbc beee 863e 5811 343e c690 ad3e
00000190: f326 9dbe e9a1 41be c828 d9bd 46cd 8f3e
000001a0: 8c82 793e e5f0 6cbc 9300 943e af10 c5be
000001b0: d89a 633d bee0 233e a0ce 82be 040d a63e
000001c0: 8471 1a3d f9f5 a5be ac5e 293e 72e7 8cbe
000001d0: 3df5 10bd aa6e 743e cb0b 86be 724f 3abd
000001e0: e4f5 45be 2224 9ebe 658e 28bf ca7f a13e
000001f0: 1424 bf3d 49be 9dbe 35ce 88bd ce0a 5a3e
00000200: aced de3e 9c06 213e b046 803e e061 36be
00000210: ffbd fb3d 758d 5b3e 26b1 4dbe 1169 fb3d
00000220: 2188 a33e 4d1b b73d 91db e0be 975f fd3d
00000230: a018 53be a462 a5be 1d6a 873e aa34 eb3d

bn.weight f4 [16]
0.5212905 0.735989 0.5720654 0.6795188 0.58484596 0.34552655 0.36769915 0.14800374
0.33895862 0.55142117 0.8616618 0.5609064 0.2722031 0.32327375 0.29749134 0.18715174
00000000: 4b73 053f c669 3c3f e172 123f f2f4 2d3f
00000010: 77b8 153f dbe8 b03e 1043 bc3e 4b8e 173e
00000020: fc8b ad3e f029 0d3f de95 5c3f 9097 0f3f
00000030: 345e 8b3e 2384 a53e c950 983e b5a4 3f3e

bn.bias f4 [16]
0.07695353 -0.20539047 -0.14542922 -0.209543 0.2107957 -0.088522054 -0.36501873 0.050323904
-0.09583705 -0.24060461 -0.3292752 0.028107403 0.05485796 -0.115175135 0.01513368 0.06302595
00000000: d099 9d3d e151 52be 66eb 14be 7192 56be
00000010: d4da 573e 0d4b b5bd bce3 babe 7020 4e3d
00000020: 3746 c4bd 0e61 76be c296 a8be 7f41 e63c
00000030: beb2 603d f1e0 ebbd 41f3 773c c013 813d

bn.running_mean f4 [16]
0.009825439 -0.058578394 -0.17064886 -0.1777179 0.009429158 -0.21619458 0.1659288 0.033656146
-0.34831154 -0.31075752 -0.18745103 0.025849437 -0.037128024 -0.16673233 0.13055639 -0.00013640829
00000000: e1fa 203c e6ef 6fbd 93be 2ebe aefb 35be
00000010: c17c 1a3c 1d62 5dbe 3de9 293e 07db 093d
00000020: e455 b2be 9c1b 9fbe 2af3 3fbe 33c2 d33c
00000030: 8e13 18bd e1bb 2abe 93b0 053e d208 0fb9

bn.running_var f4 [16]
0.016394896 0.013844424 0.071064524 0.0727005 0.006603775 0.10732304 0.059866507 0.008830702
0.25007537 0.20675449 0.08629781 0.007130332 0.012752784 0.0711813 0.036758833 0.0119225355
00000000: 974e 863c b9d3 623c 478a 913d 00e4 943d
00000010: 7b64 d83b 2fcc db3d 9536 753d a6ae 103c
00000020: e109 803e 73b7 533e e8bc b03d 8fa5 e93b
00000030: 0ef1 503c 80c7 913d 6e90 163d bd56 433c

layer1.0.conv1.weight f4 [16, 16, 3, 3]
-0.21405888 0.3370294 -0.17322403 0.181649 0.3401513 0.015950529 0.16299073 0.22594984
-0.044715174 -0.15463991 0.015760358 0.21272099 -0.2226941 0.19347817 0.06508521 -0.27107146
0.13645105 0.12668796 0.15284398 0.06724354 -0.059316736 0.12977144 0.33966404 -0.3435253
-0.055234548 0.28729475 -0.03952614 -0.11864274 0.037507232 0.1579073 0.17215218 -0.0155732175
0.03886215 0.11353586 -0.05800928 -0.14036183 -0.20534907 -0.21702854 0.078428626 0.15992483
-0.092743665 -0.0882705 0.03511646 0.04516435 -0.2018004 -0.52131104 -0.02658051 -0.012789118
-0.04350254 -0.10976692 0.116629854 0.06359609 -0.30010208 0.13795082 0.019880706 0.057696253
0.074788675 -0.2924863 0.2377328 0.16656351 0.10099191 0.0068912245 -0.16990346 -0.19566943
0.11133866 -0.018058857 0.073103786 -0.08183739 0.17518133 0.08917778 -0.12747726 0.0087574525
0.15821223 -0.20040034 -0.010047083 0.26584625 -0.14971155 0.009070374 0.34492144 -0.12743479
-0.039656024 0.3890425 -0.16023502 0.14052483 0.7887906 -0.16453134 -0.010226371 0.7649321
-0.03034293 0.017990962 -0.13303809 -0.03658917 0.051925097 -0.29610205 -0.07523422 0.26783243
-0.116814956 -0.095170915 0.31696022 -0.38532767 0.1436746 0.091592185 0.17449634 0.13629186
-0.116642535 -0.18146996 -0.27063695 0.06202006 0.05469056 -0.12887684 -0.06577929 -0.15264277
-0.19947119 -0.121919766 -0.31535015 -0.36649588 -0.2291845 -0.21573825 -0.13984066 -0.14450137
-0.17387737 -0.1555958 0.12492634 -0.24167159 -0.20056944 0.23461545 -0.12751217 0.08867623
0.03317807 -0.12894857 0.09228541 0.18970984 -0.0032410305 0.07470431 -0.037306387 -0.06543751
0.33883294 -0.25714105 0.11445451 0.32775065 -0.051463727 -0.14433047 -0.07236813 0.05705267
0.08701365 0.32204345 -0.10410199 0.1573242 0.016460797 -0.4028811 0.078899436 -0.016418058
-0.25943017 -0.119979285 -0.16856028 -0.11686447 -0.20088643 -0.37948433 0.028805226 0.14383675
-0.043857772 -0.027875775 -0.22565997 -0.21133594 -0.2967182 -0.13529633 -0.16429542 -0.1741359
0.14872506 0.0029083823 -0.16172953 0.18636176 -0.15742311 0.08256129 -0.22525431 -0.27050355
0.06631629 -0.2561408 -0.32465664 0.17432277 0.20569544 0.22569858 -0.005534027 -0.02545394
-0.40166605 0.098527454 0.06779966 -0.3944218 0.20207319 -0.062674224 -0.25853243 0.20624258
-0.22849075 0.052652266 0.6372668 -0.062108364 -0.0039607217 -0.011263558 -0.07881022 -0.08256028
-0.29252976 -0.08093986 0.045587745 -0.13111676 0.10717497 0.006983797 -0.065774925 -0.051447924
-0.050312992 0.1343688 -0.0034429587 -0.073892996 0.0912502 -0.112388924 -0.2392921 -0.1761625
-0.1764509 -0.060139015 0.058256455 -0.1672706 -0.28436658 0.090816595 -0.08224156 -0.007360497
0.24009319 -0.016204074 -0.38384825 -0.013353874 -0.31702355 -0.24753222 0.2608638 -0.3595233
-0.25863823 0.12701435 0.0054204576 -0.23535618 -0.14883254 0.11880625 -0.31659734 -0.08457183
0.034940735 -0.11370568 0.30155557 0.04364714 0.07145563 -0.085296564 0.19686154 -0.035845134
-0.31252444 -0.15569057 0.12661658 0.11500422 -0.007672126 -0.079400286 0.05651621 0.3474376
00000000: 4032 5bbe 1e8f ac3e a461 31be 3202 3a3e
00000010: 5028 ae3e afaa 823c 0be7 263e 655f 673e
00000020: 4227 37bd ed59 1ebe de1b 813c 88d3 593e
00000030: ec09 64be 241f 463e 654b 853d e1c9 8abe
00000040: d3b9 0b3e 7dba 013e 2283 1c3e fbb6 893d
00000050: 1bf6 72bd cee2 043e 72e8 ad3e 8ce2 afbe
00000060: 9f3d 62bd 4c18 933e 29e6 21bd f7fa f2bd
00000070: 2fa1 193d 74b2 213e a948 303e cf26 7fbc
00000080: eb2d 1f3d 7d85 e83d 249b 6dbd 03bb 0fbe
00000090: 0747 52be bb3c 5ebe 309f a03d 56c3 233e
000000a0: 64f0 bdbd 2ac7 b4bd 47d6 0f3d 41fe 383d
000000b0: c4a4 4ebe a474 05bf 5fbf d9bc 7389 51bc
000000c0: b82f 32bd 7bcd e0bd a2db ee3d ab3e 823d
000000d0: fba6 99be fb42 0d3e dddc a23c e852 6c3d
000000e0: ce2a 993d c4c0 95be 3a70 733e a08f 2a3e
000000f0: d9d4 ce3d c8cf e13b 2cfb 2dbe 915d 48be
00000100: 8605 e43d 2bf0 93bc 70b7 953d 5d9a a7bd
00000110: bc62 333e d7a2 b63d 6689 02be 6b7b 0f3c
00000120: 6302 223e bf35 4dbe 859c 24bc 001d 883e
00000130: fc4d 19be e89b 143c 8b99 b03e 447e 02be
00000140: 5b6e 22bd 9430 c73e a614 24be bee5 0f3e
00000150: 2eee 493f e77a 28be 828c 27bc 97d2 433f
00000160: bd91 f8bc c861 933c 233b 08be 87de 15bd
00000170: 69af 543d b09a 97be 6614 9abd 5521 893e
00000180: ae3c efbd f8e8 c2bd 9c48 a23e ab49 c5be
00000190: 6f1f 133e af94 bb3d 2baf 323e 1890 0b3e
000001a0: 48e2 eebd 43d3 39be ed90 8abe bf08 7e3d
000001b0: 3503 603d 4af8 03be 4bb7 86bd 634e 1cbe
000001c0: 2d42 4cbe 12b1 f9bd 9375 a1be 59a5 bbbe
000001d0: 57af 6abe 7dea 5cbe 6432 0fbe 2bf8 13be
000001e0: e90c 32be 8154 1fbe 62d9 ff3d c278 77be
000001f0: 1362 4dbe 083f 703e 8d92 02be e29b b53d
00000200: bae5 073d 180b 04be 2200 bd3d 4c43 423e
00000210: 7867 54bb 93fe 983d 95ce 18bd 1a04 86bd
00000220: 837b ad3e fea7 83be 2067 ea3d efce a73e
00000230: a1cb 52bd 5ecb 13be be35 94bd 0fb0 693d
00000240: 3634 b23d e1e2 a43e 6d33 d5bd 9819 213e
00000250: cbd8 863c 6e46 cebe 0796 a13d 2a7f 86bc
00000260: 08d4 84be b3b7 f5bd 119b 2cbe a456 efbd
00000270: 2cb5 4dbe c54b c2be f0f8 eb3c f149 133e
00000280: 35a4 33bd bd5b e4bc 6813 67be 7368 58be
00000290: 73eb 97be 1f8b 0abe 0f3d 28be ae50 32be
000002a0: 624b 183e 8f9a 3e3b 6d9c 25be 9ed5 3e3e
000002b0: 8633 21be e515 a93d 11a9 66be 717f 8abe
000002c0: d6d0 873d e324 83be 6539 a6be ab81 323e
000002d0: d3a1 523e 871d 673e c856 b5bb c884 d0bc
000002e0: 2ca7 cdbe c3c8 c93d 8cda 8a3d a7f1 c9be
000002f0: 46ec 4e3e 585b 80bd 5d5e 84be 4131 533e
00000300: 7bf9 69be e7a9 573d eb23 233f 5765 7ebd
00000310: f1c8 81bb c98a 38bc 4167 a1bd 5d15 a9bd
00000320: 76c6 95be ccc3 a5bd 37ba 3a3d 7943 06be
00000330: 8d7e db3d 56d8 e43b 01b5 86bd 0fbb 52bd
00000340: ff14 4ebd fa97 093e 43a3 61bb 3655 97bd
00000350: 63e1 ba3d 2a2c e6bd fd08 75be f163 34be
00000360: 8baf 34be 5454 76bd 529e 6e3d fc48 2bbe
00000370: 7f98 91be 0dfe b93d 436e a8bd 5330 f1bb
00000380: fdda 753e 68be 84bc c287 c4be 35ca 5abc
00000390: e950 a2be 1679 7dbe f18f 853e 7013 b8be
000003a0: 3b6c 84be 0d10 023e 189e b13b 3601 71be
000003b0: 8f67 18be b150 f33d 0c19 a2be ff33 adbd
000003c0: 041e 0f3d 86de e8bd 7e65 9a3e 58c7 323d
000003d0: 5457 923d f7af aebd 1296 493e 59d2 12bd
000003e0: 3403 a0be 596d 1fbe c7a7 013e 5587 eb3d
000003f0: 7566 fbbb 9e9c a2bd 8b7d 673d 57e3 b13e

layer1.0.bn1.weight f4 [16]
0.3801559 0.87916094 0.31633097 0.0052509513 0.43417305 0.3989789 0.36694166 0.552959
1.0736597 0.2693066 0.3391112 0.45155054 0.72534597 0.5297112 0.48560777 0.28572786
00000000: cba3 c23e b110 613f 22f6 a13e 2c10 ac3b
00000010: ee4b de3e f646 cc3e c7df bb3e b98e 0d3f
00000020: ae6d 893f 8ee2 893e fc9f ad3e a231 e73e
00000030: 46b0 393f 279b 073f 95a1 f83e ec4a 923e

layer1.0.bn1.bias f4 [16]
0.055046298 -0.22694457 0.07867387 -0.028245445 -0.10870265 -0.067491956 -0.049960837 -0.1925648
0.058138862 -0.111998305 -0.14485772 -0.14763293 -0.1738932 -0.12253806 -0.0770312 0.027663559
00000000: 3a78 613d 2864 68be c41f a13d fe62 e7bc
00000010: 7f9f debd 3939 8abd bca3 4cbd b52f 45be
00000020: 0423 6e3d 5e5f e5bd 9555 14be 162d 17be
00000030: 0f11 32be 3cf5 fabd 89c2 9dbd b09e e23c

layer1.0.bn1.running_mean f4 [16]
-0.11311681 -0.08709446 -0.61644924 0.063191555 -0.28316572 0.28063715 -0.47464496 -0.47297418
-0.40462562 0.013818463 0.59865594 -0.2972683 -0.049231727 -0.42929763 0.25339103 -0.28487477
00000000: c9a9 e7bd 955e b2bd 9ecf 1dbf 936a 813d
00000010: 19fb 90be acaf 8f3e aa04 f3be ac29 f2be
00000020: 172b cfbe d666 623c 8441 193f 8d33 98be
00000030: 35a7 49bd e6cc dbbe 78bc 813e 1bdb 91be

layer1.0.bn1.running_var f4 [16]
0.18568517 0.25917378 0.44886062 0.08660852 0.2732153 0.4320322 0.1415203 0.18801945
0.5469282 0.16779144 0.24626425 0.13326202 0.19622569 0.16769494 0.27954942 0.15103626
00000000: 4124 3e3e 6db2 843e 0fd1 e53e cf5f b13d
00000010: e0e2 8b3e 5333 dd3e b3ea 103e 2c88 403e
00000020: 7d03 0c3f 85d1 2b3e b22c 7c3e d775 083e
00000030: 63ef 483e 39b8 2b3e 1a21 8f3e 40a9 1a3e

layer1.0.conv2.weight f4 [16, 16, 3, 3]
0.030132562 -0.040759172 -0.10841694 -0.34747556 0.34120655 0.091683835 -0.51737154 0.16317746
0.06813962 -0.10322031 -0.006121627 -0.0008125193 -0.47195357 -0.20682879 0.009828971 -0.3162846
-0.33934647 -0.1675401 -0.01194502 -0.13930884 0.028649854 0.08205305 -0.26718006 -0.123050325
-0.16383484 -0.37796116 -0.31397 -0.043095592 0.048428126 -0.03585476 -3.4760204e-05 -0.006567352
-0.053628545 0.0739004 -0.031797547 0.01661839 -0.05615018 -0.35124075 -0.015648294 -0.12375001
-0.26812476 -0.21604054 0.15210034 -0.27048662 -0.09008929 -0.086404346 0.049778428 -0.090798214
0.27598092 0.013128134 -0.2086217 0.18118781 0.06304327 -0.12689044 0.07210185 0.13884468
0.12936373 0.035502266 0.23271365 0.13522395 -0.35955274 -0.17637566 -0.16865186 0.12179356
-0.14120948 -0.05405448 0.027382795 -0.14451991 0.2752107 0.05915635 0.007471244 0.0680276
0.08803219 -0.083697334 0.1719397 0.049122635 -0.36110118 0.031326625 -0.013117299 -0.30642045
0.11534676 -0.21148609 -0.33167303 -0.053011797 -0.12165928 -0.29591128 0.020566816 0.15067771
-0.0908059 -0.12950659 0.11689212 0.12389088 -0.014672574 0.03616997 -0.28663975 -0.48910525
0.23546682 0.019909544 -0.20393209 0.17019786 0.18585637 -0.055658016 -0.025934622 0.122318275
0.1347785 -0.09334641 -0.06193461 -0.07476379 -0.32019225 -0.22936976 0.02947712 -0.11773897
-0.010070697 -0.09459858 -0.12432506 0.04300322 -0.11544058 -0.080645405 -0.038686246 0.09161383
-0.23511286 -0.035946373 0.04511449 0.0056694555 0.046273645 0.06531809 -0.024344547 0.010715021
-0.07806667 0.34172624 0.046759624 -0.2382189 0.37428042 0.19485165 0.007179757 0.05407942
0.107341446 -0.33775723 0.09060272 0.24230155 -0.1662811 -0.2148273 0.06454287 -0.0041314885
0.13111708 0.34928885 -0.104697235 -0.07815775 0.17497084 -0.26676005 -0.011124948 0.00011278136
-0.114715055 -0.016967455 -0.027403895 0.17418556 -0.42150402 0.07575106 0.026439654 -0.17005368
0.021233298 -0.08184257 -0.12975043 -0.08056558 -0.054260276 -0.3982991 -0.1391967 -0.08906373
-0.1648521 -0.022468705 0.05289857 -0.0395989 0.020869859 -0.065130696 -0.0021446366 -0.038849276
0.071364045 -0.057418384 -0.038030706 -0.04859597 -0.06704592 -0.1321151 0.42013386 0.03951189
0.064334065 0.29732123 0.18914941 0.08156147 0.12754962 0.068720594 -0.0696803 -0.040673718
0.12770444 -0.06737336 -0.07462707 0.0074769016 -0.2980373 -0.34395587 0.12537022 0.056916676
-0.05866393 0.13966328 0.13554594 0.0648383 -0.27011475 -0.20467545 -0.16705354 -0.067991346
-0.025447614 -0.38694796 0.024419624 0.1692762 -0.08551287 0.121455304 0.14402835 -0.09628828
0.22030386 -0.578352 0.044067647 0.1604801 -0.5586697 0.052583825 -0.19155015 -0.37009332
-0.09727685 0.020530356 0.11720588 0.15828668 -0.1453579 0.021720082 0.1282804 -0.06244764
0.1174837 -0.009880715 0.17501599 0.1848103 0.19119734 0.057797942 -0.11027316 -0.14052054
0.13391306 -0.11929034 -0.099418364 0.099401325 -0.1029556 -0.49040297 -0.070864104 -0.061898142
-0.042048287 -0.20831773 -0.083310716 0.07124078 -0.0020999196 -0.024546798 -0.24846293 0.15781423
00000000: 90d8 f63c 17f3 26bd b309 debd 51e8 b1be
00000010: a0b2 ae3e bcc4 bb3d 7672 04bf fe17 273e
00000020: c98c 8b3d 2b65 d3bd ee97 c8bb 3fff 54ba
00000030: e6a3 f1be edca 53be b109 213c 0ef0 a1be
00000040: d2be adbe a28f 2bbe 0cb5 43bc faa6 0ebe
00000050: 19b3 ea3c 6e0b a83d d3cb 88be cf01 fcbd
00000060: 52c4 27be 2084 c1be adc0 a0be 0185 30bd
00000070: 925c 463d 71dc 12bd 7ccb 11b8 f132 d7bb
00000080: 9ba9 5bbd 1859 973d 253e 02bd 4a23 883c
00000090: bbfd 65bd d4d5 b3be da30 80bc a570 fdbd
000000a0: a647 89be bb39 5dbe 31c0 1b3e 397d 8abe
000000b0: bc80 b8bd c3f4 b0bd 77e4 4b3d 6af4 b9bd
000000c0: 5f4d 8d3e 6317 573c eda0 55be 4c89 393e
000000d0: d41c 813d 91ef 01be 22aa 933d 4d2d 0e3e
000000e0: ed77 043e d36a 113d 7d4c 6e3e 2678 0a3e
000000f0: 4c17 b8be d29b 34be 13b3 2cbe e76e f93d
00000100: 3899 10be 3b68 5dbd e251 e03c 07fd 13be
00000110: 6be8 8c3e ee4d 723d 56d1 f43b 0e52 8b3d
00000120: 394a b43d 8269 abbd f610 303e d134 493d
00000130: 41e2 b8be 5950 003d f1e9 56bc 24e3 9cbe
00000140: ec3a ec3d cf8f 58be 0cd1 a9be e622 59bd
00000150: 8028 f9bd af81 97be bd7b a83c 424b 1a3e
00000160: 72f8 b9bd 609d 04be 2365 ef3d 80ba fd3d
00000170: 3c65 70bc f626 143d 72c2 92be 016c fabe
00000180: 371e 713e 5719 a33c 93d3 50be 5948 2e3e
00000190: 2251 3e3e a9f9 63bd d874 d4bc 0182 fa3d
000001a0: 6003 0a3e 672c bfbd 25af 7dbd c21d 99bd
000001b0: 3df0 a3be e8df 6abe 007a f13c 2121 f1bd
000001c0: 91ff 24bc e6bc c1bd 239e febd 2524 303d
000001d0: 1c6c ecbd 6b29 a5bd 7875 1ebd 08a0 bb3d
000001e0: 6dc1 70be 813c 13bd f9c9 383d d7c6 b93b
000001f0: 6f89 3d3d 7ec5 853d 376e c7bc 0e8e 2f3c
00000200: 6be1 9fbd bef6 ae3e 0587 3f3d a8ef 73be
00000210: afa1 bf3e 3187 473e 2b44 eb3b 6282 5d3d
00000220: d5d5 db3d 84ee acbe eb8d b93d e61d 783e
00000230: 9845 2abe b0fb 5bbe 0d2f 843d 7061 87bb
00000240: 8e43 063e fdd5 b23e 816b d6bd 2c11 a0bd
00000250: 8e2b 333e c694 88be 6a45 36bc 0885 ec38
00000260: baef eabd 55ff 8abc 227e e0bc b35d 323e
00000270: 60cf d7be 5f23 9b3d f997 d83c 8d22 2ebe
00000280: 74f1 ad3c 149d a7bd 4cdd 04be 91ff a4bd
00000290: 0640 5ebd dced cbbe 9489 0ebe 0b67 b6bd
000002a0: fdce 28be 4a10 b8bc 2cac 583d 7532 22bd
000002b0: 44f7 aa3c 3e63 85bd 088d 0cbb 6b20 1fbd
000002c0: 5027 923d 8a2f 6bbd 16c6 1bbd 910c 47bd
000002d0: 5f4f 89bd 2e49 07be c91b d73e 38d7 213d
000002e0: 94c1 833d 7d3a 983e 62b0 413e b309 a73d
000002f0: 5e9c 023e 62bd 8c3d 8cb4 8ebd 7c99 26bd
00000300: f4c4 023e 0bfb 89bd 14d6 98bd cc00 f53b
00000310: 5898 98be fc1a b0be 0d61 003e 7621 693d
00000320: 9749 70bd e403 0f3e 8ecc 0a3e f1c9 843d
00000330: 7b4c 8abe 7196 51be 1510 2bbe 0c3f 8bbd
00000340: 8477 d0bc 0b1e c6be aa0b c83c bd56 2d3e
00000350: 5f21 afbd 8fbd f83d 2b7c 133e ca32 c5bd
00000360: 5697 613e e00e 14bf 4780 343d e554 243e
00000370: fa04 0fbf 2362 573d b925 44be df7c bdbe
00000380: 1639 c7bd 472f a83c a309 f03d e715 223e
00000390: b4d8 14be 50ee b13c f05b 033e 19c9 7fbd
000003a0: 4b9b f03d b9e2 21bc 6437 333e e93e 3d3e
000003b0: 3cc9 433e 89bd 6c3d e5d6 e1bd 9ee4 0fbe
000003c0: 8120 093e 7e4e f4bd db9b cbbd ec92 cb3d
000003d0: 63da d2bd 1916 fbbe 3321 91bd e888 7dbd
000003e0: d33a 2cbd 3e51 55be cf9e aabd b0e6 913d
000003f0: ce9e 09bb 5e16 c9bc 116d 7ebe 0e9a 213e

layer1.0.bn2.weight f4 [16]
0.87611794 0.6526791 0.58099806 0.70808166 0.46651822 0.315523 -0.009556557 0.5101008
0.81068647 0.3429571 0.811216 0.5657051 0.12521146 0.9610529 0.6672987 0.59929943
00000000: 4449 603f fa15 273f 4abc 143f d744 353f
00000010: 7adb ee3e 3b8c a13e 1b93 1cbc f795 023f
00000020: 2689 4f3f 1398 af3e daab 4f3f 0dd2 103f
00000030: 6f37 003e 9007 763f 16d4 2a3f b06b 193f

layer1.0.bn2.bias f4 [16]
-0.048070326 -0.016241701 -0.096423775 -0.03459689 -0.20790216 -0.16776124 -0.093899325 0.0063817156
-0.05200662 -0.03223564 0.063355535 0.057282057 -0.07606409 -0.042647757 -0.10176922 -0.07994878
00000000: 64e5 44bd 510d 85bc d479 c5bd 78b5 0dbd
00000010: 4ee4 54be 9ac9 2bbe 4a4e c0bd b61d d13b
00000020: e504 55bd 8509 04bd 8cc0 813d 97a0 6a3d
00000030: 7dc7 9bbd 6aaf 2ebd 616c d0bd 30bc a3bd

layer1.0.bn2.running_mean f4 [16]
-0.46165702 -0.38390574 -0.32524428 -0.07069268 0.40934032 -0.28899878 -0.92977524 -0.4618868
-0.5287473 -0.2594095 -0.5255511 -0.047825113 -0.15635319 -0.124322325 0.057997998 -0.2650202
00000000: 4f5e ecbe 4b8f c4be 6b86 a6be 53c7 90bd
00000010: 0e95 d13e a6f7 93be c005 6ebf 6d7c ecbe
00000020: fc5b 07bf 52d1 84be 848a 06bf 44e4 43bd
00000030: 0d1b 20be b49c febd 4f8f 6d3d bab0 87be

layer1.0.bn2.running_var f4 [16]
0.35740924 0.38626832 0.2552606 0.31285912 0.19996393 0.23269701 0.51640725 0.16231585
0.234293 0.20779845 0.5205546 0.22800611 0.17224324 0.34381083 0.3458706 0.3447048
00000000: 58fe b63e f6c4 c53e 84b1 823e 122f a03e
00000010: 58c3 4c3e 2048 6e3e 4433 043f 2036 263e
00000020: 81ea 6f3e 1ec9 543e 1143 053f 6f7a 693e
00000030: 8860 303e f907 b03e f415 b13e 267d b03e

layer1.1.conv1.weight f4 [16, 16, 3, 3]
0.14878537 0.13653262 0.03306539 -0.20762283 0.21270274 0.11296074 -0.24548678 0.12129938
0.1119092 -0.08156854 0.102050446 0.007883443 -0.0008995374 -0.14319924 -0.41016346 -0.010231738
-0.0025426832 -0.34020448 0.11386654 0.23490039 0.08968135 0.15946545 -0.046564113 -0.09104789
-0.083424635 -0.12660041 0.05254328 -0.069251925 -0.1551231 0.038329486 -0.24926795 -0.12281821
0.05745153 -0.23356445 -0.020354278 0.016412998 0.0015704479 -0.039064653 -0.09816383 -0.34834334
-0.082602024 0.30865726 -0.11757033 -0.34116596 -0.22579907 0.2528356 -0.04822394 -0.3534774
0.1218634 0.13886583 -0.31856313 -0.15482289 -0.34437507 0.13665515 -0.10030066 -0.0520643
-0.09076758 -0.14422086 -0.33423445 -0.2792859 -0.10488491 0.027840262 -0.009361447 -0.005735955
0.03915129 0.18648863 -0.011731549 0.19776706 -0.0063181077 0.010077073 -0.0036016528 -0.047415596
0.12046214 -0.06578841 -0.19375126 0.1414137 0.17036572 -0.114045635 0.11685953 0.28994894
0.029377436 0.1508237 0.111975424 -0.22137716 0.21870562 -0.068502694 -0.31778082 0.070303895
-0.046734795 -0.23531175 0.018281084 -0.037342228 -0.13487218 0.0953725 0.16373667 0.1930888
-0.22893585 0.06369309 0.2380345 -0.1504182 0.07947566 0.23808612 -0.034742855 -0.10802919
0.081769444 -0.058506623 -0.34720474 -0.48312223 0.012070632 -0.16203575 -0.06364309 0.08536356
-0.087219484 0.008348694 0.25139368 0.13596624 -0.0665304 -0.07807473 -0.12390433 -0.122444406
-0.12012563 -0.06307045 0.1593367 0.14343868 -0.10633373 0.07247735 0.03654997 0.16168281
0.15309648 0.050285615 -0.0047340593 0.016396485 -0.14104529 -0.29643998 -0.23188007 -0.18196784
-0.18901873 -0.2735682 0.05127397 -0.14793733 -0.36214408 0.13727713 -0.15275246 -0.1988697
0.05060741 -0.073180996 -0.31979758 -0.005628691 -0.0031558198 -0.1367966 0.24487124 -0.008019172
-0.22646461 -0.43084693 -0.20580184 -0.21949694 -0.19536527 -0.046163958 -0.1468825 0.15451466
-0.080335855 -0.08664789 -0.124576814 0.06469028 0.02689003 -0.20716286 -0.053500537 -0.23014437
-0.27350098 -0.14229412 -0.20186591 -0.19814707 0.06903606 -0.18366306 -0.6243711 -0.34586337
-0.38705197 -0.48560968 -0.37288973 -0.094014816 0.25032872 0.07843795 0.11492055 -0.04499665
0.02190864 0.04557088 -0.22982052 -0.13183096 -0.43781447 -0.04986254 0.257717 0.39832747
0.08696074 0.016689379 -0.20155738 -0.090751305 -0.24808705 -0.33577907 0.20455846 0.13174704
0.036035992 0.04481593 -0.0061387704 0.05752682 -0.043132313 -0.024526957 -0.18354042 -0.22852595
-0.16402669 0.09920557 0.22084633 0.20211594 -0.063288264 0.36467665 0.002917659 -0.21512769
-0.093933575 0.16923775 -0.19190605 0.034070604 -0.0921293 -0.16451769 0.16569407 0.08778565
0.051948827 0.15706144 0.25621343 0.14269924 -0.11061522 -0.109044895 -0.041854005 -0.22843924
-0.111302264 -0.025488943 0.09261009 0.10003435 -0.08837833 -0.044432674 0.029671164 0.08223095
-0.23973624 -0.0482507 -0.023631902 0.09854978 -0.23461187 -0.21632957 -0.061067462 0.07632117
0.031241953 0.12097415 0.16313641 0.13222809 0.067498565 0.009248723 -0.067252405 -0.10008753
00000000: 315b 183e 35cf 0b3e 936f 073d 149b 54be
00000010: bfce 593e f657 e73d e360 7bbe cf6b f83d
00000020: a730 e53d 680d a7bd d3ff d03d 8e29 013c
00000030: efce 6bba d2a2 12be f200 d2be 05a3 27bc
00000040: 25a3 26bb 482f aebe dc32 e93d ba89 703e
00000050: dbaa b73d e94a 233e 03ba 3ebd 5177 babd
00000060: 89da aabd 8aa3 01be 9f37 573d f4d3 8dbd
00000070: 97d8 1ebe 61ff 1c3d 1940 7fbe 1d88 fbbd
00000080: 4c52 6b3d 852b 6fbe 04be a6bc 8d74 863c
00000090: 7dd7 cd3a 4202 20bd 1e0a c9bd 0f5a b2be
000000a0: 402b a9bd 5308 9e3e b7c8 f0bd 4ead aebe
000000b0: df37 67be ab73 813e 7786 45bd fdfa b4be
000000c0: 8593 f93d d832 0e3e b51a a3be e489 1ebe
000000d0: ee51 b0be 54ef 0b3e 6f6a cdbd 6041 55bd
000000e0: 5ae4 b9bd a2ae 13be c720 abbe 90fe 8ebe
000000f0: e6cd d6bd 4311 e43c c160 19bc aef4 bbbb
00000100: 1a5d 203d e0f6 3e3e af35 40bc 7383 4a3e
00000110: 2108 cfbb 4f1a 253c b509 6cbb db36 42bd
00000120: dbb4 f63d 13bc 86bd bb66 46be c1ce 103e
00000130: 5a74 2e3e c290 e9bd 0d54 ef3d 3074 943e
00000140: f3a8 f03c 8771 1a3e 5f53 e53d b2b0 62be
00000150: 5ef4 5f3e 244b 8cbd 2bb4 a2be 7dfb 8f3d
00000160: fc6c 3fbd 90f5 70be 36c2 953c 2af4 18bd
00000170: ef1b 0abe a852 c33d 96aa 273e 12b9 453e
00000180: 296e 6abe 8671 823d 51bf 733e 3b07 1abe
00000190: 23c4 a23d d9cc 733e 864e 0ebd 683e ddbd
000001a0: bd76 a73d a4a4 6fbd d2c4 b1be cc5b f7be
000001b0: e6c3 453c b3ec 25be 4f57 82bd 17d3 ae3d
000001c0: 21a0 b2bd f6c8 083c acb6 803e bc3a 0b3e
000001d0: 1741 88bd a5e5 9fbd 8ec1 fdbd 22c4 fabd
000001e0: 6d04 f6bd 152b 81bd 2929 233e 97e1 123e
000001f0: 80c5 d9bd 016f 943d 6cb5 153d 2e90 253e
00000200: 53c5 1c3e 4af8 4d3d 2b20 9bbb ec51 863c
00000210: 2d6e 10be fbc6 97be f871 6dbe c755 3abe
00000220: 208e 41be 2211 8cbe a804 523d e27c 17be
00000230: f36a b9be 6092 0c3e 246b 1cbe 80a4 4bbe
00000240: b749 4f3d ebdf 95bd 82bc a3be e270 b8bb
00000250: dfd1 4ebb 6814 0cbe 87bf 7a3e d862 03bc
00000260: 57e6 67be f897 dcbe b8bd 52be cec3 60be
00000270: d50d 48be 6b16 3dbd 5e68 16be 1739 1e3e
00000280: 2087 a4bd 7374 b1bd 2122 ffbd 567c 843d
00000290: 7b48 dc3c 8022 54be 6123 5bbd f7aa 6bbe
000002a0: 5208 8cbe 8db5 11be f0b5 4ebe 11e7 4abe
000002b0: c762 8d3d 2b12 3cbe c9d6 1fbf 0115 b1be
000002c0: ad2b c6be d5a1 f8be 67eb bebe d78a c0bd
000002d0: 162b 803e 13a4 a03d 775b eb3d 684e 38bd
000002e0: c079 b33c 88a8 3a3d 1256 6bbe b2fe 06be
000002f0: 3829 e0be aa3c 4cbd 7cf3 833e 94f1 cb3e
00000300: 7918 b23d 2ab8 883c 0f65 4ebe d2db b9bd
00000310: 880a 7ebe 3ceb abbe c677 513e b2e8 063e
00000320: 7a9a 133d e990 373d bd27 c9bb 3ea1 6b3d
00000330: 82ab 30bd c2ec c8bc 05f2 3bbe b502 6abe
00000340: 9df6 27be 4a2c cb3d 8a25 623e 7bf7 4e3e
00000350: 479d 81bd e6b6 ba3e 3236 3f3b 6f4a 5cbe
00000360: 3f60 c0bd a94c 2d3e 0583 44be 9e8d 0b3d
00000370: 49ae bcbd 5377 28be b5ab 293e f6c8 b33d
00000380: 4bc8 543d b7d4 203e 682e 833e c01f 123e
00000390: 3c8a e2bd ee52 dfbd 1b6f 2bbd faeb 69be
000003a0: 71f2 e3bd 30ce d0bc 5caa bd3d cfde cc3d
000003b0: b3ff b4bd 09ff 35bd f110 f33c b368 a83d
000003c0: 6b7d 75be 87a2 45bd b197 c1bc 78d4 c93d
000003d0: 183e 70be 8085 5dbe e021 7abd 464e 9c3d
000003e0: 20ef ff3c 4cc1 f73d 3b0d 273e cd66 073e
000003f0: b03c 8a3d f587 173c a1bb 89bd b1fa ccbd

layer1.1.bn1.weight f4 [16]
0.63094 0.493912 0.62805635 0.6750619 0.52759707 0.25829342 0.51241153 0.31707957
0.62429535 0.30613056 0.63656336 0.41448689 0.27063575 0.5242994 0.41808856 0.40817216
00000000: 4985 213f 09e2 fc3e 4dc8 203f dbd0 2c3f
00000010: 9a10 073f 093f 843e 672d 033f 4158 a23e
00000020: d2d1 1f3f 25bd 9c3e d1f5 223f a037 d43e
00000030: c590 8a3e 7c38 063f b40f d63e f1fb d03e

layer1.1.bn1.bias f4 [16]
0.107978456 -0.07350342 -0.13518095 -0.11766667 -0.30255103 -0.023891091 -0.07509892 -0.08980152
-0.34688723 -0.08503391 -0.22787064 -0.03647365 -0.0639925 -0.14252043 -0.17519829 -0.03805559
00000000: cf23 dd3d f688 96bd e06c 0abe 39fb f0bd
00000010: f8e7 9abe 40b7 c3bc 76cd 99bd dce9 b7bd
00000020: 349b b1be 4226 aebd ec56 69be 6565 15bd
00000030: 800e 83bd e0f0 11be 2e67 33be 2ee0 1bbd

layer1.1.bn1.running_mean f4 [16]
-0.6755765 -1.2208403 0.39263648 -1.153235 0.0042543067 -0.1896947 -0.47354487 -1.6015178
-0.18861073 0.07001719 -0.1352089 -0.40395376 -1.2773463 -0.22797365 -0.16082008 -0.9748449
00000000: 95f2 2cbf 7f44 9cbf a607 c93e 349d 93bf
00000010: b667 8b3b 543f 42be 7974 f2be 89fe ccbf
00000020: 2c23 41be 2c65 8f3d 3474 0abe 07d3 cebe
00000030: 1580 a3bf ed71 69be 05ae 24be 6f8f 79bf

layer1.1.bn1.running_var f4 [16]
0.81819767 0.92949224 0.91367406 0.945352 0.5532689 1.1324522 0.56563485 0.65266603
0.40207058 1.0212986 0.8464865 1.0258989 0.45349953 0.49337357 0.28942937 0.66955906
00000000: 6775 513f 34f3 6d3f 8be6 693f 9702 723f
00000010: 08a3 0d3f 32f4 903f 72cd 103f 1f15 273f
00000020: 32dc cd3e eab9 823f 57b3 583f a850 833f
00000030: 1731 e83e 769b fc3e 1630 943e 3968 2b3f

layer1.1.conv2.weight f4 [16, 16, 3, 3]
0.22840966 -0.007545713 -0.2359262 0.27206215 -0.029777622 -0.22600763 0.10580754 0.031763066
-0.16093099 0.21580903 0.22270554 0.17537323 -0.30636677 -0.43028918 -0.038507756 -0.23592176
-0.30780584 0.00033849388 0.051103268 0.025889438 0.10752205 0.052674323 0.11109773 0.0800411
-0.1936857 -0.13708675 -0.027035572 -0.009921567 0.082968004 0.16708128 -0.015360981 -0.06966914
0.13213843 0.19504897 -0.22703956 -0.29868826 -0.076573096 -0.11084827 0.05995884 0.50753975
0.22548595 0.16354835 0.41499782 0.24565811 0.2778637 -0.07357284 -0.15548187 -0.23505585
-0.0079355845 -0.16498004 -0.51420075 0.2011676 -0.05765961 -0.649221 0.1723492 0.1832192
0.09215676 0.2641989 0.28775057 0.21674912 0.08047106 0.12975097 -0.0066256705 0.013035103
0.0769074 0.024717681 0.111277774 0.26804262 0.17674918 0.13447362 -0.039814103 -0.0656317
-0.24901389 -0.4503979 -0.19768922 -0.03394537 -0.19472466 -0.10119037 0.14506909 0.161911
0.088489026 0.012463535 -0.016976563 0.097084366 0.12803365 0.08552091 0.0395166 0.06448646
-0.08037452 -0.16395402 0.10405624 -0.27212077 -0.18779726 0.0061002537 0.05514649 0.12001655
-0.08620869 -0.113183364 0.0581028 0.048506696 -0.057965167 -0.22287568 -0.08746987 -0.16530566
-0.13686454 -0.06944308 -0.08392076 -0.21712615 0.104727775 0.14077784 -0.11037538 -0.07052875
-0.041145846 -0.15383768 0.00786614 0.039207168 -0.24760321 0.07584199 -0.05735085 -0.018552097
0.07662329 -0.048779428 -0.031485517 -0.06347666 -0.035019 -0.25350726 0.026745386 0.06279182
-0.055775348 0.056589894 0.05824869 0.024483044 0.15032968 0.12017966 -1.3592256e-05 -0.16228946
-0.22636448 0.1620732 0.011347386 -0.20249894 0.0017295373 -0.03451812 -0.3967013 -0.02289587
-0.27350333 -0.073750556 0.14265655 -0.3930746 -0.09650599 0.077067636 -0.3678803 0.08435352
0.2798281 -0.050546918 0.18758808 0.09769063 0.039605852 -0.049513504 -0.014791144 -0.1866321
0.1132538 0.07827807 0.032605976 -0.02853288 -0.64480513 0.059130628 -0.122512475 -0.45050192
-0.12279136 -0.18682365 -0.28006473 0.05871189 -0.12946321 0.23039164 -0.17732295 0.094028965
0.20596589 -0.022773417 0.28544563 0.35620144 0.30402434 0.13927251 -0.4448946 0.20556848
0.06313862 -0.36661714 -0.053701725 -0.3748574 -0.40193528 -0.14220603 -0.16353865 0.094030544
-0.038197245 -0.084808834 0.07791638 -0.23971163 -0.1934663 -0.031480815 0.029675234 0.047089163
-0.17448784 -0.024367975 -0.2033411 -0.33899564 -0.15233658 -0.33375862 -0.27215582 -0.064651914
0.22532763 0.1556633 -0.05145673 0.24394816 0.20608193 0.016289335 -0.048301175 -0.05769602
0.2731259 0.08163022 0.15054749 0.015007902 -0.060532004 -0.069520414 -0.21466517 -0.14995536
-0.055871826 0.24848646 0.03237776 -0.2278701 -0.04426615 -0.034690708 -0.23524007 -0.2229525
-0.035152834 -0.11134954 0.05804496 0.11224832 0.006034225 0.15127254 0.09842408 0.044682916
0.07279536 -0.1421974 -0.14182247 -0.47996897 -0.145547 0.10254743 -0.32799318 -0.13180362
0.12363175 -0.05652884 -0.021745974 0.045293834 -0.10797983 -0.17592642 -0.003223581 0.07912178
00000000: 39e4 693e 0742 f7bb a396 71be bb4b 8b3e
00000010: 33f0 f3bc 8b6e 67be a0b1 d83d fd19 023d
00000020: 18cb 24be 0bfd 5c3e ec0c 643e 0a95 333e
00000030: 1bdc 9cbe dd4e dcbe 4fba 1dbd 7995 71be
00000040: ba98 9dbe e177 b139 a951 513d 1616 d43c
00000050: 8534 dc3d 08c1 573d 3587 e33d 97ec a33d
00000060: 8b55 46be 7860 0cbe b479 ddbc 118e 22bc
00000070: 21eb a93d 5b17 2b3e a0ac 7bbc b2ae 8ebd
00000080: 4c4f 073e ebba 473e 0f7d 68be abed 98be
00000090: 5bd2 9cbd 6b04 e3bd 6797 753d 20ee 013f
000000a0: cae5 663e 3879 273e 987a d43e cd8d 7b3e
000000b0: 2744 8e3e 5bad 96bd a436 1fbe 7bb2 70be
000000c0: 4104 02bc 87f0 28be a9a2 03bf e1fe 4d3e
000000d0: 7c2c 6cbd 5933 26bf 4f7c 303e d09d 3b3e
000000e0: afbc bc3d 1445 873e 0b54 933e 7bf3 5d3e
000000f0: 03ce a43d 70dd 043e 271c d9bb 2f91 553c
00000100: a081 9d3d bc7c ca3c 9ae5 e33d e23c 893e
00000110: bdfd 343e 74b3 093e 1d14 23bd ea69 86bd
00000120: 7ffd 7ebe 8e9a e6be 0b6f 4abe 4d0a 0bbd
00000130: e765 47be e63c cfbd fe8c 143e ffcb 253e
00000140: bc39 b53d db33 4c3c 6f12 8bbc 2bd4 c63d
00000150: 411b 033e 9625 af3d 29dc 213d 7a11 843d
00000160: 659b a4bd 90e3 27be 701b d53d 6a53 8bbe
00000170: ed4d 40be a3e4 c73b 49e1 613d 3dcb f53d
00000180: 2f8e b0bd aecc e7bd 34fd 6d3d f5ae 463d
00000190: e26c 6dbd 8639 64be 6723 b3bd e345 29be
000001a0: 3826 0cbe 2c38 8ebd a6de abbd 5156 5ebe
000001b0: 847b d63d 1128 103e 7d0c e2bd 6171 90bd
000001c0: 8c88 28bd a087 1dbe fce0 003c b297 203d
000001d0: b28b 7dbe 0c53 9b3d bae8 6abd 91fa 97bc
000001e0: acec 9c3d f0cc 47bd f5f6 00bd 0d00 82bd
000001f0: 1570 0fbd b4cb 81be 2419 db3c ff98 803d
00000200: b174 64bd ceca 673d 2e96 6e3d aa90 c83c
00000210: 06f0 193e c120 f63d 4c0a 64b7 352f 26be
00000220: 17cc 67be 84f6 253e 63ea 393c e25b 4fbe
00000230: a4b1 e23a df62 0dbd 6f1c cbbe 1f90 bbbc
00000240: a108 8cbe 880a 97bd 8f14 123e 1341 c9be
00000250: efa4 c5bd a3d5 9d3d cf5a bcbe 8ac1 ac3d
00000260: a145 8f3e 490a 4fbd 1717 403e 0612 c83d
00000270: bf39 223d acce 4abd 8e56 72bc 7c1c 3fbe
00000280: 9cf1 e73d 4150 a03d d88d 053d c9bd e9bc
00000290: f311 25bf f532 723d d2e7 fabd 30a8 e6be
000002a0: 097a fbbd b34e 3fbe a564 8fbe e17b 703d
000002b0: 0192 04be c9eb 6b3e 2694 35be 4292 c03d
000002c0: b9e8 523e 518f babc ee25 923e 0960 b63e
000002d0: 14a9 9b3e 749d 0e3e 3ac9 e3be 8b80 523e
000002e0: d24e 813d 3eb5 bbbe 57f6 5bbd 4fed bfbe
000002f0: 76ca cdbe 759e 11be ad76 27be 1693 c03d
00000300: b774 1cbd 41b0 adbd 9f92 9f3d f776 75be
00000310: 081c 46be 07f2 00bd 7a19 f33c 91e0 403d
00000320: f1ac 32be 599f c7bc a638 50be d690 adbe
00000330: 1ffe 1bbe 69e2 aabe 0258 8bbe 3968 84bd
00000340: 49bc 663e 3366 1f3e 4bc4 52bd 8ccd 793e
00000350: 2407 533e 3671 853c 74d7 45bd a952 6cbd
00000360: 28d7 8b3e bf2d a73d 1f29 1a3e b4e3 753c
00000370: 68f0 77bd b860 8ebd 30d1 5bbe e68d 19be
00000380: dbd9 64bd 3c73 7e3e 8b9e 043d c856 69be
00000390: 6c50 35bd d817 0ebd c6e2 70be a94d 64be
000003a0: 6bfc 0fbd 3a0b e4bd 8dc0 6d3d 72e2 e53d
000003b0: c0ba c53b 30e7 1a3e 9092 c93d 6f05 373d
000003c0: bc15 953d 329c 11be e939 11be 7ebe f5be
000003d0: 460a 15be 6304 d23d b9ee a7be 87f7 06be
000003e0: a532 fd3d c98a 67bd 9d24 b2bc 0786 393d
000003f0: 8724 ddbd 0e26 34be b742 53bb 9a0a a23d

layer1.1.bn2.weight f4 [16]
0.6544379 0.8214766 0.33748037 0.16595222 0.07496278 0.6158001 0.41894284 0.73566175
0.49083054 0.44405255 0.84927046 0.6124615 0.7868847 0.0022224137 0.0162151 0.65508723
00000000: 3e89 273f 4a4c 523f 3aca ac3e 61ef 293e
00000010: 1686 993d 13a5 1d3f ad7f d63e 5454 3c3f
00000020: 244e fb3e db5a e33e ca69 593f 47ca 1c3f
00000030: 4771 493f eaa5 113b 88d5 843c ccb3 273f

layer1.1.bn2.bias f4 [16]
-0.35669696 -0.22330552 -0.019280758 -0.01688246 -0.054708593 -0.11831281 0.011886438 -0.04849867
-0.14830948 -0.15485065 0.06628795 0.13790524 0.047751162 -0.018254796 0.02477117 -0.30366355
00000000: fca0 b6be 34aa 64be aef2 9dbc 164d 8abc
00000010: 1e16 60bd fd4d f2bd 56bf 423c 8ba6 46bd
00000020: 71de 17be 2b91 1ebe fac1 873d 0837 0d3e
00000030: b996 433d 158b 95bc e9ec ca3c ca79 9bbe

layer1.1.bn2.running_mean f4 [16]
0.05741543 -0.17872481 -0.030795379 -0.030705491 -0.1585174 0.24997354 -0.11748911 -0.29637784
-0.29291528 0.29995883 -0.59736365 -1.0263679 0.25839522 0.441794 -1.0281065 -0.052083626
00000000: 712c 6b3d a303 37be 9746 fcbc 158a fbbc
00000010: 6352 22be 10f9 7f3e 219e f0bd d6be 97be
00000020: fef8 95be 3494 993e d3ec 18bf 0660 83bf
00000030: 614c 843e d332 e23e fe98 83bf a455 55bd

layer1.1.bn2.running_var f4 [16]
0.54801744 0.4877396 0.25233144 0.32003847 0.5482142 0.35694632 0.32267818 0.30616537
0.5108613 0.28158957 0.40492317 1.0442626 0.48690027 0.20989592 0.5551969 0.9795039
00000000: df4a 0c3f 01b9 f93e 9631 813e 15dc a33e
00000010: c457 0c3f abc1 b63e 1336 a53e b5c1 9c3e
00000020: cec7 023f 822c 903e 1752 cf3e 66aa 853f
00000030: fe4a f93e f5ee 563e 6221 0e3f c5c0 7a3f

layer2.0.conv1.weight f4 [32, 16, 3, 3]
-0.20254005 -0.12824965 -0.12701502 0.06505051 -0.076090075 -0.21152452 0.21101135 0.2873288
-0.20264554 0.06463634 0.035917718 -0.27913862 0.09301231 -0.22007534 -0.279107 0.015078429
-0.09898404 -0.07621954 -0.013157944 0.07021904 0.15987365 0.11412094 0.06937892 0.16773054
-0.04637175 -0.15413009 -0.15349318 -0.20975749 -0.38727313 -0.4303317 -0.1347891 -0.2946717
-0.16831222 -0.06534149 -0.1845678 -0.118295714 0.21167047 0.1887435 0.059003845 0.30439934
0.18079896 0.058483917 0.43640336 0.27823627 0.043768723 0.14878039 0.05478716 -0.0013855955
0.187685 0.07288126 0.13734326 0.27636638 0.21407491 0.1477649 -0.05212736 0.028805824
-0.45744365 0.042019583 0.014259714 -0.34628877 -0.23215738 -0.1004092 -0.119154446 -0.072009966
-0.10679646 -0.2403734 -0.068625055 -0.24890009 -0.17935471 -0.11580835 0.072402604 0.025552148
0.040239565 -0.28366247 -0.42391142 0.061649367 -0.2620818 -0.2532771 0.15704758 -0.061003827
-0.012863711 0.022083545 -0.19277827 -0.147123 -0.00230605 -0.22715214 -0.3287837 -0.14203559
-0.23364289 -0.119677186 -0.17864655 -0.023297595 0.15409699 -0.2727955 -0.14315961 0.19189747
-0.07903443 -0.04201278 -0.062575765 -0.037537113 -0.18363358 0.058455907 0.035769362 -0.07412672
0.024788588 0.049579453 0.04148344 0.044769198 0.0061988034 -0.11753939 -0.1393554 -0.037716452
0.120322436 0.09779639 0.017902227 0.2120535 0.19222511 0.30980945 0.18993881 -0.0147412615
0.25242323 0.21801493 -0.010533986 0.09795623 -0.05970913 -0.15788929 -0.18464328 -0.32758713
-0.3847807 -0.2528369 -0.41636273 -0.26317003 -0.1568044 -0.11915237 -0.17213278 0.14634694
-0.0239412 -0.28982174 0.033569567 -0.050061207 -0.26934797 -0.021317815 0.098741144 0.13389233
0.14123784 -0.06966035 -0.14537083 0.043460984 -0.2224985 -0.4372461 0.041513134 -0.16495344
-0.39050847 -0.10228194 0.029048152 0.037752572 -0.20016597 -0.004604482 0.05811155 -0.13849163
0.11759194 0.05441946 0.114873484 0.039982617 0.06866286 0.115587026 0.22442654 -0.11120993
0.23788695 0.02971955 -0.17436789 0.0715963 0.17023621 -0.13572639 0.18553077 0.16752008
-0.04888759 0.11555156 -0.07050782 0.014984845 -0.27681062 -0.15804626 -0.012924648 -0.105737574
-0.12892315 -0.089260444 0.103027254 -0.011904364 -0.051775526 0.11507656 -0.11675231 0.03498312
0.021120654 -0.3472574 0.02796484 0.08933072 -0.07195408 -0.107607104 -0.14084408 -0.18347432
-0.29725337 -0.2069827 -0.16807589 -0.2718298 -0.25488114 -0.3301162 -0.23916477 0.16318135
0.30909657 0.058916356 0.10811758 0.08334284 -0.16257638 0.076424345 -0.05799212 -0.30602163
0.055863112 0.073176555 0.007831292 0.030250955 -0.0019394853 -0.19715485 -0.04695167 -0.31948984
-0.23067185 -0.42518002 -0.07292591 0.006865643 -0.25592837 -0.08484657 -0.014200038 -0.11578359
-0.049916226 0.01062652 0.043811623 0.19497824 0.08715286 0.052023422 0.17070033 0.051869914
0.07755989 0.12517479 0.09992352 -0.010654222 0.091442846 0.010055082 -0.0032750473 -0.018198933
-0.052780792 -0.18760292 -0.12730569 -0.21426892 0.026541641 0.097544424 0.046625458 0.032633685
00000000: a966 4fbe e053 03be 3a10 02be 3439 853d
00000010: 1dd5 9bbd e299 58be 5c13 583e c31c 933e
00000020: 5082 4fbe 0f60 843d 751e 133d 42eb 8ebe
00000030: 3d7d be3d 6e5b 61be 1de7 8ebe 840b 773c
00000040: 25b8 cabd fd18 9cbd 6b94 57bc 00cf 8f3d
00000050: ebb5 233e 3db8 e93d 8916 8e3d 8ec1 2b3e
00000060: 4ef0 3dbd 47d4 1dbe 512d 1dbe abca 56be
00000070: aa48 c6be 7054 dcbe 2706 0abe 36df 96be
00000080: 0a5a 2cbe c2d1 85bd 57ff 3cbe 0645 f2bd
00000090: 25c0 583e fa45 413e 04ae 713d 3bda 9b3e
000000a0: 5d23 393e d58c 6f3d 4370 df3e fc74 8e3e
000000b0: d546 333d e359 183e 8068 603d df9c b5ba
000000c0: 7f30 403e c542 953d b6a3 0c3e e57f 8d3e
000000d0: 7436 5b3e af4f 173e 8083 55bd 31fa eb3c
000000e0: 0e36 eabe ba1c 2c3d 93a1 693c c34c b1be
000000f0: aaba 6dbe 57a3 cdbd 3f07 f4bd f679 93bd
00000100: 1ab8 dabd 7224 76be 4b8b 8cbd aadf 7ebe
00000110: c3a8 37be ee2c edbd d147 943d bd52 d13c
00000120: 3ed2 243d 353c 91be eb0a d9be 0c84 7c3d
00000130: 962f 86be 89ad 81be 15d1 203e 26df 79bd
00000140: 51c2 52bc 8de8 b43c ab67 45be 69a7 16be
00000150: 1921 17bb 929a 68be 5656 a8be c771 11be
00000160: 1540 6fbe 5019 f5bd 1fef 36be 99da bebc
00000170: 9acb 1d3e daab 8bbe 6f98 12be c580 443e
00000180: cedc a1bd 9815 2cbd b927 80bd 84c0 19bd
00000190: 710a 3cbe 766f 6f3d e582 123d c0cf 97bd
000001a0: 7011 cb3c d313 4b3d 8aea 293d e85f 373d
000001b0: 551f cb3b 7eb8 f0bd 2fb3 0ebe 917c 1abd
000001c0: 9c6b f63d 7949 c83d b1a7 923c 8d24 593e
000001d0: a9d6 443e 589f 9e3e 527f 423e 5585 71bc
000001e0: 9e3d 813e 4e3f 5f3e bd96 2cbc 479d c83d
000001f0: 9091 74bd bbad 21be 2113 3dbe 80b9 a7be
00000200: fa01 c5be d773 81be 7f2d d5be 39be 86be
00000210: 5591 20be 2806 f4bd 9343 30be f9db 153e
00000220: 5620 c4bc 8463 94be 3e80 093d fb0c 4dbd
00000230: fae7 89be b3a2 aebc cc38 ca3d 121b 093e
00000240: a7a0 103e 16aa 8ebd 17dc 14be 2504 323d
00000250: a6d6 63be b9de dfbe ad09 2a3d 8ee9 28be
00000260: baf0 c7be 3279 d1bd 64f6 ed3c 71a2 1a3d
00000270: 4ff8 4cbe 32e1 96bb 6006 6e3d c0d0 0dbe
00000280: 0bd4 f03d f1e6 5e3d ca42 eb3d d0c4 233d
00000290: 1d9f 8c3d e4b8 ec3d 12d0 653e 08c2 e3bd
000002a0: a398 733e 6a76 f33c 7f8d 32be 15a1 923d
000002b0: 6752 2e3e dcfb 0abe c7fb 3d3e 628a 2b3e
000002c0: 5b3e 48bd 4ca6 ec3d 6766 90bd ff82 753c
000002d0: 1fba 8dbe e1d6 21be e7c1 53bc f18c d8bd
000002e0: 6e04 04be 2ece b6bd f4ff d23d 860a 43bc
000002f0: 9312 54bd 42ad eb3d d61b efbd 764a 0f3d
00000300: 3905 ad3c b9cb b1be 8516 e53c 06f3 b63d
00000310: a95c 93bd 1d61 dcbd 6e39 10be b1e0 3bbe
00000320: 9831 98be 46f3 53be 161c 2cbe 472d 8bbe
00000330: c87f 82be fe04 a9be 9ce7 74be 0319 273e
00000340: e841 9e3e 4752 713d c06c dd3d a7af aa3d
00000350: 6c7a 26be 5e84 9c3d 2589 6dbd deae 9cbe
00000360: b8d0 643d 97dd 953d d24e 003c dad0 f73c
00000370: 5436 feba f6e2 49be 6550 40bd 2c94 a3be
00000380: 3e35 6cbe 32b1 d9be 2e5a 95bd 30f9 e03b
00000390: 0b09 83be 0ac4 adbd 47a7 68bc f21f edbd
000003a0: f574 4cbd db1a 2e3c d173 333d 60a8 473e
000003b0: 337d b23d 8316 553d 11cc 2e3e 8c75 543d
000003c0: b8d7 9e3d d22d 003e b4a4 cc3d 0c8f 2ebc
000003d0: 6346 bb3d 12be 243c 2da2 56bb ee15 95bc
000003e0: ac30 58bd fb1a 40be 6c5c 02be 5069 5bbe
000003f0: db6d d93c 5fc5 c73d 56fa 3e3d e6aa 053d

layer2.0.bn1.weight f4 [32]
0.80714303 0.5819489 0.9042025 0.33973128 0.46509048 0.90494365 0.589607 0.7200241
0.49124137 0.5026625 0.5305061 0.6904749 0.5056437 0.66154516 0.79696876 0.8359901
0.544813 0.42837533 0.90405643 0.3509069 0.79676425 0.48558766 0.8240573 0.8306989
0.48430428 0.4862709 0.8849563 0.8316234 0.5119502 0.4097644 0.4182656 0.4730222
00000000: eda0 4e3f 9afa 143f d179 673f 42f1 ad3e
00000010: 5720 ee3e 63aa 673f 7cf0 163f 8053 383f
00000020: fd83 fb3e 7dae 003f 3fcf 073f f7c2 303f
00000030: de71 013f 065b 293f 2506 4c3f 7203 563f
00000040: dd78 0b3f 0354 db3e 3e70 673f 12aa b33e
00000050: bef8 4b3f f29e f83e 6bf5 523f afa8 543f
00000060: bbf6 f73e 80f8 f83e 7f8c 623f 45e5 543f
00000070: 2b0f 033f a4cc d13e e926 d63e f72f f23e

layer2.0.bn1.bias f4 [32]
-0.09109205 0.03756529 -0.03881064 -0.033080127 -0.22107732 0.09160964 -0.1552902 -0.32000208
-0.136531 -0.21434218 0.024639841 -0.14388204 -0.14608186 -0.15419306 -0.083505906 0.04771826
-0.08226616 -0.18933818 0.030723361 -0.050179966 -0.22641815 -0.10548379 -0.031887762 -0.17947131
-0.13518468 -0.14867972 -0.042036794 -0.14578307 0.12035584 -0.05463363 -0.009507616 -0.06359445
00000000: 788e babd 10de 193d e8f7 1ebd 077f 07bd
00000010: 1862 62be d69d bb3d 6504 1fbe 50d7 a3be
00000020: c8ce 0bbe 847c 5bbe 7ed9 c93c d055 13be
00000030: 7c96 15be c9e4 1dbe 2505 abbd 3974 433d
00000040: 297b a8bd dee1 41be 8faf fb3c 8289 4dbd
00000050: 29da 67be e307 d8bd be9c 02bd 54c7 37be
00000060: da6d 0abe 7f3f 18be c62e 2cbd 2848 15be
00000070: 1f7d f63d 83c7 5fbd d5c5 1bbc cf3d 82bd

layer2.0.bn1.running_mean f4 [32]
-1.2310876 -1.2885678 -1.1778132 0.5603946 0.12519841 -0.53527945 -2.2817042 -2.3600411
-1.092425 -0.59506714 0.7606843 -0.92079127 1.8896443 0.6901404 1.0184215 -1.4256368
-0.82191235 -0.7542326 -1.4603988 0.065826364 -0.4118076 0.35720652 -1.724145 -0.5750563
-1.1766198 -0.88380504 -0.94044816 -0.94906443 -1.0276822 2.3020103 -1.1950423 -0.19613953
00000000: 4794 9dbf caef a4bf 95c2 96bf 0576 0f3f
00000010: 0334 003e 1308 09bf 7107 12c0 ea0a 17c0
00000020: 95d4 8bbf 5256 18bf 35bc 423f fab8 6bbf
00000030: dddf f13f 0bad 303f a35b 823f 447b b6bf
00000040: d968 52bf 6315 41bf 59ee babf f9cf 863d
00000050: 72d8 d2be c6e3 b63e c9b0 dcbf e436 13bf
00000060: 7a9b 96bf 0c41 62bf 36c1 70bf e3f5 72bf
00000070: 178b 83bf 2354 1340 25f7 98bf cdd8 48be

layer2.0.bn1.running_var f4 [32]
3.2157686 2.6152587 2.5780127 1.01785 1.5517669 2.454915 1.8144959 1.6484648
0.99161667 2.015794 1.5856917 2.4316928 1.6760589 1.5387218 2.9573953 4.8915963
1.2282585 1.9213388 3.5342085 0.8578838 1.408125 1.853292 1.3583968 4.27437
1.5067815 1.9517026 1.9155774 2.9053395 2.5122476 1.0832391 1.6085815 2.8482609
00000000: 27cf 4d40 6660 2740 29fe 2440 e948 823f
00000010: 4ca0 c63f 541d 1d40 6741 e83f e500 d33f
00000020: 97da 7d3f c502 0140 f2f7 ca3f dba0 1b40
00000030: 1989 d63f d6f4 c43f f745 3d40 f587 9c40
00000040: 9337 9d3f 6eee f53f 7930 6240 469e 5b3f
00000050: 713d b43f ac38 ed3f f2df ad3f a4c7 8840
00000060: 37de c03f 64d1 f93f a431 f53f 15f1 3940
00000070: aac8 2040 94a7 8a3f 00e6 cd3f e849 3640
