resnet.pkl (torch_old, 823091 bytes, 77 tensors)

weight f4 [16, 1, 3, 3]
00000000: fb5a febb 477b 36be b01c 3f3e 5788 86be
00000010: 6108 81be af12 ebbc dadc 26be cc02 9ebc
00000020: 5fd7 953e f38b a0be e474 dcbc 1cc1 6c3e
00000030: 3bad 5c3e 6563 1f3e 4604 78bd e544 5c3e
00000040: eec9 1abe 26fa 6abe c7a1 863e 3aa1 c5be
00000050: 536e 323e 656b 9e3e 6024 bd3e 4d81 a13c
00000060: 1139 a1bd 7f4a e3bd d81c 883e 09f3 ca3d
00000070: 3620 03be 7f2a 843c 7735 8dbe 510c af3e
00000080: e45e 9abe 96a7 663e ba4d 66bd 9124 d4bd
00000090: 26f7 02bf aea3 50be 615c 193e f75d 3f3e
000000a0: b273 ed3d 3841 4bbd 2d6d afbe 84ae 5bbe
000000b0: 60eb bdbc 0a58 98bd bbc3 a13e e6ac 4a3d
000000c0: 1ff6 0c3e 9700 9b3e 0cc4 c8bd 3b7a 573e
000000d0: fcac 45bd 7155 f23d bf40 963c 9453 653e
000000e0: ba26 783b 0357 7dbe 150b 95be 59a8 b3be
000000f0: f457 a83e 7b28 033e 7f1d 7cbb cc70 7a3e
00000100: 227d 4dbe 0e1d 153c 3977 0a3d b55d e9be
00000110: 9ba1 3ebe 0cf2 fa3d c531 7dbe 944f 7e3d
00000120: cdbe 3f3e cd06 e53d d650 8f3e 2722 963e
00000130: b869 a6bd ee5b 613d 9209 1a3e 3916 123e
00000140: c969 033e bbdf d73d 0b5b 523e 2ca0 3cbe
00000150: ab45 81bc 9f35 623d f10b b9be 997f e23d
00000160: f345 cbbd c85c b7be 7b13 91bd 2965 923c
00000170: ccb5 f83c 6ffd d3bc 71d5 2fbf 66a0 5dbe
00000180: 6c0d 33be 02bf 10be 083d a8be 75ef 663e
00000190: 518d 38be 9075 a03e e412 993e 3d79 a3be
000001a0: 740e 043e 9cd2 7ebe 18b8 79be 1091 223d
000001b0: 4c77 d0bc 9c0e 3ebd 1def bc3e 66a1 5ebd
000001c0: 843b 11bf 702d 73be 04dd 653b 576d acbe
000001d0: 96de 20bc 7699 c7be 106c 84be c820 633e
000001e0: 218d 04be 1861 803e bb79 993e 8af0 0cbe
000001f0: 6508 c2bd 0466 7a3e b35e 703e c22c 27be
00000200: b0a3 93bd 722e 4b3d 3d4e ee3d 3851 25be
00000210: c92a 353e 3fcd c3bc 3e41 21be a7c5 7fbd
00000220: 22a3 f6bd a737 c73d d416 ccbe 7dae 553e
00000230: e99d 223e 4d79 1fbf 4037 89be 24de 5ebe
-0.0077623106 -0.17820464 0.18663287 -0.26275894 -0.25201705 -0.028695432 -0.16295186 -0.019288443
0.29265878 -0.31356773 -0.026911207 0.2312054 0.21550457 0.1556526 -0.06055095 0.21510656
-0.15116093 -0.22946987 0.262953 -0.3859957 0.17424898 0.3094131 0.36941814 0.019714976
-0.07872213 -0.110981934 0.26584506 0.099096365 -0.12805256 0.016133545 -0.27579853 0.34189084
-0.3015052 0.22524866 -0.05622647 -0.10358537 -0.5115837 -0.20374939 0.14976646 0.18688188
0.11594333 -0.049622744 -0.34262982 -0.21453291 -0.023183525 -0.07438667 0.31594643 0.049481295
0.13765763 0.30273888 -0.09803018 0.21042721 -0.048260674 0.11832703 0.01834142 0.22395164
0.003786488 -0.24740224 -0.29110017 -0.35089377 0.32879603 0.12808411 -0.003846973 0.24457091
-0.20067266 0.009101165 0.033805106 -0.45579305 -0.18616335 0.12253198 -0.24726017 0.06208761
0.18725128 0.11182938 0.2799136 0.2932293 -0.08125633 0.05501931 0.15042713 0.1426629
0.12833323 0.1054072 0.20542543 -0.18420476 -0.01578029 0.05522692 -0.36141923 0.110594936
-0.09925451 -0.35812974 -0.07083794 0.017870503 0.030360125 -0.025877682 -0.6868506 -0.21643218
-0.17485589 -0.14135364 -0.32859063 0.22552283 -0.18022658 0.31339693 0.29897225 -0.31928435
0.12896138 -0.24885029 -0.24386632 0.039689124 -0.02544751 -0.04640065 0.3690118 -0.05435314
-0.5673144 -0.23747802 0.0035074363 -0.3367717 -0.009818694 -0.3898427 -0.25863695 0.22180474
-0.12944461 0.25074077 0.29975685 -0.13763633 -0.094742574 0.24452978 0.23473625 -0.16325668
-0.07208955 0.04960484 0.116360165 -0.16144264 0.17692102 -0.02390158 -0.15747544 -0.062444355
-0.12042834 0.09727412 -0.39861166 0.20867343 0.1588055 -0.62294465 -0.26799965 -0.21764427

weight f4 [16]
00000000: 4805 643f 1ce2 283f 5f80 6e3d d583 2d3f
00000010: 777e 0c3f a411 d73e a538 ce3e 7472 bc3e
00000020: 7188 073f 5006 063f be1b e43e 02eb 673f
00000030: 82ff 5b3f c539 1a3f 40cb 673f fdb6 ae3e
0.8907056 0.65970016 0.058227893 0.67779285 0.5488047 0.42005646 0.4027759 0.3680607
0.5294257 0.5235338 0.44552416 0.9059297 0.8593675 0.602444 0.9054451 0.34123984

bias f4 [16]
00000000: 679b 65be 7864 9e3d 45d8 8bbd e19e c4bc
00000010: 5cb4 54be 85d5 c8bd f59a 8ebd 4aaf 04be
00000020: d2fa 5cbb bc23 3fbe 0a0a 41be 1f61 2c3e
00000030: e3df 7ebe f5cb 063e a5b6 60bc 10d4 0abe
-0.22422563 0.07734007 -0.068283595 -0.02400154 -0.20771927 -0.098063506 -0.069631495 -0.12957492
-0.0033718836 -0.18665975 -0.18851486 0.16833924 -0.24890094 0.13163741 -0.013715421 -0.13557458

running_mean f4 [16]
00000000: 8d97 c2bd cebb 013c 4e60 393e f64e 22bd
00000010: 5142 48be a415 4d3e 3c18 2ebd e905 0bbe
00000020: 7517 8e3e 2e72 f4bd aa25 b3be 82aa 663b
00000030: 088b 4bbe 4dc3 c33a 7577 cb38 c462 89be
-0.09501562 0.007918311 0.18103144 -0.039626084 -0.19556548 0.20027786 -0.04250358 -0.13576473
0.2775227 -0.119358405 -0.34989673 0.0035196845 -0.19877255 0.0014935524 9.702045e-05 -0.26833165

running_var f4 [16]
00000000: c33e fb3c bd2a 843b c018 863d db1a da3b
00000010: 4e54 a03d 052a a33d 1189 483c 4c3e 4b3d
00000020: a123 123e 88ad 323d 5c30 7a3e b879 503c
00000030: 00cd bf3d 6e93 dd3c 680e 0e3c 5b01 203e
0.030669576 0.004033415 0.065476894 0.0066560335 0.0782858 0.07966999 0.01223971 0.049619958
0.14271404 0.043622524 0.2443251 0.0127243325 0.093652725 0.027047839 0.008670427 0.15625517

weight f4 [16, 16, 3, 3]
00000000: 0349 df3d 45d5 e9bd 371b 11bd 7c37 f93d
00000010: 592a e9bd 65c6 adbd d331 1fbb abf6 84bd
00000020: 28f9 ffbb ba91 18bc deba 853b 97eb 88bd
00000030: 6f89 1f3e 26a8 d0bd 4a43 09bc d8fa a9bc
00000040: 8025 03be a8a6 bc3d 812d cdbd 889a 94bd
00000050: f7b3 16bd ccc7 0bbd 4848 08bd b894 463c
00000060: 2190 7dbc 891a dabc a645 07ba cc0c be3d
00000070: 33f8 09bc 86f8 c9bd 662f 8cbd d4e6 00be
00000080: 4312 f9bd afba 16bb 72eb 2fbc e131 19bd
00000090: 9d6c 3d3d 01ae 66bc b43f 96bd 513a efbc
000000a0: ce03 4bbd b8ae fbbc 97d5 bc3c 8337 e4bc
000000b0: 4918 9abd 43e4 13bd cecf 6bbd f832 efbd
000000c0: 1cda 303d 260e 17bc c3cf b9bb 192d 623b
000000d0: eacc c73c 7feb 88bc f69f ffbd 21eb ad3d
000000e0: 160f fd3d 43e2 013d 2fdc 353d 34d8 e03d
000000f0: d7a2 5b3d 63c4 423d f704 31b9 68ee 19bd
00000100: ea6c 49be a350 cd3b 24f7 9abd 789d 97bd
00000110: 174b 58bd 6a27 0ebd 0608 8dbd 503d d8bd
00000120: 27e2 9dbd 9196 463c 6b6d 80bc f5f6 cf3c
00000130: a571 45bd 9f75 7f3d 63eb 44bd 21d8 383d
00000140: 43c9 e9bc a832 6bbd 700b f3bd e2f1 933a
00000150: ad5b 5dbd 15a1 ccbd 6c74 b4bd b3bf 8f3d
00000160: 4179 05bc 3de0 8ebd 59d4 2a3d 918a c03b
00000170: 7a39 8dbd 2488 efbc 5758 d8bd 306d bebb
00000180: 821b 833d 7ed0 56bd 86cd 1f3d b15c cdbd
00000190: cb77 54bd 6ea3 a53d b8e8 c43d 1b98 4bbc
000001a0: b82c 64b8 7b40 163d 3bed 1abd 6e0f 7339
000001b0: c0b5 c43c 7ccb d2bd 7697 e93c e2c6 cd3c
000001c0: 7a6e 09bd 2e2d 593d d36b 463d e80e 863d
000001d0: 2e93 723d 91ba 903d f2b6 9fbd 4f62 093e
000001e0: 8b2f 723d 9d1d cdbd f346 4a3d 91e7 053e
000001f0: d5b2 a4bd 3de2 78bd 1d66 1abe bb47 07be
00000200: bf8c edbd 1e19 debd 2196 04bd dcaf 19be
00000210: 9f69 08be 147a 88bd 5033 28be 756e 86bd
00000220: c862 573c 5e3a 543c 3052 e03b 4600 84bd
00000230: 1241 4b3d 6d20 5fbd b278 7abb 33c7 ac3d
00000240: a1b1 69bd bf7d 2fbe 168c 993d 1326 46bd
00000250: 0f48 87bd 1449 bf3d 3753 5dbd 3b1c 10bd
00000260: ddd9 13bd f3f8 d83d 1d98 223e ac8d 0abc
00000270: 3eb5 86bd 2481 b83d b02f 893d 5ef4 2bbd
00000280: 7566 0fbd 702e b03d c950 2a3c 811e 0c3e
00000290: 8ec4 f63b 76c2 25bd 345e 8db9 c9c4 cdbd
000002a0: e87d dc3d 9aad 58bc 1322 a3bd 129b d63d
000002b0: d4d2 8fbc 2e10 4c3d 2a2a 8e3c a8a9 b93d
000002c0: 3d61 9a3c d89c 73bd 4177 853d af8a ea3c
000002d0: 2729 54bb 4a87 1c3c a699 80bd 0e07 fa3c
000002e0: 8cb3 243e 110a b43d 480e 523d c6bf 253d
000002f0: fe24 73bc 3fa5 a03c 54fb 3bbd 978a 3c3d
00000300: f817 1fbd ff57 553c fc7a 5abd f28e 293d
00000310: d089 4f3c 3e43 823d ccb3 863d cb10 34bd
00000320: 676f fbbd 4023 173c 0741 2d3d 64ed 043e
00000330: 46c7 103d 039d afbd 5bb3 fdbc e854 9a3d
00000340: e651 76bd 8305 02be 40f1 8dbc ce48 8cbd
00000350: 92fb 11be 81ed d5bd 883a 1abd e151 31be
00000360: d124 afbb 5206 8c3d abd1 9ebd 2a13 48bd
00000370: 9a42 21bc 66ac 1d3d 828c 3d3d b2c1 83bc
00000380: cd2d ddbc a14a edbc ded1 a0bd f35f 45bd
00000390: c8dc 99bd e482 27be 008c 1dbe a389 b4bd
000003a0: fc34 54bd 6cdb 11be 60ef 90bc 5814 6cbd
000003b0: 861c 33bd 8a35 dfbd 1417 29be ea94 b5bd
000003c0: ed15 72bd 845f 61be 553d 8bbd e10e 09bd
000003d0: 8fed 573d bd9a 173d a3ff ffbc 16f0 a43d
000003e0: a37f 07be bc30 b4bc b5e5 c6bc d3bf 153e
000003f0: aaf6 28bd 7115 6bbd eabd 523d ff67 1cbe
0.10902598 -0.11417631 -0.035426345 0.12168786 -0.1138503 -0.084851064 -0.0024291172 -0.06492361
-0.007811684 -0.009312088 0.004081114 -0.0668556 0.1557977 -0.10188322 -0.008377859 -0.020749494
-0.12807274 0.09211475 -0.10018445 -0.07256037 -0.03679272 -0.034126088 -0.033272058 0.012120418
-0.015476258 -0.026623981 -0.000516022 0.092797846 -0.008420992 -0.09861855 -0.06844978 -0.12588054
-0.12161686 -0.0022999456 -0.010737287 -0.037401084 0.04624616 -0.014079572 -0.07336369 -0.029202612
-0.049564175 -0.03072296 0.023051066 -0.027858501 -0.07524163 -0.03610636 -0.057571225 -0.116796434
0.043176755 -0.009219682 -0.005670519 0.0034511744 0.024389703 -0.016713856 -0.12481682 0.08492113
0.12356393 0.03170992 0.044399437 0.109787375 0.053622093 0.04755057 -0.00016881885 -0.037580878
-0.19670454 0.006265716 -0.075666696 -0.07403082 -0.052805986 -0.034705557 -0.06886296 -0.105585694
-0.07709151 0.012120859 -0.015677175 0.025386313 -0.048204083 0.06236803 -0.048076045 0.04512799
-0.028538352 -0.057421356 -0.11867416 0.0011287297 -0.054042507 -0.099916615 -0.08811268 0.070189856
-0.008146585 -0.06976364 0.041706417 0.0058758934 -0.068957284 -0.029239722 -0.105637245 -0.005811356
0.06401731 -0.052444927 0.03901436 -0.10027445 -0.051872056 0.08087812 0.096147 -0.0124264015
-5.4401084e-05 0.036682587 -0.037823897 0.00023180034 0.024012446 -0.10292718 0.028514605 0.025119249
-0.033552624 0.053021602 0.048442673 0.06545812 0.059222393 0.07066835 -0.07798566 0.13416408
0.05912737 -0.10015414 0.04938407 0.13076617 -0.08041922 -0.060762633 -0.15078016 -0.13210957
-0.11599111 -0.108446345 -0.032369737 -0.15008491 -0.13321541 -0.066639096 -0.16425824 -0.06564037
0.01314611 0.012953369 0.006845735 -0.06445365 0.049622603 -0.054474283 -0.0038218913 0.08436432
-0.057054166 -0.17137812 0.074974224 -0.048376154 -0.06605541 0.093401104 -0.054034438 -0.035183173
-0.036096442 0.10594358 0.15878339 -0.008456629 -0.06577538 0.090090066 0.06698549 -0.041981094
-0.03500982 0.08602607 0.010395237 0.13683511 0.0075307554 -0.040468656 -0.00026963803 -0.100472994
0.10766202 -0.013224984 -0.079654835 0.10478796 -0.017556585 0.049820118 0.01735409 0.090655625
0.018845195 -0.05947575 0.065168865 0.028630583 -0.0032373162 0.00955374 -0.06279306 0.030520942
0.16084117 0.087909825 0.05128315 0.040466093 -0.014840363 0.019610045 -0.045893982 0.046030607
-0.038841218 0.013021468 -0.053339943 0.04139609 0.012667134 0.06360482 0.06577262 -0.043961328
-0.12277108 0.009224713 0.042298343 0.12981182 0.035346292 -0.085748695 -0.030969312 0.07535726
-0.0601367 -0.12697415 -0.017326951 -0.06849824 -0.14256123 -0.10445691 -0.037653476 -0.1731639
-0.005344965 0.06837143 -0.07754835 -0.0488464 -0.009842539 0.03849449 0.046276577 -0.016083572
-0.026999379 -0.02896625 -0.07852529 -0.048187207 -0.07512814 -0.16358525 -0.15385437 -0.088153146
-0.051808342 -0.14243859 -0.017692268 -0.05763659 -0.043728374 -0.10898884 -0.1651271 -0.08866294
-0.05910294 -0.22009093 -0.067988075 -0.033461455 0.052716788 0.037012804 -0.031249827 0.08053605
-0.13232283 -0.021995895 -0.024279455 0.14623956 -0.041250862 -0.057393495 0.051450647 -0.15274046

weight f4 [16]
00000000: 8461 013f 2b47 363f 051f b43e 296e 9f3e
00000010: e80e 0d3f ab09 143e 2cbf 8d3e 050d 743f
00000020: b11f ac3e 1def 523f ffdc fa3e 1684 233f
00000030: e255 213f 5d65 3d3f bfaa 043f d03e 133f
0.5053942 0.71202344 0.35179916 0.31138733 0.5510087 0.14456813 0.27684915 0.95332366
0.3361793 0.8239611 0.48996732 0.6387342 0.6302167 0.73982793 0.5182304 0.5751772

bias f4 [16]
00000000: 96d0 13bd 577b d4bd 5881 bcbc 644e e2bc
00000010: eb08 3a3d f5bf 08bd 5098 19bd 5837 48be
00000020: f905 6cbd 22e5 ddbd 0e35 68bd 5c28 18be
00000030: 8f6e 70bd 161a 06be fe43 a1bc b878 e9bd
-0.036087595 -0.10375088 -0.023010895 -0.02762527 0.04541866 -0.03338619 -0.037498772 -0.19552362
-0.057622883 -0.10834719 -0.056691222 -0.14859146 -0.058699187 -0.13095888 -0.019685742 -0.113999784

running_mean f4 [16]
00000000: cf8d d2be a243 8dbe 81ba d9be bead cfbe
00000010: 23cb abbe ef70 83be f27e 1d3e bda0 233e
00000020: 60b3 82be 0935 11be d5ae 54bd 6545 8e3e
00000030: 5978 283d 3ab4 4cbc cb86 b5be 986b 96be
-0.41123816 -0.27590662 -0.42525104 -0.40562242 -0.3355342 -0.256721 0.15380457 0.15979286
-0.25527477 -0.14180388 -0.051924545 0.2778732 0.041130397 -0.012494141 -0.354544 -0.29378963

running_var f4 [16]
00000000: a22d a03e 5020 283e 17f9 973e 0f1e 8e3e
00000010: 920c 263e bcf5 173e 41e0 033e 7d8a 893e
00000020: 80c5 943e 71a6 7b3e a34a a63d fbab bb3e
00000030: b31b 7f3e 6b80 353e ef8f 633e df29 783e
0.31284815 0.16418576 0.29682228 0.27757308 0.16215733 0.14839834 0.12878515 0.2686347
0.2905693 0.24575211 0.081197046 0.36654648 0.2491291 0.17724769 0.22222875 0.24234723

weight f4 [16, 16, 3, 3]
00000000: 0015 7ebd 9c9d cebd 0ff2 b4bd 4d10 82bc
00000010: d91d 133d 2334 3ebd 762d 8ebd 07df 17bd
00000020: 2405 6ebc 4987 f6bd 8cfe 38bd c3b4 6e3c
00000030: 9ddd 33be 36a3 e6bc 351b 8abd df44 08be
00000040: 0621 d23c 9f0c cf3c b875 c23d b9a0 5d3e
00000050: 0e96 a23d 5cdf d23d c4c5 bb3d 5731 1b3d
00000060: 6314 1c3e a8e5 f239 52e1 ba3d ad56 3f3d
00000070: feb6 a2bd 0541 453d 4745 0a3e c9e0 3b3d
00000080: 3b72 08bc 1236 693d f3c5 603d 18e7 c5ba
00000090: a7c2 42bd 7d37 80bb 69cf 1a3e 79f6 29bd
000000a0: 56cb b53d 50ce ffbc c9f2 e4bd f30e 843d
000000b0: dac0 a0bd e975 263d f047 93bc 0340 003e
000000c0: 2258 00be 39a4 09bd 2528 b33d e2b9 97bd
000000d0: 6249 9bbd cab5 1a3e bd20 32bd dd23 24bc
000000e0: 7b3d 7e3d 46f5 10be ba7b 193d 4fe9 133d
000000f0: 2360 733d e3cb 8bbc 58c6 44ba e959 97bd
00000100: 6b9c 903d 0a70 90bd ee71 34bd 9caa 863a
00000110: d0ae 92bc 9bbd 513d 9ccf 6ebd 9821 07be
00000120: 0a8d 693c ebee 11bd e41e fdbd c498 2b3d
00000130: 7f5f c13c 8849 f1bb f4ca e2bd 1805 1f3d
00000140: f974 71bd 863d 68bd 03b9 a2bd cb51 06be
00000150: 5f0a 74bd e141 223d 15f7 06be b7e1 813c
00000160: 18be 4fbd e481 67bd 69b5 c4bc 7342 7ebc
00000170: d274 bc3d 1b24 a93c 570e 863d 4fcc 3b3e
00000180: a43e 8e3d ed83 103e 8aae d63d 5030 12bd
00000190: 290a a23c 397d 34ba ac28 c43d e14d 943d
000001a0: e204 4fbd 05e1 e83d 7613 cf3d ebb1 e0bc
000001b0: 8c8b 6abd f13d 8a3c a625 973b f427 efbd
000001c0: c71b 983d e365 e1bd 8525 303d 7bbd 64bd
000001d0: fa78 7fbd 273f 013d 4b43 d5bd 6b43 e1bb
000001e0: bff0 583d 87e5 51bd b17a debc 8a56 383d
000001f0: 5a78 cfbc 42f3 70bc 11a1 c9bc 5fff dc3c
00000200: 6531 72bd 4fec f63c bb18 e73c ef35 ee3d
00000210: b3be e0bc 9b8e 2bbc b362 31bd 7e48 a0bd
00000220: dd57 3ebd 19fd 57bd 10f2 103d b759 db3c
00000230: aab4 f03c 2284 c4bd 6870 90ba a8f6 05bd
00000240: dbcb 4fbd ac28 583d 1d3f b9bd 88d3 f0bd
00000250: aa22 d4bd d1d8 6dbd b923 993d 7bbf f1bd
00000260: 879d dd3c 6cd8 ac3d d23a 02bd 688e fabd
00000270: 0c56 593d 960c f8bc 7764 36bd 49ed a1bd
00000280: 3202 9f3d aa7e 94bd 7f6c d1bb e2ab 5f3d
00000290: e97c 02ba d76b ce3d bf66 323c 4c57 b23c
000002a0: 353e c53c d3af 02bd a2ba 20bb ea35 59bb
000002b0: ed98 bc3c a731 b0bd 4993 c53d 269c 7a3d
000002c0: 831c 5c3c 5fb6 0b3e 8d68 5bbb 5ba2 0d3d
000002d0: c3ea f8bd b639 4cbd 71d3 763d 3477 51bd
000002e0: 4ee0 79bd 978a cd3d a2af b6bd 8f8e d1bc
000002f0: 7b83 563d 6dd8 62bd fe3a 18bc 092c 71bc
00000300: ddbb c5bd 28c7 eebc 9f21 033d e0ce 7abc
00000310: f377 db3d 3ab6 c43d 5852 80bd d05b f6bd
00000320: cae3 33bd bc12 cbbd ef3b 83bd b6dc e83b
00000330: 4a59 21bd c553 dabd 9717 3e3d c4b6 c53d
00000340: a700 863d f06d b53d d178 f4bc 473a 233d
00000350: 2975 1d3d 5a65 36bd 97ff a8bc 3bcc 043e
00000360: 821a e4bd 2b54 3ebd 2bc4 f7bd 2e4f eb39
00000370: c5df dabc 3e8f 82be 3665 c7bc cac2 5bbd
00000380: a9e1 80bc 3f5b 2b3e cf1d 9e3d 3381 c23c
00000390: b926 543d 15dd 933d 9722 613d 6216 a1bd
000003a0: 9f42 603d 84e3 8c3d 00f2 eabd a869 443d
000003b0: a743 bb3d d489 9abd e30d f13d 6585 ef3d
000003c0: 4b49 09bc f599 a53d ebe8 d73c 903a 4abc
000003d0: c201 9f3d 2ca8 963d 9e2f bcbc 2703 833d
000003e0: d06e b9bc ef35 efbd 6ce8 8b3b 4ae4 693d
000003f0: aa41 7e3c 68e9 a9bd d19e b4bd 3ea4 85bd
-0.062031746 -0.10088655 -0.088352315 -0.015876913 0.035917137 -0.04643644 -0.06942265 -0.03707793
-0.014527593 -0.12037522 -0.04516463 0.014569464 -0.17565008 -0.028153997 -0.067434706 -0.13307522
0.025650512 0.025274573 0.09495109 0.21643342 0.07938777 0.10296509 0.0916858 0.03788885
0.15242152 0.00046328944 0.09125008 0.04671352 -0.07945059 0.04815771 0.1350299 0.04586867
-0.008328016 0.05693633 0.05487628 -0.0015098779 -0.047548916 -0.0039128647 0.15118183 -0.04149482
0.08876674 -0.031226307 -0.1117912 0.06448164 -0.078492835 0.04063979 -0.017978638 0.12524419
-0.1253362 -0.03360388 0.08747891 -0.07408501 -0.07582356 0.1510841 -0.043488253 -0.010018316
0.06207035 -0.14156064 0.03747151 0.036111172 0.059417855 -0.017064994 -0.0007506362 -0.07390196
0.07061084 -0.0705262 -0.044053964 0.0010274234 -0.017905623 0.051206212 -0.05830346 -0.13196409
0.014254818 -0.03562824 -0.123594075 0.041893736 0.023605106 -0.007363502 -0.110738665 0.038823217
-0.058949444 -0.0566993 -0.079454444 -0.13117139 -0.059580203 0.03961361 -0.13180192 0.0158547
-0.050718397 -0.056520358 -0.024012284 -0.015518772 0.09201969 0.0206471 0.06545704 0.18339656
0.069455415 0.14112826 0.104825094 -0.035690606 0.019780235 -0.00068851147 0.0957807 0.07241417
-0.050541766 0.11371044 0.10111134 -0.027428588 -0.05726199 0.01687524 0.0046126423 -0.11677542
0.07427173 -0.110057615 0.04300453 -0.055844765 -0.06237123 0.031554367 -0.10413226 -0.006874492
0.05296397 -0.051244285 -0.027158113 0.045004405 -0.025325943 -0.014706435 -0.024612935 0.02697724
-0.059129138 0.030141978 0.028210035 0.11631381 -0.027434682 -0.0104710115 -0.043307018 -0.07826327
-0.04647051 -0.052731607 0.0353871 0.026776178 0.029383022 -0.09595515 -0.0011019828 -0.032705933
-0.05073152 0.052773163 -0.09045241 -0.117590964 -0.10358174 -0.0580681 0.07477517 -0.118041
0.027052654 0.08439717 -0.031794377 -0.12234193 0.053060576 -0.030279439 -0.044529404 -0.07906587
0.077640906 -0.07250722 -0.0063911076 0.05460728 -0.00049777195 0.100791626 0.010888754 0.021770142
0.024077514 -0.03190596 -0.0024525304 -0.0033143708 0.02302214 -0.086032204 0.09647233 0.06118407
0.013434532 0.13643788 -0.0033479065 0.034578662 -0.12154152 -0.049859725 0.06026024 -0.05113907
-0.06100493 0.100361995 -0.08920218 -0.025580673 0.052371483 -0.05538218 -0.009291409 -0.014719971
-0.09654973 -0.0291477 0.032014485 -0.015308112 0.10716238 0.096050695 -0.06265706 -0.120292306
-0.04391841 -0.09915683 -0.06407916 0.007106389 -0.039391793 -0.10660509 0.046409216 0.096540004
0.06543093 0.088588595 -0.029842766 0.0398505 0.03844181 -0.04453025 -0.020629687 0.12968533
-0.111378685 -0.046466988 -0.12097963 0.00044881686 -0.02671803 -0.2549991 -0.024340253 -0.053652562
-0.015732603 0.16734026 0.07720529 0.023743248 0.05179474 0.072199024 0.054964628 -0.07865597
0.054751035 0.06879333 -0.11471939 0.047952324 0.09143763 -0.0754582 0.11770227 0.11695365
-0.008379291 0.080860056 0.026356181 -0.012343064 0.07764007 0.07356295 -0.022971924 0.06397086
-0.022635847 -0.11680209 0.00426965 0.05710248 0.015518585 -0.08296472 -0.08819354 -0.06525467

weight f4 [16]
00000000: bf26 2c3f 4eb0 c13e e57e 073f 982c 463f
00000010: 9d48 743f 60a8 803f b02d 203f 7ccc 583f
00000020: c6d9 553f 15b4 d53e de38 4c3f aa23 113f
00000030: 2edb 443f be1e 173f 4835 f03e 902d 1b3f
0.6724662 0.37829822 0.52928 0.77411795 0.954233 1.0051384 0.62569714 0.8468702
0.8353542 0.41738954 0.7977427 0.56695044 0.7689694 0.59031284 0.4691565 0.606164

bias f4 [16]
00000000: 2f70 e5bd 7ac5 42bc eed4 01bd 1336 5ebd
00000010: 1b4e 2dbd a7c1 fbbc 540d 47bd 2482 65bc
00000020: d262 20bd 4fc5 74bb 7f27 c6bc ffea f9bd
00000030: b8d8 e2bc fd3c 26be 3891 0bbd 2893 e1bd
-0.11203038 -0.011887902 -0.031697206 -0.054250788 -0.042310815 -0.03073199 -0.048596695 -0.014008079
-0.039156742 -0.003734905 -0.024188755 -0.12203025 -0.02769123 -0.16234203 -0.03407404 -0.11014396

running_mean f4 [16]
00000000: 3f58 3dbe bbfb 9ebd a20f a43e 416a a7be
00000010: c962 143e 545e bf3d c7a4 9abd d20d 67be
00000020: 3ee4 cbbe f338 66bd 5b86 c0bd 9dfb 99be
00000030: e853 b6bd 2869 80bd ce59 8fbe 84f5 0fbe
-0.18490694 -0.077628575 0.32043177 -0.32698253 0.14490809 0.093441635 -0.0755096 -0.22563866
-0.39822572 -0.056206655 -0.09400626 -0.30074778 -0.089027226 -0.06270057 -0.27998203 -0.140585

running_var f4 [16]
00000000: ceb0 f93d 013f 2a3e 4378 d63d be1a 9a3d
00000010: 9efc eb3d 04f8 7f3d 2702 803d fb2c da3d
00000020: df00 ab3d a226 ba3d a3a4 863d 8ace 843d
00000030: 9570 d43d 96ff 7d3d f377 ac3d c853 4e3d
0.12191926 0.16625597 0.10472157 0.07524632 0.11522792 0.062492386 0.062504105 0.106531106
0.083497755 0.090894 0.06574371 0.06484707 0.10373036 0.062011324 0.08421316 0.05037287

weight f4 [16, 16, 3, 3]
00000000: 5969 66bc d9f8 993b d96b 2bba b4c6 913d
00000010: ce92 82bd 8513 7c3c fae5 463b beb3 b3bc
00000020: 0b21 453d 2e5e 683d 77e9 adbd 4519 04be
00000030: e55b 8fbd fbd5 b0bd 38fc c1bd aa81 54bd
00000040: 086d 7ebd 3c3c d6bb 21d6 b0bc 4ec4 bf3d
00000050: 4c17 d3bc 82bf 663d 250a fa3d 6d6e c0bd
00000060: f4ca 913d bd85 af3d aecb ce3d f92e e43d
00000070: 3efb f6b9 d0a8 413d 90db 99bb 017a 1d3d
00000080: b46f 0d3d d472 dc3c f5b3 e23c 0172 4d3d
00000090: 0958 f4bd 962b f2bd 4bd4 a6bd 0333 9cbd
000000a0: 73d0 08be 7a51 c4bd 35f2 ffbc 1f8b f5bd
000000b0: f9ff 5e3a b210 bb3d 4881 4bbc 859f 823b
000000c0: 6ec9 333e c72e 5e3d db7f d93d 8972 4f3e
000000d0: 64e0 b03d ea20 8f3d 7c11 33bd 56bf cdbd
000000e0: daa3 c1bd 93c9 ca3c ea2f 30bd db85 0fbd
000000f0: 4cc0 433d bcf3 dc3d ff2e 033d 588f 873d
00000100: ba70 51bd 0b4a 50bd a320 ae3d c332 7abd
00000110: 8193 633c bfcb b23d 80ab 35bd a911 afbd
00000120: 77b4 623d 62ec 1739 e818 04bd af46 5ebc
00000130: a1d8 05bd 8cd3 913c 7d31 17bd 70d1 babd
00000140: 5404 4d3d 5bac b83c 2a60 66bd d557 1f3d
00000150: 43e3 843b 8989 bfbd 498a fabc 8e6d a2bb
00000160: 67cc 76bd 2e48 813d d505 513d 8315 c93c
00000170: 2fa1 00bd 5b50 6abd ef5f e5bc caee b13b
00000180: 4fc8 de3d cd52 ac3c 073e 7fbd c07e 443d
00000190: ddd8 03bc 5301 18be 4921 a03d 397a a6bc
000001a0: 309f 93bd 6184 9bbd f231 89bd 83f2 9bbc
000001b0: 63aa a8bd f671 dbbd de7b c13d 86b8 213c
000001c0: df0b 9c3c b0c9 8c3d 4886 3bbd f5bc 84bc
000001d0: 3fef 4339 422d 8c3d 55b8 e23d 3d7c 8ebd
000001e0: fad4 a83d e697 b3bc cf42 5fbd 0258 c43a
000001f0: eb6c aa3d cd74 8abd f4b3 bcbd 1999 543d
00000200: ff89 873d 01ad 973d 04d9 76bd ac3f bebd
00000210: b73e d5bd a2e4 4abd 1469 01be 5ff6 98bd
00000220: db76 41be 8ec5 88bc b481 a13c 9d41 76bd
00000230: 1d5e 19be 3acc f9bd 2877 22be 3145 27be
00000240: 47f4 38bd f63d 973d 40b7 fbbc bbad d63c
00000250: 3ed5 5fbd b349 0ebc 6ec6 abbc d7dd 8bbc
00000260: 514b 5b3d e755 563c 268e ffbc 09b3 963d
00000270: 1ec9 a13d efe2 e7bb a878 863d 0d55 513d
00000280: 23a0 0cbd f986 ebbd 7801 f23d 94ec 76bd
00000290: a30c 393b 1390 eb3d d75c 10bd 4f19 653d
000002a0: 461f 083e 3a38 b93d de1c c739 43c4 393e
000002b0: 3e24 963d 9997 bcbd 3d75 193d 1255 ec3c
000002c0: 7701 49bd eefa ee3d fa83 b53d f32a c43d
000002d0: e308 d83d 0e56 c53d 2f90 b73d 850b 343d
000002e0: 1f32 61bd 85be 0bbe 9d12 843c 428e dabd
000002f0: 4246 f2bd f811 10be 0ed4 13be dd34 82bd
00000300: 9214 83bd 2e0a 6bbd bc17 f7bd 5369 1dbd
00000310: 7abc b0bc f7ea 32be 7460 e63d d843 933d
00000320: b457 f43d bc86 c3bd 92fe 57bc cec0 1cbd
00000330: d1de 523b 4127 22bd cb17 e6bd 8a4c 3dbd
00000340: 7632 d0bd 1d85 7c3d 0801 903d c458 f9bb
00000350: ed04 263d a578 ba3d d522 b1bb 6441 943d
00000360: a9a9 84bd 03aa 3fbc 1e35 413d aede ad3d
00000370: 0021 c3bc 4df8 27bd 4cd4 43bd c9ae 143d
00000380: bac0 d43d 4254 bf3d 6fa7 bb3d c3b3 b63c
00000390: c6d8 c93d 50c9 023d 16c8 3cbd 19d4 dc3d
000003a0: 4544 ccbc 20c7 44bd fb3e 0dbd 1767 82bd
000003b0: 44c8 b43d f8d9 913c 9731 de3c 96d3 283b
000003c0: 7be1 99bd 81cd d2ba 156b 3b3d d7d4 33bd
000003d0: ffc8 d0bd a0ee a93d 13aa 26bd 3e82 f0bd
000003e0: 4018 c9bd 12b0 013d 2579 513d e0e5 1bbe
000003f0: 13e7 5cbb d381 923c 57c4 e6bd f2b2 febc
-0.014063203 0.0046988544 -0.0006539203 0.07117978 -0.06375657 0.015385513 0.003034948 -0.021936294
0.048127215 0.05673044 -0.084917955 -0.12900265 -0.06999949 -0.086345635 -0.09471935 -0.05188147
-0.0621157 -0.006537942 -0.02158648 0.09363614 -0.025767945 0.05633498 0.12208966 -0.09396062
0.07118788 0.085704304 0.100974426 0.11141772 -0.00047107966 0.047280133 -0.0046953633 0.03844643
0.034530357 0.026910223 0.0276737 0.05015755 -0.11930854 -0.118247196 -0.081459604 -0.07626917
-0.13360767 -0.09585853 -0.031243423 -0.11989426 0.0008506771 0.09134044 -0.01242096 0.0039863014
0.17557308 0.05424383 0.106200896 0.20258535 0.08636549 0.069887 -0.043717846 -0.1004626
-0.0945508 0.024754321 -0.043014444 -0.035039764 0.04779081 0.10788676 0.03202724 0.066191375
-0.051132895 -0.050851863 0.08502319 -0.061083566 0.013890148 0.08730268 -0.04435301 -0.0854829
0.055347886 0.00014488542 -0.032250315 -0.013566657 -0.032677297 0.017801069 -0.03691243 -0.09121978
0.050052956 0.022543123 -0.056244053 0.038902123 0.004055412 -0.093524046 -0.030583518 -0.0049569076
-0.060253527 0.06312595 0.051030952 0.02454639 -0.031403717 -0.05720554 -0.027999846 0.005430077
0.108780496 0.021035576 -0.062315013 0.04797244 -0.00804731 -0.14844255 0.07818849 -0.020321952
-0.07208097 -0.07593609 -0.066989794 -0.019036537 -0.08235624 -0.10715096 0.09447454 0.009870654
0.01904863 0.06874406 -0.045782357 -0.016203383 0.00018685775 0.0684457 0.11070315 -0.0695729
0.08243747 -0.021923017 -0.054507073 0.0014979842 0.08321556 -0.06760559 -0.09214011 0.051903818
0.066181175 0.07406045 -0.060265556 -0.09289488 -0.104123525 -0.049534447 -0.1263774 -0.074688666
-0.18892996 -0.016695764 0.019715168 -0.060121167 -0.14977308 -0.12197156 -0.15865767 -0.16334988
-0.045154836 0.07384865 -0.030727029 0.026205888 -0.054646723 -0.008684563 -0.020968642 -0.017073555
0.053538624 0.013082004 -0.031195711 0.07358367 0.07899688 -0.007076613 0.06565982 0.0511065
-0.034332406 -0.11500353 0.118166864 -0.060284212 0.0028236292 0.11502089 -0.03524479 0.05593234
0.1329318 0.090439275 0.00037977746 0.18141274 0.073311314 -0.092086025 0.037465323 0.028849158
-0.049073663 0.11668955 0.08863063 0.095785044 0.1054857 0.09635554 0.08963048 0.0439563
-0.05497944 -0.13646896 0.016122157 -0.10671665 -0.11829807 -0.14069355 -0.14436361 -0.06357739
-0.06400408 -0.057382755 -0.12065074 -0.038430523 -0.021574248 -0.17472444 0.11248866 0.071906745
0.119307905 -0.09547183 -0.013183253 -0.03826981 0.0032176266 -0.039588217 -0.11235007 -0.04621557
-0.10165875 0.061650384 0.07031447 -0.0076094586 0.04053204 0.09105042 -0.0054057636 0.07239035
-0.064776726 -0.011698249 0.047169797 0.084897384 -0.023819447 -0.041008282 -0.047809884 0.0362995
0.10388322 0.09342243 0.09162795 0.022302514 0.098557994 0.031930268 -0.046089254 0.10782642
-0.024934897 -0.048041463 -0.03448389 -0.06367319 0.0882726 0.01780413 0.027123256 0.002576088
-0.0751371 -0.0016082973 0.04575642 -0.04390415 -0.10194587 0.08297467 -0.04068954 -0.11743592
-0.098190784 0.031662054 0.051140923 -0.15224409 -0.0033707067 0.01788417 -0.112679176 -0.031091187

weight f4 [16]
00000000: b982 c03e d66f e53e 1bfb f23e d4dd 4e3f
00000010: 5175 593f c638 263f 005f 873e 0104 fc3e
00000020: 44eb a73d 650a 443f 1208 2c3f 467e 553e
00000030: f754 113f b53c 363f ecdd 363f 54e9 fb3e
0.37599733 0.44811887 0.47457203 0.8080723 0.84944636 0.6493038 0.26439667 0.49221805
0.0819917 0.7657836 0.67199814 0.2084895 0.5677027 0.7118638 0.71432376 0.49201453

bias f4 [16]
00000000: 0be0 2b3d bf6a debd 3100 45bd 9fde 3abd
00000010: 6175 71bd 8f9e 72be 5ba8 a1bd 6fae 8a3d
00000020: c5fc 16bd 81b9 67bd 092b f2ba 9331 88bd
00000030: 2199 94bd f958 f13a aa73 4dbc 2c65 8fbc
0.04196171 -0.10860204 -0.048095886 -0.045622464 -0.058949832 -0.23693298 -0.078934394 0.06771552
-0.036862154 -0.056573395 -0.001847596 -0.066500805 -0.072557695 0.0018413357 -0.0125397835 -0.017504297

running_mean f4 [16]
00000000: 3848 e1be 7a00 ddbd 8a86 59bf dfd1 3cbf
00000010: 8024 fcbe d9b6 a3be 8b5f b4be dd38 81bd
00000020: 8741 cabe 67bb 83be 08ed 3abf be9b 283e
00000030: db57 9abf 7bcd 1cbe e535 6cbe 398a abbf
-0.4400041 -0.107911065 -0.84970915 -0.7375774 -0.49246597 -0.3197544 -0.35229144 -0.06309674
-0.39503118 -0.25728914 -0.7301793 0.16465661 -1.2058061 -0.1531276 -0.23067434 -1.3401557

running_var f4 [16]
00000000: b6ec 993e f48f b03e c56f 0b3f cd26 ee3e
00000010: a3f8 b63e 8448 d03e 7d43 cc3e b91a 533e
00000020: ba4e bc3e d9a4 bc3e 1520 bc3e a45c a83e
00000030: 2182 0f3f ac57 043f 2850 143f 6fdc 553f
0.3006341 0.34484828 0.5446742 0.46513978 0.3573657 0.40680325 0.3989524 0.20615663
0.36778814 0.3684452 0.36743227 0.3288318 0.56057936 0.51696277 0.5793481 0.8353948

weight f4 [16, 16, 3, 3]
00000000: db99 8e3b b5e7 a9bc 2e9f 09bd dd17 18bd
00000010: 1f8f 9f3c 7780 d3bc 23f5 e0bc b72e 36bd
00000020: 9ef8 f63c 163d cebd d5b4 863d 4b37 c23d
00000030: daf3 7d3d dac8 f53d e59d bc3d 3c77 aebc
00000040: dc3c 423c eb3e babb bbba 183d 873c 3f3d
00000050: 1a16 aebd cb16 993c 4a2b 9d3d c854 903d
00000060: a346 67bd 045e 0b3e a6fb 7e3c a16d 95bd
00000070: e264 8c3d 1803 cd3b 9c9c bdbd 7ee0 e33d
00000080: 3990 e93b d6d5 b33c 176f 003e 877e 6f3d
00000090: b21f ab3d d64b ee3d 3a71 09bd a68c 393e
000000a0: 7995 5bbc ee29 b0bd 906b be3d f23f 42bd
000000b0: aa81 823c 577c dcbd 28b1 073d 92e5 9b3d
000000c0: eaf3 1abe f20c b4bd c4f0 573d 83eb 92bd
000000d0: 2636 883d 49a8 55bc 5b69 ecbd 9a45 3abe
000000e0: ea93 13be a77b 9bbd 3f94 29be 0a1e b33d
000000f0: e5bf 46bd 05bb 8bbd 3236 f43d 657a e73d
00000100: 7520 c83d b748 a2bd 36d5 713b 39c7 6cbd
00000110: 3eb0 03bd a7b4 0bbb 3da6 45bd 19f8 aabd
00000120: 4622 793a aeb0 9ebd 3de9 d73b da41 723d
00000130: bf93 ec3d a3ec cebc c13b 393d 507a 823d
00000140: 5c01 febb c6e2 2dbd d41b edbb 6a86 81bd
00000150: 79f2 223d 471a 9e3d 1fc3 233c 1e67 19bd
00000160: 88dd 91bb 8176 86bd e872 c63d d79f 3c3d
00000170: 1ba7 5f3d 63d9 f43d 9346 a63d e1bf efbc
00000180: 9856 0dba 9527 85bd bc2b 57bd 6116 39be
00000190: 339e 1bbd 6236 103e b499 05be d1d7 0f3d
000001a0: cddd 913d a71f babd 979d b73c 4d8f f43d
000001b0: 15a4 aa3d 8cb3 6b3d 3171 b13d 2bcf 3bbc
000001c0: 4cb9 0d3e 5ab6 013d 3796 cb3b e98b a43d
000001d0: e822 9a3c 898c f93c 9b1e 7ebd 27a7 ccbc
000001e0: abba 173d 5717 033d 2a72 2cbe 1c8f d33d
000001f0: 2904 7fba 4c40 303d c543 f5bd 88fa cebd
00000200: b894 ae3d c7cb 1abd 1eb1 f5bd bd22 6bbb
00000210: 17f7 65bd 04cf 3cbd a35f fc3d 575b 55bd
00000220: fe06 3dbb 234b a3bc 0c4e d4bc 2fc9 3b3d
00000230: 8ecf b43d 007a cb3d af6c 1e3e 4bc1 3c3c
00000240: 2986 ccbc cb74 8f3d 4a1d 30bd 3dcf 01be
00000250: eabd 48bc b7e9 153d 9fac 21be bd03 353d
00000260: 3472 743d 56b4 163d b60f f73d 9e5e 0d3d
00000270: 0c21 dfbd 8f33 31bc 9608 ae3c 5f59 e0bd
00000280: 15b6 123c 1e7c ac3c d347 073d 4216 16bd
00000290: 99e1 a63b c856 a83d 7e3f 45bb b9af 87bc
000002a0: 85aa 703d cd98 dcbc f25e e1bc b710 be3b
000002b0: 6934 31be 0ec9 17be b442 8e3c ff7a 8cbc
000002c0: b994 37be 6e09 6dbd 1040 2cbe 0da4 84bd
000002d0: 80c5 16bd a578 943c 0316 3dbd 6fc0 4cbd
000002e0: 7b01 eb3c 2d6d 5ebc b68e 06bd 48a9 813d
000002f0: 0453 533d cff6 333e 0d76 023e f449 51bd
00000300: f164 983d 7e30 ac3d cedf 5b3c 0194 b6bd
00000310: 0689 03bd df4f b43d 781f 933b 58f7 2cbd
00000320: 3420 f7bd 4070 c3bc f282 f23d 05ed f63b
00000330: 96e7 14bd 3ede f33d 9039 743d e687 8c3d
00000340: b3d5 003e f1c3 4ebc 4416 953d fe5e 153c
00000350: d61d a23c ef3c 213d 2bd7 4fbd 5ea7 c5bd
00000360: 9c4f 423d cc7f 433d 967a e4bc cdf0 ef3c
00000370: 359a f33c edf1 90bc 2da3 3e3d bec9 8d3d
00000380: 86f0 a9bd c5c2 183e e28e 9f3d 962c ad3d
00000390: 8837 a03c 00ff 993d f038 593d 17c3 99bc
000003a0: 66c4 553d 892a fd3d d0ed 0a3d e9e3 203e
000003b0: f763 09bd f9a8 ea3d 5148 443d 7222 2c3c
000003c0: 4205 7fbd 5a68 b23d 68a0 b9bd 4f1c 37bd
000003d0: a845 07be e129 a6bd 78bb be3d c4e2 e2bd
000003e0: c7b6 00be d54c 7ebd f4b0 593c 0870 eebc
000003f0: 4b01 b4bd 54b5 5cbd 1e4e 24bc 216d 0f3d
0.004351837 -0.02074037 -0.03359907 -0.037132133 0.019477425 -0.025818093 -0.02746064 -0.044478144
0.030147847 -0.10070245 0.0657746 0.094832025 0.062000133 0.120012 0.092098035 -0.02129709
0.01185533 -0.00568377 0.037287455 0.046688583 -0.08500309 0.018687626 0.07674272 0.07047421
-0.05646385 0.13610083 0.015562927 -0.07296301 0.06855179 0.0062564723 -0.092583865 0.11126803
0.0071277884 0.02195255 0.12542377 0.058470275 0.08355655 0.11635558 -0.033555247 0.1812006
-0.013402336 -0.086017475 0.0929786 -0.047424264 0.01593097 -0.107659034 0.033127934 0.076121464
-0.15132108 -0.087915316 0.052719846 -0.071738265 0.06650953 -0.013040611 -0.115435325 -0.18190613
-0.14411893 -0.07591944 -0.16560458 0.08745964 -0.04852285 -0.068227805 0.119243994 0.11302642
0.09771816 -0.079240255 0.0036900765 -0.05780718 -0.0321505 -0.0021317394 -0.04825424 -0.08348102
0.00095037033 -0.07748543 0.0065890835 0.059144832 0.11551618 -0.025259322 0.045223 0.063709855
-0.007751627 -0.042452596 -0.0072359834 -0.063244656 0.03978202 0.07719856 0.009995251 -0.037451856
-0.0044514574 -0.065655716 0.096898854 0.046050873 0.054602724 0.11955526 0.0811893 -0.0292663
-0.00053916266 -0.0650169 -0.052531943 -0.18074943 -0.037992667 0.14083245 -0.13046914 0.035117928
0.07122383 -0.090880685 0.022414012 0.11941395 0.083320774 0.057544276 0.08664168 -0.011462967
0.13840216 0.031668045 0.0062129754 0.08034498 0.018815473 0.03046252 -0.062040906 -0.024982048
0.037043255 0.03200468 -0.16840425 0.1033003 -0.0009728098 0.04303007 -0.11975817 -0.10106379
0.085244596 -0.037791993 -0.11996673 -0.003587886 -0.056143846 -0.046095863 0.12322929 -0.05208906
-0.002884328 -0.019933289 -0.025916122 0.04584616 0.088286504 0.09935379 0.15471147 0.011520694
-0.024966316 0.07004698 -0.042996682 -0.12676711 -0.01225231 0.03659984 -0.15788506 0.04419302
0.059679225 0.036793076 0.120635435 0.034514062 -0.10894975 -0.010815515 0.021244328 -0.10954546
0.008954545 0.021055277 0.03302748 -0.03664232 0.0050928113 0.08219677 -0.0030097659 -0.016563283
0.05875637 -0.02692833 -0.027511094 0.0058003324 -0.17305149 -0.1482279 0.01736579 -0.017148493
-0.17927827 -0.05787032 -0.16821313 -0.06476603 -0.036809444 0.018123934 -0.04616357 -0.049988206
0.02868723 -0.013575834 -0.032850944 0.06331116 0.05159284 0.17574619 0.12740345 -0.051095918
0.07441128 0.08407687 0.013420058 -0.08914948 -0.032113098 0.08804297 0.0044898354 -0.042228073
-0.12066689 -0.023857236 0.11841382 0.007535579 -0.03635367 0.11907624 0.05962521 0.06861858
0.1258152 -0.012619958 0.072796375 0.009116886 0.019789618 0.03936475 -0.05074231 -0.096510634
0.047439203 0.0477293 -0.027890485 0.029289627 0.029736618 -0.017693484 0.046542335 0.06923245
-0.08297829 0.14918049 0.077909246 0.0845577 0.01955773 0.075193405 0.053032815 -0.018769784
0.052189253 0.123616286 0.033918202 0.15711941 -0.0335426 0.1145801 0.04792053 0.010506259
-0.062260874 0.0871131 -0.09063798 -0.04470473 -0.13210166 -0.081134565 0.093131006 -0.11078408
-0.12569724 -0.06208499 0.013286818 -0.029106155 -0.08789309 -0.053883865 -0.01002839 0.035016183

weight f4 [16]
00000000: e9cc d83d 817e a63e 19e1 7b3f e2bf 443e
00000010: dd24 9f3e 5290 b03e 9597 743f 601a 493f
00000020: 383d d13e 994c e33d 5a64 703f e999 8b3e
00000030: 193b 923e 232e 6f3f 066a 413f 700b 173f
0.105859585 0.3251839 0.98390347 0.19213822 0.31082812 0.34485108 0.95543796 0.7855587
0.4086702 0.11098594 0.93903124 0.27265862 0.28560713 0.93429774 0.75552404 0.5900183

bias f4 [16]
00000000: cc29 2abd 4712 453c 4801 61bd f9b0 183d
00000010: 8a19 82bc 0baf 643d 9d90 d73b f508 b4bc
00000020: 3adf 0fbe 83a4 12bd a026 5ebd cc0c 28bd
00000030: 4a89 b7bb 607f 1bbe 4198 16bd b204 c8bd
-0.041543767 0.012028283 -0.054932863 0.03727815 -0.015881319 0.055830996 0.0065785185 -0.021976927
-0.14049998 -0.03580142 -0.054236054 -0.04102783 -0.005601083 -0.15185308 -0.036766294 -0.097665206

running_mean f4 [16]
00000000: 67e4 4c3e 768f a4bd d3b3 43bd b929 8bbe
00000010: a890 9ebe b608 e03e f362 a73d 1f2f c2be
00000020: e936 a0be 0f1f debe 5413 48be 618f 23bd
00000030: 4fa6 aabd bf6e bdbe 5063 d5bd 5d0a 09bf
0.20009004 -0.080351755 -0.047778916 -0.2718027 -0.3096974 0.43756646 0.0817317 -0.37926576
-0.31291893 -0.4338307 -0.19538623 -0.03993166 -0.08332502 -0.36998555 -0.10419333 -0.5353144

running_var f4 [16]
00000000: a855 243e 7a6b 063e 6f3a 663e 0e24 133e
00000010: 42e9 d43d 5256 473e aeba bd3d 0e70 4f3e
00000020: 2109 783e b02a 5d3e f344 0a3e 050e 063e
00000030: 097e 093e 9c6f 243e acef f63d 73ea a53d
0.160483 0.13126937 0.22483228 0.14369223 0.10396053 0.19466522 0.09264122 0.20257589
0.24222232 0.21598315 0.13502865 0.13091286 0.13426985 0.160582 0.120574325 0.08101358

weight f4 [32, 16, 3, 3]
00000000: c167 4abd c8fc c9bd 6fce 153c 1296 aebd
00000010: 1adb b0bd d5b6 443d 28b7 e2bd 95a1 94bd
00000020: 0003 d2bc c969 b0bc 64a1 4a3d 1ba6 493d
00000030: ea59 f738 fb74 b53d e59f b63d 3c50 00bb
00000040: 31d0 8c3d 3836 5f3d f937 a73c 9e65 90bd
00000050: 3545 a33d b42c fdbb fc10 893d 1f8e 583d
00000060: 11cc 393d 8357 f03d a0ba 013d 3403 2cbe
00000070: 90b7 babd 6035 73bd c02b cebd 156f 1b39
00000080: 63d9 24bc 3276 03be c513 94bc d761 b83d
00000090: a598 2cbd 107d 39bd 0d48 b4bd cb32 99bd
000000a0: 8978 c3bd 88cd f1bd 8666 40bd 673d 12bd
000000b0: fa04 b2bd c6dc ed3c 2fc9 ed3d 0afc 92bb
000000c0: 59cd 703d 6cc4 403d 55ed 89bd a733 85bd
000000d0: f300 8f3d 8d49 b43c 4a61 93bd c919 20ba
000000e0: 8e03 7b3c 79c7 683d a420 2ebd c62b 473d
000000f0: ed7d ca3a fae3 9dba c8ac bd3d bfb6 64bd
00000100: e00c 95bd 5a84 8c3c f618 55bd 2cad a8bc
00000110: b6c4 d53c 91c6 46bd f5ae 5f3b cf04 93bc
00000120: 9b1d 1fbe aa7b f9bc 34db 26bd 1023 80bd
00000130: d73c d0bd 48a6 5f3d 060c e23c 526b 283d
00000140: ad7b 8ebd 59fd 9ebc 4bf3 88bd 3a38 d43b
00000150: 7fbd 2cbd cd49 713d 5fb9 2fbd 3bcd c63c
00000160: 54f2 823d 2d4b 9bbd 0465 4e3d 602b 883d
00000170: 4ddc e63d 1e2b 98bc ec0b 24bc 2f59 783d
00000180: 77b8 26bd c7fd 21bd 95f6 903d 3de4 853d
00000190: 3c90 61bd 62ae d9bc 338e d73c f880 fc3c
000001a0: a93a 86bc 092e 52bc dbc5 d23d d2ef d93c
000001b0: 1a16 223d 9992 15be bb84 3dbe f393 08be
000001c0: db5a 2cbe 3918 f2bd 86ed 11bc 0d73 6ebd
000001d0: 3b07 c8bd ee4a ba3b ccc5 143d 95ed 353d
000001e0: 5def 4f3c 7a2d 1a3e f7f7 a23d 11af bcbc
000001f0: 8708 d8bc 3321 853c f8e2 90bd 0816 50be
00000200: 6014 a9bd 468d febd 9108 15be 34fd adbd
00000210: 5c79 c8bd 4b4e d1bd 0f56 c5bd 23ed 823d
00000220: 96df fb3c 6e36 ccbd 9fd9 3fbd e649 0f3e
00000230: c6f0 ce3d 5b74 14bd 257b 3f3b a721 d53d
00000240: 70b1 54bd bbf7 153a b0ac 173d 0824 d4bd
00000250: 95ce fabd a1e0 02bd fa85 b2bd 0ece b03c
00000260: 72a8 21bd 9e37 d5bd 0bde 2bbd 448f 4ebd
00000270: 8c21 12bd 6398 54bd 64a6 57bc 05f6 643d
00000280: 2db2 93bd de23 fdbc d96f dd3c be08 9e3d
00000290: e1ef 023d a020 803d ce92 443e 8a62 ff3d
000002a0: 4e2c ae3d 12a8 f53d c278 e33d 5410 9c3c
000002b0: fd70 dd3d 9cf1 38bc c3e6 06bd f77c a53d
000002c0: 3d2f 9d3d 9c20 9e3d 0a39 883d 914c 093d
000002d0: 89e3 95bc f7a3 533d 43dd fbbb 49cf 893d
000002e0: 8d96 133d b347 983d b315 36bc e183 0a3d
000002f0: 113b 423d 6b6c 83bd 2323 443b 1682 48bd
00000300: a45f 923c b2e4 b8bd f2f5 43bd e6f8 06be
00000310: 8ece ccbc 8965 14bd 6d1e 08be 5103 39be
00000320: 6040 0ebe 8b20 b53d cbbe 903c 05fb 61bc
00000330: 49c3 6a3d 0918 1cbd 5e0e af3d 7bc1 85bd
00000340: 4c97 9bbd 0303 e3bd ad5b 08be 33d8 37be
00000350: 30d0 57be ea98 adbd 3da9 91bc 584d 33be
00000360: f57f 8f3d 6ff7 b73d 732c ef3d e05e a7bc
00000370: 65ff 613d cf7e debc e204 2ebc 2e55 2abc
00000380: 6b02 85bc f4a6 6b3c 269c 0ebb 2dbb b53d
00000390: d5a9 663d cfd9 813d e92c 273d ad91 f13c
000003a0: 39d5 8e3c 58c0 f73c 876a aabd aecf 2b3c
000003b0: c587 803b 1d70 8bbd 20c0 25be f694 d0bd
000003c0: 53e7 39be 337c 0bbe 13c9 35bc 30bd a73d
000003d0: 663a e83d e043 0c3e 309d 8d3d 7d90 523d
000003e0: fc63 163e a9b0 2c3d 7bd2 a3bc fbd6 5c3d
000003f0: 7da2 f33d 20cb fd3d 04fd cc3d 2274 733d
-0.049415354 -0.09862667 0.009143456 -0.085247174 -0.0863554 0.048025925 -0.110700905 -0.07257382
-0.025636196 -0.021534817 0.04947032 0.049230676 0.000117946256 0.08860203 0.08917216 -0.0019579073
0.06875647 0.054495066 0.020412432 -0.07050632 0.079721846 -0.0077262763 0.06692693 0.052869912
0.04536063 0.117354415 0.03167212 -0.16798097 -0.09117043 -0.059377074 -0.100669384 0.00014823333
-0.010061595 -0.12838057 -0.018075833 0.090030365 -0.04213776 -0.045285285 -0.08802805 -0.07480391
-0.09544475 -0.1180678 -0.046972774 -0.03570309 -0.086923555 0.029035937 0.11610638 -0.004485612
0.058789585 0.047062322 -0.067347206 -0.065039925 0.06982603 0.022007728 -0.07196291 -0.0006107358
0.015320672 0.056830857 -0.042511597 0.04862573 0.0015448906 -0.0012046092 0.09261471 -0.055838343
-0.07277846 0.017152954 -0.052025758 -0.020590387 0.026094776 -0.04852921 0.0034131382 -0.017946629
-0.15538637 -0.030454475 -0.040736392 -0.06256688 -0.10167854 0.054601938 0.027593624 0.041117974
-0.06957183 -0.019407915 -0.066870295 0.0064764293 -0.042172905 0.058908273 -0.042901393 0.024267783
0.06393877 -0.07582698 0.050389305 0.06648898 0.11272488 -0.018575247 -0.010012608 0.060631927
-0.040703263 -0.03954866 0.07078282 0.065376736 -0.055069193 -0.02657241 0.026312923 0.030823216
-0.016385393 -0.012828358 0.10291644 0.026603613 0.03957186 -0.14606704 -0.18507664 -0.13337688
-0.16831534 -0.11821026 -0.008906728 -0.05821519 -0.09767004 0.005685202 0.036321446 0.04441603
0.012691346 0.1505641 0.07957452 -0.023032697 -0.026371254 0.016251182 -0.07074541 -0.20320904
-0.08255839 -0.124292895 -0.14554049 -0.0849556 -0.097887725 -0.10220011 -0.09635555 0.063928865
0.030746263 -0.09971319 -0.0468384 0.13993034 0.10104518 -0.036243778 0.0029217687 0.10406809
-0.05192703 0.00057208136 0.037029922 -0.10358435 -0.12246434 -0.031952504 -0.0871696 0.02158263
-0.039467283 -0.10410999 -0.041959804 -0.050429597 -0.035676524 -0.05190314 -0.013162229 0.055898685
-0.07211719 -0.030900892 0.027030872 0.07716511 0.031967048 0.06256223 0.19196627 0.12469967
0.08504544 0.119949475 0.11107017 0.019050755 0.108125664 -0.011288073 -0.032934915 0.08080476
0.076750256 0.077210635 0.06651504 0.033520285 -0.018296974 0.05167004 -0.0076862886 0.0672899
0.03603225 0.074355505 -0.011113572 0.033817176 0.04741961 -0.064171635 0.002992817 -0.048952185
0.01786787 -0.09027995 -0.047841974 -0.13180885 -0.025000837 -0.036229644 -0.13292857 -0.18067671
-0.13891745 0.08844098 0.017669102 -0.013792758 0.057315145 -0.03810886 0.08547662 -0.06531044
-0.07597217 -0.11084559 -0.13316222 -0.17953567 -0.21075511 -0.08476432 -0.017780894 -0.17509973
0.07006828 0.08982741 0.116784 -0.020430982 0.055175204 -0.027160076 -0.010621281 -0.010396285
-0.016236505 0.014383066 -0.0021760552 0.088735916 0.05631431 0.06340372 0.040814314 0.029488409
0.017435657 0.030243084 -0.083211 0.010486526 0.003922435 -0.06808493 -0.16186571 -0.10184662
-0.1815465 -0.13621597 -0.011095303 0.081903815 0.113392636 0.13697767 0.06914747 0.051407326
0.14686579 0.042160664 -0.019997826 0.05391596 0.118962266 0.12392259 0.100091964 0.059436925

weight f4 [32]
00000000: 0c27 1a3e c0ed 3c3f 669c e93d a532 213e
00000010: 77f2 393f 277a 673f 2c7c 153f 923c a93e
00000020: 1b89 7c3f 3ac0 8c3e 6240 243f 6ae1 073f
00000030: bb8c 413f 6227 aa3e f7ea 7e3e 0945 793e
00000040: 51e7 603f 39ca 033f c1c7 013f d9cf 6d3f
00000050: ab4c 6f3d 849e 213f 9083 a73e a9c7 203f
00000060: 7f61 c73e 0c35 603f 8931 653f d68a 173f
00000070: d846 583e f299 223f f310 b73e e569 3d3f
0.15053958 0.7380028 0.11406784 0.15741976 0.72635597 0.90420765 0.58392596 0.33054024
0.98646706 0.27490407 0.6416074 0.5307833 0.7560536 0.33233172 0.2489432 0.24342741
0.8785296 0.5148044 0.50695425 0.92895275 0.058422726 0.631325 0.32717562 0.6280466
0.3894157 0.87580943 0.8952871 0.5919622 0.21120775 0.6351615 0.3575512 0.7398971

bias f4 [32]
00000000: c31c 52bd ab2b b5bd 53dd a1bd da25 b6bd
00000010: 877d f5bd 698c 47bb 5f15 863b 2f14 68bd
00000020: bc99 1fbd 9f28 35bd d0a6 37bc 2862 9abc
00000030: 43cd 96bd 6438 04bd a711 83bd ef32 41bc
00000040: 37cc a0bd 4122 8dbd 8a7f a8bc f38e a7bd
00000050: 1884 3ebc 6815 d6bd 3139 21bd 9c54 cebc
00000060: 27b2 c1b8 77ab b2bd d735 f2bd 0a7a ce3c
00000070: bdea 83bc d58e 63bd fd4c 62bd 9269 3e3c
-0.05129696 -0.0884622 -0.07903542 -0.08893938 -0.11986833 -0.0030448681 0.004091903 -0.056659874
-0.038964972 -0.044228192 -0.011209205 -0.018845633 -0.07363369 -0.03228034 -0.06399851 -0.011791929
-0.07851451 -0.06891299 -0.020568628 -0.08181562 -0.011628173 -0.10453302 -0.039361183 -0.02518683
-9.2361406e-05 -0.087241106 -0.118266754 0.025204677 -0.016103143 -0.055556137 -0.055249203 0.01162185

running_mean f4 [32]
00000000: 1519 85bf 816c b33c 5358 873f e0a6 dbbf
00000010: ec09 8fbf 63dd 50bf ef89 48bf e328 16be
00000020: 87cf 693e 5a83 6e3f d58c 88be 8f72 3d3f
00000030: ef4f 63be f362 213f 9840 f8be 592c d3bf
00000040: a6df 96bf f7ee 2e3e 2756 adbd 3ba5 82bf
00000050: f502 2c3f 1397 22bf f764 b2bf 74df 273e
00000060: cb4f 04bf 090b 81be 7a9a 043e 830c 90bf
00000070: 4685 44bf 0245 ee3e 2ba0 953f 6624 edbf
-1.039828 0.021902325 1.057383 -1.7160301 -1.1174903 -0.8158781 -0.7833547 -0.14664035
0.22833072 0.93169177 -0.26669946 0.7400293 -0.22198461 0.6304161 -0.4848678 -1.6497909
-1.1787002 0.17083345 -0.08463698 -1.0206674 0.6719201 -0.6351177 -1.3937062 0.16393834
-0.51684254 -0.25203732 0.12949553 -1.1253818 -0.7676586 0.46537024 1.1689504 -1.8526733

running_var f4 [32]
00000000: edbd 313f a8e4 ce3f 3cd1 0f3f fb52 0c3f
00000010: b0fc 3d3f 9217 8b3f 9b8b 403f 92f5 2e3f
00000020: d187 9b3f 0bee 283f 5011 893f 2044 9b3f
00000030: 6205 6c3f 66c1 b23f a8fd 353f e525 4c3f
00000040: 14fa f83f 6756 6b3f 3f7c 483f 04ea 633f
00000050: bc1a 943f 81a0 c13e abc4 8d3f 8bb3 933f
00000060: cf98 9e3f b134 943f c547 e83f 3eb7 8b3f
00000070: e708 113f ae3a 663f f1ad c13f 2404 663f
0.6943043 1.616353 0.5617864 0.5481412 0.74213696 1.0866568 0.7521302 0.6834346
1.2150823 0.65988225 1.0708408 1.2130165 0.92195714 1.396527 0.71090174 0.7974532
1.9451318 0.91928715 0.78314584 0.89028955 1.1570659 0.37817767 1.1075643 1.1539167
1.2390383 1.157858 1.8146902 1.0915296 0.5665421 0.8993329 1.5131208 0.8985007
