resnet.pkl (torch_old, 823058 bytes, 77 tensors)

weight f4 [16, 1, 3, 3]
00000000: 94d6 a3bd 2232 78bd 115a 5f3e ea5f 21be
00000010: 09ed 26be 9522 4f3e c528 b03d 60a8 a03e
00000020: 8908 90be 431c 443c d5af 0dbf c431 c93c
00000030: c751 213e 4097 54bf f016 46be 1981 b5bd
00000040: 3830 f2bd 655d 213e 45d9 fd3d b37b f3be
00000050: b286 50be 15f5 d0bd 67fc acbe 5e76 3fbd
00000060: 1d37 38be 952b 7a3e 31b7 493e 6829 05bf
00000070: 1792 2cbe ff00 d43d 0bde 86be 3853 9bbe
00000080: 437f ad3d 032e 143e 286f d43c 5ca7 273e
00000090: ea17 7abd f956 8d3e 3821 41be b4de 0f3d
000000a0: bf75 13bf b092 37bf 06b3 8b3e f3e1 05be
000000b0: 5f83 8dbc 818e 95be ad57 c93e 22ff 173e
000000c0: f38c b0be 141f 963e fb23 9d3e 9eb3 aebd
000000d0: 3ff1 97be 3923 10be 91fd 29be 5826 1dbd
000000e0: a72d 7abe 7b42 1e3e 41d3 d7bd be78 23be
000000f0: 768d 423e b132 6e3e fed5 333e 8f9d 41bd
00000100: ac22 6a3e 3221 7fbe 126a 97bd 1dd0 bd3e
00000110: bcbd 5a3e 8438 383c 85a1 18be f143 78be
00000120: 5d72 833e c544 793d 88e6 92bd 0177 2a3e
00000130: 758d 1ebe e28d 64be 01ee bb3e 8f9c a4bd
00000140: 88c5 93be 7a6b ac3e a15a 39be a249 50be
00000150: 4b74 b2be 224f 4fbd 1cc9 953e 5d4c 513d
00000160: 7dd4 abbd f1d8 b13d 3022 18bd cafc 9f3e
00000170: fcb8 6f3d 8086 c7be dda8 74be ebc6 9e3e
00000180: 422b 90be 2d95 c43e 7e01 83bd 2881 913e
00000190: 0b59 d0be 5ba0 843e 4dfe 9d3e d639 b9be
000001a0: 3b10 b73d cc53 c1bd e54e 063e 19b8 de3d
000001b0: 1adb 923e fa68 b0be 6228 21bf c853 a1be
000001c0: a3cd a8bd 5a55 b5bd 47b7 153e 7a18 923e
000001d0: fe8b 0fbe bd28 c03b 373d 173e a971 03bd
000001e0: 4d7d a0be 1a5f 24be 1347 a13d e8d0 40bf
000001f0: fa69 b9bd ead4 48bd 9109 613e 91cb 1dbe
00000200: 6d48 513d e247 183e 12dc 10be 3433 d6be
00000210: 3f3f 77be e3b0 fc3d 8a8f e6be 20d1 98be
00000220: d172 453e cf6d 8bbd adad 703e 782b 8e3e
00000230: 5ea8 ef3e 1c9f 55be 72f1 453e c6b5 bc3d
-0.07999912 -0.060594685 0.21811701 -0.15759245 -0.16301359 0.20228036 0.08601526 0.3137846
-0.28131512 0.011969629 -0.55346423 0.024559863 0.15753852 -0.8304329 -0.19344687 -0.08862514
-0.11825603 0.15758283 0.123949565 -0.47555313 -0.20363882 -0.10202996 -0.33786318 -0.046743743
-0.17989774 0.24430688 0.19698788 -0.52016306 -0.16852604 0.103517525 -0.2634128 -0.30336928
0.08471539 0.14470677 0.02593191 0.16372436 -0.061057962 0.27605417 -0.18860328 0.035124496
-0.5760154 -0.717082 0.27285022 -0.13074474 -0.017274557 -0.29210284 0.39324704 0.14843419
-0.34482536 0.29320586 0.30691513 -0.08530353 -0.29676244 -0.14075936 -0.16600634 -0.038366646
-0.24431477 0.15455048 -0.1053834 -0.15964028 0.18999276 0.23261525 0.175621 -0.0472694
0.22864789 -0.24915007 -0.07393278 0.3707284 0.2136144 0.011243943 -0.14905365 -0.24244668
0.2567319 0.0608566 -0.071728766 0.16646959 -0.15483649 -0.22319749 0.3670502 -0.08037674
-0.28861642 0.33675748 -0.18100978 -0.20340589 -0.3485435 -0.050612576 0.29254997 0.051098216
-0.08390138 0.086839564 -0.03714198 0.3124755 0.058526024 -0.38969803 -0.23892541 0.31011137
-0.28158003 0.38395062 -0.06396769 0.2841885 -0.40692934 0.25903592 0.3085808 -0.36176938
0.089386426 -0.09439811 0.13116033 0.108749576 0.28682786 -0.3445509 -0.62952244 -0.31509233
-0.08242347 -0.0885417 0.14620696 0.285343 -0.14018247 0.0058642314 0.14769445 -0.032090817
-0.31345597 -0.16051903 0.078748845 -0.75318766 -0.090534166 -0.049031176 0.21976306 -0.15409686
0.05109446 0.14871171 -0.1414645 -0.4183594 -0.2414522 0.12338426 -0.45031387 -0.2984705
0.1928208 -0.06808054 0.23503752 0.2776754 0.4680814 -0.20861477 0.19330385 0.09214358

weight f4 [16]
00000000: 4b17 1a3f 7fa1 c33e 6716 553f cdc1 e63e
00000010: 6c34 503f 78f3 213f 6fd4 f83e 22bf b43e
00000020: 9b3f 5b3f 8e67 bf3e 6b96 263f b6c2 053f
00000030: 8cae c53e 8c4c 353f ed15 2b3f 412c 653e
0.6019179 0.3820915 0.8323731 0.45069733 0.8132999 0.6326213 0.48599574 0.35302073
0.8564393 0.37383693 0.6507327 0.5225023 0.3860973 0.70819926 0.6683033 0.22380163

bias f4 [16]
00000000: a1f5 cc3d 021b 22be 9b4d 9fbe 3a03 fbbd
00000010: 4c89 afbe 9e68 4b3e 9783 0ebd cace 1bbd
00000020: 235b 6e3e fd8f f63d eb9e 363e 4142 aebb
00000030: 020a 30be 5e56 81be 0928 84be 0652 70be
0.100077875 -0.15830615 -0.31113896 -0.12256475 -0.34284437 0.19864127 -0.034793463 -0.038039006
0.23276953 0.12039182 0.1783406 -0.0053179567 -0.17191318 -0.25261205 -0.25811794 -0.2346879

running_mean f4 [16]
00000000: 2b84 803c b994 9fbe 3024 2cbe 7e6c 20be
00000010: 6eda 78be 4010 3bbb 3ca9 ec3b 4fce 873c
00000020: 7a72 023c 72ea b2bc f7e8 3c3c 393e 8d3d
00000030: 16aa 45be 6ba3 81be d390 3ebe 318a 473e
0.015688023 -0.31168154 -0.1681068 -0.15666386 -0.24302074 -0.0028543621 0.0072223227 0.016577868
0.007961864 -0.021840308 0.0115301525 0.06896634 -0.19303164 -0.2531999 -0.18609934 0.1948631

running_var f4 [16]
00000000: 6c34 723b 1744 5c3e 682b 873d 314f 8d3d
00000010: 0711 113e 942d b93c 3c94 3e3c 8c7d df3b
00000020: 7e98 c13c d191 953b f3c0 8e3c 23af 733c
00000030: f269 bc3d 24fe 113e e3bf a53d 510f b83d
0.0036957515 0.21510349 0.06600076 0.0689987 0.14166652 0.022604741 0.0116320215 0.0068203863
0.023632284 0.004564502 0.01742599 0.014873299 0.09199895 0.14257103 0.0809324 0.089872964

weight f4 [16, 16, 3, 3]
00000000: f9a2 9dbe be5f 66bd f4a8 40bd 15cc 67be
00000010: 7bca 3ebc f906 b13b ddae 133c 68b4 8e3d
00000020: b184 9b3d ebdf 86bd 8a84 e23d db1b 243e
00000030: 0423 923d 33ed 063e faae b03d 2e5e 003d
00000040: 04c3 00bd 31ec de3c 16dc c1bd 6a1a 81bd
00000050: 0611 8f3c 1991 ac3d 3146 c33d 3cb6 823d
00000060: faae a63d be04 d73d 648e 833d 4143 76be
00000070: dd84 063e 8c67 a23d 0ced 20be 3324 e8bc
00000080: 96e3 6ebd ffc2 aa3d 1616 ac3c 6824 a0bd
00000090: 32ad 163d 872f 4fbd a49b cb3d 7883 c93d
000000a0: fa16 bebd ba52 55bd 13cd b03d e9ba 03be
000000b0: 4b8e d8bd 25d2 843d 4fd4 913b 9a7b f1bd
000000c0: 7e0d 0cbe 4882 2e3d ade3 d53c fc64 2fbe
000000d0: 0404 d23c 2bc5 a23d 6b9f c7bd 38de 4f3c
000000e0: 3b92 3c3d b13c 9fbe a725 1abe 753a 71bd
000000f0: eb11 1fbe cf74 39be d94c 053d c31e 0abd
00000100: ba08 623b c328 87bd 69ca 34be 9c70 363c
00000110: a736 46be de32 833c 4bdf 083e d66f bebd
00000120: 1b0b 02be f4b8 543d b106 383e 031f 1dbd
00000130: 7e78 57bd 8e53 4b3e 930d 233e 7bad 50be
00000140: f617 ef3c b413 81be 03b0 58bd 641b 3d3d
00000150: 4b2f 1dbd ee7d 2f3e 2f15 083c ea7c 31bc
00000160: 91b7 a83d 7738 ae3d f951 87be 6491 c5bd
00000170: 500c bebc 628c 1a3d 31f6 663d e310 ff3d
00000180: a8ec ec3d a42b 253d a26e 453b 23c7 ebbc
00000190: 716e 6fbe bc23 643c 54df 903c bb17 a1be
000001a0: 57ca a6bc 43cb adbd 858b 04be 2fe1 f5bd
000001b0: 3b4e a2bd ff87 4abc 373a 423d 7184 2dbc
000001c0: 426c 90bc 8a82 ab39 c36c d4bc 213c 3ebe
000001d0: b499 01bd 6a29 cdbc 4262 8b3d 7d9b 02be
000001e0: 97dc 013e e946 7a3e 90aa 40bc 6b25 d93c
000001f0: 439f 883d e4f2 c3bd 4987 1abe 42af a3bc
00000200: 0c02 523e b095 9f3d a0f1 34bd 17da 613e
00000210: 7d8e 6fbd fe68 11be 3f2d 04bc 7f08 903d
00000220: 34eb 89ba 9478 e9bc 7b1c 43be b192 71be
00000230: 5c7a 70be a1b0 40be b7dd 4abe 8920 41be
00000240: 6119 023d 56f9 883d 5f21 473d 9878 a43d
00000250: d0f7 483d 1a57 2cbd 95fc 0abe 1ad9 b13c
00000260: 50f5 3cbd 399b a2bd c44e 053e 0c24 c9bc
00000270: 2f92 44be 640a e33d 24f9 36bc 9488 80bd
00000280: 5f1a 9b3d 77ea 08ba 83f2 2fbd c77a 243d
00000290: b897 87ba d4c0 8d3c b090 953d 11e3 253e
000002a0: 1230 bfbd 5268 ccbc 2938 26bc 9b17 e7bd
000002b0: 92c3 05bd 8acf 5cbe 10a1 9a3b 38e2 5f3d
000002c0: e344 c0bb 9d41 77bd 4ec5 77bc 14de c2bd
000002d0: 9e39 8ebc bb62 433e c6e3 333b 0331 b4bd
000002e0: 0e4f e23d 8609 1e3e 7954 e63c 9a4e b0bc
000002f0: 94f1 8f3d d084 92be 1370 a9bd 9871 adbd
00000300: 18e4 b8bd b9d2 89bd 0804 403d 3863 353e
00000310: adb8 82be fdf1 013e a08b abbd a4a5 f1bd
00000320: abfe 9936 b330 15be 9cb8 a6bc e704 163e
00000330: fb4d aabd 5fb1 0e3c 61bc 133e 8a78 24be
00000340: 7631 1cbe 5fe6 603c aa96 413d 2f32 8dbd
00000350: 6298 443e 7be0 f33d c034 42be f7d8 203e
00000360: 199c bdbc fed3 dbbb 74c2 c83c 665d fbbd
00000370: 63b5 583e 3dba bdbb a48c e5bd a529 233e
00000380: e8a9 2bbe 44c2 ae3d 7111 ab3b 7a60 ffbd
00000390: 7adb 263e 84da d7bd 76fb 08be a769 9fbd
000003a0: de30 b03d 21ca 313c 2e4b ba3c afce 2ebe
000003b0: e319 bcbd c921 95bd a3fe c4be 302e e03d
000003c0: 058d 9bbc d8ff 18be 4a1e f83d 8dd1 303e
000003d0: 3152 a13d 8982 8a3d 6e88 a63c 76d7 373c
000003e0: d1bb d2bd 3189 92be f65c 653e 86e2 84bd
000003f0: 2923 b3bd 125c b7bd 04f6 3c3d 6f61 40bd
-0.307884 -0.05624365 -0.047036126 -0.22636445 -0.011644955 0.0054024425 0.009013859 0.069680035
0.07593668 -0.06585678 0.11060436 0.16026251 0.07135585 0.13176422 0.08627124 0.031339817
-0.03143598 0.027212234 -0.09465806 -0.06303866 0.017464172 0.08426113 0.09534872 0.06382415
0.08138843 0.104989514 0.06423643 -0.24049093 0.13136621 0.07929906 -0.15715426 -0.028337574
-0.05832251 0.08337974 0.021006625 -0.07819444 0.036786266 -0.050582435 0.099417955 0.09839529
-0.09281726 -0.052080847 0.08632865 -0.1286427 -0.10574015 0.064853944 0.004450358 -0.11791153
-0.13677022 0.042604715 0.02610954 -0.17128366 0.02563668 0.07947763 -0.097472034 0.012687258
0.046037894 -0.3110099 -0.15053426 -0.05889364 -0.15534179 -0.18110965 0.03254399 -0.033720743
0.0034490065 -0.065995716 -0.17655338 0.011135247 -0.19356786 0.016015466 0.1336643 -0.09298675
-0.12699549 0.051934198 0.17971303 -0.038359653 -0.052605145 0.19856092 0.15923147 -0.20378678
0.02918623 -0.25210345 -0.052902233 0.0461687 -0.03837518 0.17137882 0.008305832 -0.0108330045
0.082381375 0.085068636 -0.26429728 -0.09646872 -0.02319923 0.037731536 0.05638713 0.12454393
0.11568576 0.040324822 0.0030125757 -0.02878148 -0.23381974 0.013924535 0.017684616 -0.31463417
-0.020360155 -0.08486035 -0.12943847 -0.12005841 -0.079250775 -0.012361526 0.0474188 -0.0105906585
-0.017629746 0.0003271292 -0.025930768 -0.18577625 -0.031640723 -0.025044162 0.068058506 -0.12754627
0.12681805 0.24441113 -0.011759415 0.0265071 0.06671002 -0.09567812 -0.1509067 -0.01998103
0.20508593 0.077922225 -0.044175744 0.22055851 -0.058485497 -0.14200208 -0.008067428 0.070328705
-0.0010522367 -0.028499879 -0.19053833 -0.23591115 -0.23484176 -0.18817379 -0.1981114 -0.18860067
0.031762484 0.06688182 0.04861581 0.08030814 0.049064457 -0.042075254 -0.13572915 0.021709967
-0.046132386 -0.079397626 0.13018328 -0.024553321 -0.1919639 0.11085966 -0.011167798 -0.0627605
0.07573389 -0.0005222926 -0.042955887 0.040156152 -0.0010344898 0.017303862 0.073029876 0.161999
-0.093353406 -0.024952088 -0.010145226 -0.11283799 -0.032657214 -0.21563545 0.004718907 0.0546591
-0.005867587 -0.060365308 -0.015122725 -0.09515014 -0.017361458 0.19080631 0.0027448996 -0.08798411
0.11050235 0.1543332 0.028116452 -0.021521855 0.07028499 -0.28616953 -0.082733296 -0.08468932
-0.090278804 -0.06729645 0.046878844 0.1771363 -0.2553152 0.12689967 -0.08376241 -0.117991716
4.5894026e-06 -0.14569359 -0.0203517 0.14650308 -0.08315655 0.008709281 0.1442733 -0.16061607
-0.15253243 0.0137268 0.047262825 -0.068943374 0.19198754 0.119080506 -0.18965435 0.15707766
-0.023145722 -0.006708621 0.024506785 -0.12273674 0.21162944 -0.0057900236 -0.11208466 0.15933855
-0.16764033 0.08533147 0.005220585 -0.12469573 0.16294661 -0.105397254 -0.13377175 -0.077838235
0.08603071 0.010851414 0.022740927 -0.17071031 -0.09184625 -0.07281835 -0.38475522 0.109463096
-0.018988142 -0.14941347 0.12115152 0.17267437 0.07877005 0.06763179 0.020328727 0.0112208035
-0.102897294 -0.28620294 0.22398743 -0.064885184 -0.08746941 -0.08953108 0.046133056 -0.04696792

weight f4 [16]
00000000: fa73 093f 8d53 b53e bc23 563f 4c0c 1a3f
00000010: 7089 fa3e e249 ae3e 39a6 5c3f c104 803f
00000020: e69d 573e f91d 833e 69c6 523f 3fea 373f
00000030: c386 c83e 7399 803e 372a cb3e fa0e 1dbe
0.5369259 0.35415307 0.83648276 0.60175014 0.48932981 0.34040743 0.86191136 1.0001451
0.21056327 0.25608805 0.82334 0.71841806 0.39165315 0.25117072 0.39680645 -0.15337744

bias f4 [16]
00000000: 8f7f 18be f57d 92bd f0f6 d4bd b1d8 fdbd
00000010: 862c dcbc 99f5 89bd 9879 5ebe 0a6c 51bd
00000020: 7170 1dbe 6cd3 f03d b7c1 eebc 4f45 d1bd
00000030: 7ac5 38be f05c 10be 9af3 62bd a395 e5bd
-0.1489241 -0.07152931 -0.10398662 -0.12394846 -0.0268767 -0.06736297 -0.21726072 -0.051128425
-0.15374924 0.117590755 -0.029145105 -0.10218298 -0.18044081 -0.14097953 -0.055408098 -0.112101816

running_mean f4 [16]
00000000: f56f b4be c9ea 7fbe abfb e3be 7ee4 0fbf
00000010: dadf 41bf 16ed 4dbf d53b e23e 7303 71bf
00000020: 49e2 b6bc 6d03 7dbf d061 debe feca e4be
00000030: ccda 153f 282d f0be 0748 663d 1eed c7bb
-0.35241666 -0.24991907 -0.44527945 -0.56208026 -0.75732195 -0.8043989 0.44186273 -0.9414589
-0.022324698 -0.9883335 -0.43434 -0.4468612 0.5853698 -0.4690945 0.056221034 -0.0061012646

running_var f4 [16]
00000000: d70b 173f a823 b83e 32a2 153f c2f7 3e3f
00000010: 72fe 093f 7328 463f 4981 693f 6d3e 743f
00000020: a684 5c3e c732 983f 1e7a c83e 35fb 943f
00000030: 17f8 313f 78bd 433e 199c 5d3e ad6d 9b3e
0.5900244 0.35964704 0.58450615 0.745968 0.5390388 0.7740547 0.912129 0.95407754
0.21534976 1.1890496 0.39155668 1.1639162 0.6951918 0.19115245 0.21641578 0.30357113

weight f4 [16, 16, 3, 3]
00000000: a0e7 34bd feeb 1f3e cb81 1f3d b117 d83d
00000010: 9fad e43d a8ed 633d 9a16 c93d 396d b4bb
00000020: cdff aa3d ba30 7ebc 4035 7bbe 35c2 bf3d
00000030: 2cad 97bb a996 82be b80e c53c ab45 c53d
00000040: f833 e3bd 95c8 5ebe f2dc dabd fbce a4bd
00000050: 3491 903b 8367 76bd 4c9c fcbd c04a 4abd
00000060: 38d9 0f3e e6fb f43d b80b 213e c6b4 ef3d
00000070: 8c4a cc3d 5f7b 1b3d 2533 843a c8f9 82bc
00000080: 309f f8bd 7c13 923c 383f 5abe 3431 9bbd
00000090: d24d 32bd 35ab 41bc 8147 f93d cb6e 993d
000000a0: 391d 3d3e cc86 b1bd 6fa4 3e3d 0fd5 b23d
000000b0: 7af6 22be e549 d13d 7efc 4f3d f92a 1e3e
000000c0: 8b3a 6a3d 7373 1a3e 7bd6 553e 24cf 9a3c
000000d0: 73cf bf3d ead4 813d b7d7 bf3d 55ba 1dbe
000000e0: f510 22be 596d 4cbe 90e3 30be 77d1 153e
000000f0: 49a4 3ebe d85d 073c 8578 1f3e b4da 39bd
00000100: c0a6 953c 6c3b 333e 3c8c febd 4128 80bd
00000110: 994b b03d 4d05 0fbd 9f66 0dbe b260 8ebe
00000120: cf58 4ebc 00e6 e039 489f a13c 49db 8d3c
00000130: 58f4 2f3d 6cb7 51bc af49 7cbc d270 c2bd
00000140: f67a 75be ebda 0f3e 6f8e 0c3e 3210 94bd
00000150: cb47 aabc 614d 0e3d 890b 3dbc c531 7abd
00000160: e27f 0fbe 3a64 023c 732d a9bd 7cc5 d7bd
00000170: 2a68 8f3c a34f a1bd eae8 13bd a6db 003e
00000180: a0ad bc3c 7cb2 9dbd b82b 3b3e 4945 533e
00000190: da7f 973c d34e c0bd 0a69 b03d 56c0 53bd
000001a0: 96fe 8f3d 66e1 11bd 2a7d f9bd a6dc 273d
000001b0: a035 a13c 81b0 a9bd 57b5 f3bc ca04 6d3a
000001c0: f90b f5bb 60cc f7bd 05b3 75b9 1314 24be
000001d0: 0a55 82be 1412 97bd 65b7 60bd 359b ad3c
000001e0: 304d b4bd f4b5 fcbd 0400 eabd feee aebc
000001f0: 9dc8 10bd 5385 24be 44af 8b3d d2c0 cc3d
00000200: 7dee 72be 1579 aa3d fdc2 dcbd 2b4a 2abe
00000210: c48e c0bc 969b 3e3d 2f0e 6e3b e7a3 44bd
00000220: 60b3 70ba a536 233e 6530 0cbd f368 6c3c
00000230: a6ff b63d 66da 35be 448d 14be cc48 8abe
00000240: 9e09 d5bd cffc c2bd b951 47bb 7a59 56bd
00000250: f84f 953d 0d6d bd3d 1fed ddbc 5507 db3d
00000260: 7564 033e 15b9 9ebe 2d3f 6fbd be89 183e
00000270: 2490 39be 24bf a6bd 1a86 843d 5b96 6abd
00000280: bfc7 e6bd a53d c43d a485 78bc 6c50 063e
00000290: c585 563e 2860 92bd bba3 e43c 90d8 ed3c
000002a0: a9c5 22ba 4737 3c3d 471c 52bd 9bec 083e
000002b0: 8ae3 4fbc 8de9 423d bb33 09be 1ee9 95bd
000002c0: 2c87 8bbd f5ec abbd 7566 2c3e 0b0a ed3b
000002d0: 603c 4cbd 04b0 143e ff9e 273d 395c c23c
000002e0: 4749 2b3e ffe3 883d 0ee6 2bbe 9dcd b63d
000002f0: ffa6 3c3e 60b2 ba3d a9b0 c5bc 1aeb c63d
00000300: a58f 92bc 2cfb 11bd b1b5 1b3e e4bb 893d
00000310: fbc0 803d 1d69 463e c130 033e f90a 073e
00000320: fc28 083e 56a7 d53d adb0 743c 71fb cabd
00000330: 371d 83bc af6f 933c 001e f6bd e88b 023b
00000340: d399 4c3e 0e72 84be dcad 783c 59c2 193e
00000350: 3d12 4abe a041 3d3e 3d0b 2d3e 06c4 8f3e
00000360: adc2 a43d d409 5c3e 1c79 b23d 9405 853d
00000370: b446 0cbd ccb3 993e 0b48 8dbd a679 dfbd
00000380: 22e2 0c3e 88b9 213e 9840 05be a918 42bd
00000390: 3eb7 1e3e d67b 64be 8e63 7bbd d1a5 303e
000003a0: 9843 7bbd adcf 6dbe 48aa a5bd ed4f edbd
000003b0: a827 233e 9263 893d 7b59 39bd da44 043e
000003c0: d1f6 853d 7593 0fbe 565f aeba db98 aa3c
000003d0: a466 e73c 71c4 fc3d da23 62bd 5b73 903d
000003e0: 1a1c a03d 285e cebc 807b cb3b 6dc8 8dbd
000003f0: c1ad 043e e31a 85bc 5e92 7ebc 1d2d 7ebb
-0.044166207 0.15617368 0.03894214 0.10551394 0.11165928 0.05564657 0.09818764 -0.0055061844
0.083495714 -0.015514547 -0.24532032 0.09363214 -0.004628798 -0.2550557 0.02405487 0.09632429
-0.110938966 -0.21756203 -0.10686673 -0.08047291 0.004411841 -0.06015731 -0.12334499 -0.049387693
0.14047706 0.11962108 0.15727127 0.11704402 0.09975156 0.037959453 0.0010086043 -0.015988246
-0.121397376 0.017831556 -0.21313179 -0.07577744 -0.043531246 -0.011820604 0.121718414 0.07491835
0.18468179 -0.086682886 0.046543535 0.08732044 -0.15914336 0.102191724 0.050777905 0.1544608
0.057184737 0.15083103 0.20882599 0.0188976 0.0936574 0.06339438 0.09367316 -0.15403111
-0.15826781 -0.19963588 -0.17274308 0.14630686 -0.18617357 0.00826212 0.15573318 -0.045374587
0.01826799 0.17503136 -0.12429091 -0.06257678 0.08608169 -0.034917165 -0.13808678 -0.27808148
-0.012594416 0.00042895973 0.019729272 0.017316477 0.042957634 -0.012800079 -0.015398427 -0.09494175
-0.23972687 0.14048354 0.13726209 -0.072296515 -0.020786187 0.034741763 -0.011538395 -0.06108262
-0.14013627 0.007958466 -0.08260622 -0.10535714 0.017505724 -0.078765176 -0.036110796 0.12583789
0.02303201 -0.07700059 0.18278396 0.20631899 0.018493582 -0.093900345 0.086137846 -0.051697098
0.0703098 -0.035615347 -0.12182076 0.04098191 0.01967889 -0.082856186 -0.029749556 0.0009041546
-0.007478234 -0.12099528 -0.0002343171 -0.16023283 -0.25455505 -0.07376495 -0.0548624 0.021192173
-0.08803785 -0.12339392 -0.11425784 -0.021354195 -0.03534757 -0.16066484 0.06820539 0.09997715
-0.23723789 0.08323876 -0.107793786 -0.16629855 -0.023505576 0.046535097 0.0036324372 -0.048007872
-0.00091820024 0.15938814 -0.03422584 0.014429319 0.0893548 -0.17759094 -0.14507014 -0.27008665
-0.10402225 -0.09520876 -0.00304137 -0.052331425 0.072906435 0.092493154 -0.027090607 0.10694758
0.1283129 -0.3100058 -0.05840986 0.14896294 -0.18121392 -0.08141926 0.0647089 -0.057272296
-0.11268567 0.0958207 -0.015168581 0.13116616 0.20949467 -0.071472466 0.027910104 0.02903393
-0.0006209263 0.045951154 -0.0512965 0.13371508 -0.012688527 0.047586013 -0.1339864 -0.07319854
-0.06812891 -0.08394805 0.1683596 0.007233863 -0.049862266 0.1452027 0.040923115 0.023725616
0.16727172 0.06684112 -0.16786978 0.08925936 0.18423079 0.091160536 -0.02413209 0.09712811
-0.01789076 -0.035639927 0.15206029 0.067252904 0.06286808 0.19376035 0.12811567 0.1318778
0.13296884 0.104323074 0.014934701 -0.0991124 -0.016005142 0.01799759 -0.12017441 0.0019919816
0.19980554 -0.25868267 0.01517817 0.15015544 -0.1973352 0.18482065 0.16898818 0.28079242
0.08044944 0.21488124 0.08714506 0.064952046 -0.034247115 0.30019987 -0.06898507 -0.109118745
0.13758138 0.15793431 -0.13012922 -0.0473868 0.15499589 -0.22312865 -0.06137424 0.17250754
-0.06134376 -0.23223753 -0.08089119 -0.1158751 0.15933096 0.06708445 -0.04525135 0.1291689
0.06541217 -0.14021094 -0.0013303559 0.02082484 0.028247185 0.12342156 -0.055209972 0.07053252
0.0781786 -0.025191382 0.0062097907 -0.06922994 0.12956907 -0.016248172 -0.015537826 -0.0038784214

weight f4 [16]
00000000: d19c 0d3f 2f0d e73e e868 543f 454f 333f
00000010: 5ae1 323f f423 c23e b92d 653e d6e2 663f
00000020: 9c2a 3d3f 671f 693e 8a8f 563f 1e60 b83d
00000030: a48a 053f 90ea 2c3f 4680 303f 66a0 0b3f
0.5531741 0.45127246 0.82972574 0.7004283 0.6987511 0.37918055 0.22380723 0.90189874
0.7389314 0.22765885 0.83812773 0.09002708 0.52164674 0.67545414 0.6894573 0.54541624

bias f4 [16]
00000000: cbb5 d53c 64c7 8aba 1f72 43bd f490 1bbe
00000010: 5e34 34bd e2ba 2ebe 2f8d b6bd 9daf 7ebd
00000020: aea7 febd 61c1 4cbe a27d 4dbd a2d1 37be
00000030: 0c76 aebd 2ae9 e6bd ea2e 8e3c af6b 72bd
0.026087662 -0.0010587987 -0.047716256 -0.15192014 -0.043995254 -0.17063478 -0.089136474 -0.062179197
-0.12434326 -0.19995643 -0.05016864 -0.17951062 -0.085186094 -0.11274941 0.017356355 -0.059184726

running_mean f4 [16]
00000000: ec4e 3abe af5f 803e 1aa5 843e d467 c33c
00000010: 6cc1 4dbe 34a8 99ba 93f2 b8be 4977 76be
00000020: 89ad 82be e34d 76be 22a2 efbd 11b5 e53e
00000030: 1ca1 d5be 5919 20bf b66d 863d 4e11 70be
-0.18194169 0.25073 0.25907212 0.02385322 -0.20093316 -0.0011723102 -0.3612257 -0.24068941
-0.25523022 -0.24053149 -0.11700846 0.44864705 -0.4172448 -0.6253868 0.065638945 -0.23444101

running_var f4 [16]
00000000: fc98 043e c5bf 163e 95fd 273e 4e80 7c3e
00000010: 32ea 463e f75a 1d3e 88b2 8b3e 49d8 5c3e
00000020: 72a0 273e c723 ad3d 13ea 863e c1f9 df3d
00000030: 8c25 b23d 4b9c 6e3e 91b1 8c3e 4562 5a3e
0.12948984 0.14721592 0.16405328 0.2465832 0.19425276 0.15366732 0.27284646 0.21566881
0.16369799 0.084540896 0.2635046 0.10936309 0.08698568 0.23301809 0.27479222 0.2132655

weight f4 [16, 16, 3, 3]
00000000: 513e c63c 75b3 723d 0a28 5c3e c248 c6bd
00000010: 53e5 593d 5c66 f2bc b881 6d3d 44b1 1f3c
00000020: 2e5e f83c 9c08 b4bd f87e bd3d b157 9b3d
00000030: b9f6 7fbe 6ecd 573c 2877 223e 09a2 24be
00000040: f38d 0abe 1d77 ee3d 9f7b ab3b 0dcb 5c3c
00000050: b099 28bc 2b3d e83d 3993 ffbc 855d b93c
00000060: a78e 89bc 88cb a83a 3450 423d d6a2 a73d
00000070: 5ea0 1b3e 0eb0 883d 3655 fbbd 1fa8 a13d
00000080: 8e27 d1bb 266d 0dbe f49e 85bd fdc6 9bbd
00000090: fec1 823c 93e6 7abd c498 14be 72fa 0d3d
000000a0: a06f b3bd 516a 32be 1c0e 703d c9d4 7d3c
000000b0: f4ba 27be 657e 303d 95f1 22be bb6d 29bd
000000c0: db1e fd3c a339 7fbe 08c1 66be 4d42 9dbe
000000d0: 3d6a abbe 870d adbd 8fc2 e03d 3312 e53d
000000e0: 7fa8 05bd e3c5 ea3d 5b46 aa3d eb08 8ebd
000000f0: 0121 6b3e 6bbe 063e 7392 323d 55d5 6a3c
00000100: bdef 913c 44f9 d43d 57b1 a9bd 9298 083c
00000110: fca0 f03c 4d02 b1bd ef85 a2be bb4f 23be
00000120: 7bc8 97bd b94e 903d 96d2 e43d da6c 04be
00000130: a3a1 42bd 6ccb b3bd ab6d b3bd 62ee 81bc
00000140: 496d 60be 1b5f 79bd b0cb b0bc cb9d 2bbc
00000150: a163 24be 8b08 bfbd 5c97 423d 153d 94bd
00000160: 178d f2bd e9b1 033e 013f f3bd 9f49 90bd
00000170: b4e8 103e 4541 36be 2fe8 0abe 3795 e73d
00000180: facd 00be 2643 39be d90f c73d 8f61 a83b
00000190: e19a fd3c e714 4bbc 2463 e5bd 08b8 1c3d
000001a0: 9d2d 4dbc 68db 43bd c456 a93d 727a e83d
000001b0: 4793 d83d 27e8 543e 7d90 f6bd e8e6 853d
000001c0: 42c2 053d 8fea eabd c1bf 64bd c6d4 533d
000001d0: 7660 2bbe 3f19 753d 32c3 893d ea72 5f3b
000001e0: 486d 0d3e 7085 96bc 4dc9 1d3c 68e6 5bbc
000001f0: a17d 1cbd fb4f 8abe 7298 9f3d 3822 e5bc
00000200: 2bd0 32be 7617 5abd 6ec7 123c 4a56 b3bd
00000210: 1c63 71bd 0e37 1abd eea1 44be ef33 67be
00000220: 8cd2 333d 8c54 ff3c 2158 c2bd e613 033d
00000230: 19a8 693e e9f2 ba3c e720 0f3e 5217 b33e
00000240: 3983 96bc b53d 9ebc a345 943d d569 b93b
00000250: b755 b93c d025 393d 2f00 9f3d 4834 4f3b
00000260: 3f7d 943c cd05 7cbe 8eda a2bd 6ec4 a7bc
00000270: 5596 09be 0ca2 10be e36f 86bd e6c4 da3c
00000280: 96e7 c1bd bf54 3cbe d241 913d a693 b43d
00000290: 175d 59bd 8dc5 eb3b 4d73 e33d 7fa6 67be
000002a0: 31d6 493e ead7 2d3e ccba 9bbd e645 9fbc
000002b0: 90b3 0ebe cf60 77be 9f4b 733d a9b8 09be
000002c0: 4180 75bd a961 0f3c 0eb2 debd 8704 2b3d
000002d0: 8851 45be 36e4 0a3e 80eb 0dbd 9156 21be
000002e0: f595 6abd 88d8 85bb e1e9 fcba be8d a7bc
000002f0: edf6 eb3c 5155 2cbd fbaa 9d3d b5d2 253e
00000300: 4b88 06be 2f44 0b3e 9694 1a3e 7030 40bd
00000310: f174 113e 7955 30be b332 8cbe 31b5 a2be
00000320: 01e3 66be 1243 34be e5d4 46be e1ba 40be
00000330: 6eac 3e3e a65e 1b3e 84f1 233e ec94 d53d
00000340: 1764 303d 38ab d1bd 0b0c a6bc b07f 0b3c
00000350: cefb 26be 3658 d0bd b004 4cbd 4c40 e43b
00000360: 56dc 8f3d 06a8 0cbd f514 003d 34e5 8fbd
00000370: 1d29 fabd 9901 793b 7c03 a23d 7d49 9cbe
00000380: 611d 8fbd cd82 e13d 58fc 423d e2f1 c23c
00000390: a116 233e dfd4 e23c 35fe 7fbd 4d9e 043e
000003a0: 191d abbd 91d9 6ebe 98a3 58bd 33c3 c83d
000003b0: d1d3 3ebd e54b 333d 7b37 353d 65f3 0cbe
000003c0: 6f6a 163d bbe9 63bc 6c35 52be 3be3 de3c
000003d0: b9a3 a5bd 6946 8b3d 2592 eabc 6595 04be
000003e0: 6f9e d83d 37a6 46bd f9a0 9fbd 0227 b13d
000003f0: c01c cabc 10ba 60bd 5d94 efbd c911 a5bd
0.024199637 0.059253175 0.21499649 -0.09681846 0.053197216 -0.029589824 0.057985038 0.009746853
0.030318346 -0.087907046 0.09252733 0.07585085 -0.24996461 0.013171537 0.15865767 -0.16077437
-0.13530712 0.11643813 0.0052332426 0.013476145 -0.010290548 0.11339792 -0.03119813 0.022627601
-0.016791655 0.001287804 0.04743977 0.08185355 0.15197894 0.06674205 -0.12272112 0.07893395
-0.006382889 -0.13811168 -0.065244585 -0.076063134 0.015961643 -0.06125505 -0.145114 0.03466267
-0.08761525 -0.17423369 0.058607206 0.0154926265 -0.1637991 0.04308929 -0.15912469 -0.041364413
0.030898502 -0.2492433 -0.22534573 -0.30714646 -0.3347949 -0.08449846 0.10974609 0.11185112
-0.032631394 0.11463525 0.083142005 -0.06935295 0.22961809 0.13158576 0.043596696 0.014333089
0.017814511 0.10399106 -0.08285778 0.008337157 0.029373638 -0.08643017 -0.31742808 -0.15948384
-0.074112855 0.07046265 0.111729786 -0.12932149 -0.04751743 -0.08779034 -0.08761152 -0.01586074
-0.21916689 -0.060881715 -0.0215815 -0.0104746325 -0.1605363 -0.09327801 0.04750763 -0.07238213
-0.11843317 0.12860836 -0.118772514 -0.07045292 0.14151269 -0.17798336 -0.13565134 0.11307757
-0.12578574 -0.18092021 0.097198196 0.005138583 0.030957641 -0.01239512 -0.1120055 0.038261443
-0.012523082 -0.047816664 0.08268502 0.113514796 0.10574966 0.20791684 -0.12039278 0.065381825
0.03265596 -0.1147052 -0.055846933 0.05171659 -0.16736016 0.05983853 0.06726684 0.0034095594
0.13811219 -0.018374175 0.009630513 -0.013421632 -0.038205747 -0.27014145 0.077927485 -0.027970418
-0.17462222 -0.05324503 0.008958681 -0.08756693 -0.05893241 -0.03765016 -0.19202396 -0.22578405
0.043901965 0.031168245 -0.094894655 0.0320014 0.2281803 0.022820907 0.13977395 0.3497873
-0.018373119 -0.019316534 0.07239845 0.005658368 0.02262388 0.045202076 0.07763707 0.0031616855
0.018126128 -0.24611588 -0.07951842 -0.020479407 -0.13436253 -0.14124316 -0.065643094 0.026705217
-0.09468 -0.18391703 0.07092632 0.08817224 -0.053067293 0.0071951807 0.11105976 -0.22622107
0.19710614 0.16976896 -0.07603988 -0.01944251 -0.13935685 -0.24158023 0.05939829 -0.13449349
-0.059936766 0.008751311 -0.10873805 0.041752364 -0.19269383 0.13563618 -0.03464842 -0.15755679
-0.057271916 -0.0040846504 -0.0019295776 -0.02045333 0.028804267 -0.04207355 0.076986276 0.1619366
-0.13137929 0.13600229 0.15095744 -0.046921194 0.14204766 -0.17220105 -0.2738243 -0.31778863
-0.22547533 -0.1760371 -0.1941715 -0.18821289 0.18620464 0.15172824 0.160101 0.10428795
0.043064203 -0.102377355 -0.020269414 0.00851433 -0.16306993 -0.10173075 -0.049809158 0.0069656726
0.070244476 -0.034339927 0.031269986 -0.07026139 -0.12214873 0.0037995337 0.07910821 -0.30524817
-0.069880255 0.110112764 0.047603935 0.02379698 0.15926601 0.027689395 -0.06249829 0.12951012
-0.08355159 -0.23325182 -0.05289039 0.09802856 -0.046588723 0.04377355 0.044242363 -0.13764723
0.036722597 -0.013910706 -0.20528191 0.027207961 -0.08087868 0.06800539 -0.02863414 -0.12947614
0.10577094 -0.04849836 -0.07794375 0.08650018 -0.024671912 -0.054864943 -0.1169822 -0.08060033

weight f4 [16]
00000000: 294a 423f dbab 6e3f e4b9 cb3e 1428 233f
00000010: d6be 063f 5d4d 203e fce5 f53e 3439 4d3f
00000020: a712 583f 0204 7e3f b75d c63e fa63 343f
00000030: c4d4 bc3e 5c20 e13e 6fd6 e93e 3837 663f
0.7589441 0.9323098 0.3979026 0.6373303 0.5263494 0.15654512 0.48027027 0.8016541
0.8440346 0.99224865 0.38743374 0.7046505 0.36881077 0.4397 0.45671412 0.8992801

bias f4 [16]
00000000: 4a07 a7bd 1914 4fbd fa2d 89bd 3014 1ebd
00000010: f819 363c 0a72 1bbe d51f 03be d4a3 02be
00000020: 8ef7 68be 4cb6 37be a3ee 32be ec6b 59be
00000030: b181 d0bd 5ecf 0cbe 6654 18be d0ae 4cbe
-0.08155687 -0.050556276 -0.066982225 -0.03859347 0.01111459 -0.15180221 -0.12805112 -0.12757808
-0.22750685 -0.17940634 -0.17473845 -0.21232575 -0.10180987 -0.1375098 -0.14875945 -0.1998856

running_mean f4 [16]
00000000: a1aa 80bf c552 80bf 3a87 3cbf b184 36bf
00000010: e206 0bbf 96e3 2b3e 39bc d53d c7b9 bfbe
00000020: f97e 08bf 7848 6cbe 82e7 ba3e c2f5 e1be
00000030: 28fd cfbe b721 50bf d23c 56be 10ad f5bf
-1.0052072 -1.0025259 -0.7364384 -0.7129622 -0.5430738 0.16786036 0.10436291 -0.37446424
-0.53318745 -0.2307452 0.3650475 -0.4413281 -0.4062283 -0.81301445 -0.20921639 -1.919344

running_var f4 [16]
00000000: 0483 3b3f dd14 7a3f ee60 173f 9a43 313f
00000010: 7d35 583f e295 f83e b65b 233f 4f7e 0e3f
00000020: a95c 4d3f 61e7 c33e 3bc9 6a3f 784c 083f
00000030: 3394 333f 30f8 133f 3d88 473f 4dcf 5a3f
0.7324679 0.97688085 0.5913228 0.69243777 0.84456617 0.48551852 0.63811815 0.5566148
0.80219513 0.38262466 0.91713303 0.5324168 0.7014801 0.5780058 0.7794226 0.85472566

weight f4 [16, 16, 3, 3]
00000000: 190c 2b3b 70f1 42be ea8d 83be 381e 863d
00000010: 6291 9dbd 4cd5 25be 5836 cdbd 23a0 a3bc
00000020: 711b c5bd 849d d43d 50c0 e73d cd67 853e
00000030: c4a4 f13d 9644 333c edc8 f33d d97f 553d
00000040: 562b 013c 7739 aabd a709 353d dc39 c53d
00000050: 1708 013d a6ed b33d 2b38 66bd 87da 8ebd
00000060: 0ee7 a23d 4dbc 83bd 90fd e03a 475a 55be
00000070: 1cc9 183c 25a0 be3d 073c 46be 11a5 4d3e
00000080: 69de 833d d7ae 10be f15c 073e b095 963d
00000090: bd0a 4b3e 30bb adbc 9dfe fd3d f0ee 03bc
000000a0: 4668 9dbd 2c6e 71bd 5489 dbbd 6ea2 c13d
000000b0: f674 efbd 8ed3 803d fffd 893d dcab cf3d
000000c0: b819 91bc 664c 2c3e 6049 413d 5130 2f3b
000000d0: 0f83 5a3e a95c 7d3d 1036 c53d 68d4 7ebd
000000e0: f07b 593c 6b10 f23d 4ce2 74bd 74d2 77bd
000000f0: 7381 fcbc 7728 05be 5f33 52bc 7e3f 973d
00000100: 9e98 64bd 6200 80bc 20c9 6ebd b76e 8cbd
00000110: d759 f7bc b7c8 0d3d 334b e5bd 549f 18be
00000120: 689e 053d 9fca 78bd 3eaf 2dbe 5bc7 0ebe
00000130: 13bb 6dbe e315 43be 5891 7dbd 2014 463d
00000140: f2c4 293e 8a61 abbb 315b aabd e11b ae3d
00000150: 067e fabc b9c3 033e 5afe e33c 403f bf3d
00000160: 3c31 d4bd 0ae5 e4bc 27a3 ef3d c593 483b
00000170: 2255 28be 3aaa 8bbd 34d1 0f3d 712a 68be
00000180: a196 1ebd 35af a3bd 5e46 9dbe 007e aabc
00000190: 83ad f9bd 19f5 3dbd 1389 8cbe cc55 0fbe
000001a0: ebbd 433e 0ef2 a7be 9de1 88bd 8be0 a03e
000001b0: eee2 58bd 28ef 62bd 25ea 03bd b554 a03d
000001c0: 8595 de3d a230 f4bd 2530 1c3e 168f b03d
000001d0: 6f78 d3bc a916 cabd c06b 2abe 242b aabd
000001e0: 0118 2bbe 5b99 cbbd db36 2dbe 8054 d2bc
000001f0: 0b63 6dbd 9ef0 12bd 7f36 033d 17d8 753d
00000200: 7acf 38be 4d41 2dbd ebe1 e8bc 1a02 e1bd
00000210: 8040 dabd 52aa d93d afed debd 259f 0cbe
00000220: a3f1 203c 529b 743d 6069 323d 1786 9a3d
00000230: 344d e0bb f579 7f3d 3f48 573d 89c3 e13c
00000240: 2345 1fbd cff9 68bd acab dfbc 308c 903d
00000250: 1b3a 8dbd c9c4 97bd 5c40 fcbb c193 87bd
00000260: 1a9b 3cbe cae4 a5bd bea7 bfbd c142 283e
00000270: bd43 703d 4106 c43c f27b e13d 01e0 e53d
00000280: 5065 0bbc a1e4 1b3e 47e6 adbd e351 72bd
00000290: 67f3 cfbd 164e 50bc eed8 cdbc ba08 b8bd
000002a0: d78e 8bbd 3b81 9d3d 6084 25be e10e 1abe
000002b0: 7420 10be 6442 9abe 9135 ac3b f803 fcbd
000002c0: 0674 11be ba5b 243e 814a 153e 9c54 743d
000002d0: 70ba d23d ee96 1f3e f895 9d3d d0b4 583e
000002e0: 5cf2 8e3e 9eb8 743e 4a2a 383e a048 e83e
000002f0: 0b0e 543e 27a4 adbd 2645 233e f42e 413e
00000300: 6d70 913d 1b1a 093e 7db7 703d 997c 603e
00000310: dbf4 df3d bc6f 383e 9f78 32be 1a0c 193d
00000320: 2bbb 2d3c 9d9b 30be 47eb a03c c85e 983d
00000330: fd94 eabd f8c8 033e 5a8e bbbc c02b 59bb
00000340: 70d2 9c3d 9f03 44be bd6b 8e3d 4b9e b1bd
00000350: 1803 4abe 94c3 de3b fffe dabd 3233 a2be
00000360: c5e2 aebd 6633 9abd 6cd2 883d dadf b9bd
00000370: 6e27 4fba 2298 ec3d e489 1fbe b074 c33d
00000380: f1d4 0a3e 8d01 35bd 7809 b8bd 20f8 afbd
00000390: c302 2cbd 4efc 873d 4b6d ce3d 7226 b83d
000003a0: 5071 e33d b3e9 393e b6eb ee3d 4ad2 e2bc
000003b0: 2a58 123e c85f 4c3d a76c 1fbd 9637 6a3d
000003c0: 226c 263e a46a e6bd b489 503e 306e 993d
000003d0: 9ece 22bd 6172 063d 38bd e53c 0414 133e
000003e0: db19 a83d 89ba 14bd 1262 633d 00b2 953d
000003f0: 0389 d7be fc5d 22be 8419 7a3e 6796 c2be
0.002609974 -0.19037414 -0.2569421 0.065487325 -0.07693745 -0.16194648 -0.10020131 -0.01997382
-0.09624375 0.10381606 0.113159776 0.26055756 0.11799005 0.010941645 0.11903558 0.05212388
0.007883867 -0.08311742 0.04419866 0.096301764 0.031501856 0.08785562 -0.05620591 -0.069752745
0.079542264 -0.064324 0.0017165411 -0.2083522 0.009325292 0.09307889 -0.19358836 0.20082499
0.06438906 -0.14129196 0.13219048 0.073527694 0.19828315 -0.021207422 0.12402079 -0.008052573
-0.07685904 -0.05894296 -0.10719553 0.09454809 -0.116922304 0.06290351 0.06737899 0.101402014
-0.017712459 0.16826019 0.047189116 0.002673168 0.21339057 0.061855946 0.09629452 -0.062214285
0.013274178 0.11819538 -0.059786126 -0.060503438 -0.030823445 -0.13003717 -0.012829631 0.07385157
-0.05580961 -0.015625183 -0.058297276 -0.06857055 -0.030194206 0.034615245 -0.11195984 -0.14904529
0.03262177 -0.06074011 -0.16961381 -0.13943236 -0.23215894 -0.19051318 -0.06190619 0.048359036
0.16579035 -0.0052301334 -0.08318175 0.08501411 -0.03057767 0.12867631 0.027831245 0.09338236
-0.10360953 -0.027941246 0.11701041 0.0030605656 -0.16438726 -0.068195775 0.03511162 -0.2267244
-0.03871787 -0.079924025 -0.30717748 -0.020812035 -0.12191298 -0.04637632 -0.2744833 -0.13997573
0.19115417 -0.3280186 -0.06683657 0.31421313 -0.052950792 -0.05540386 -0.03220572 0.078286566
0.10868362 -0.119233385 0.1525274 0.086210415 -0.025814263 -0.09867603 -0.16642666 -0.0830901
-0.16708376 -0.099413596 -0.16915457 -0.025675058 -0.057955783 -0.035874 0.032034393 0.060020532
-0.18047896 -0.042298604 -0.028428039 -0.10986729 -0.10656834 0.10628189 -0.10885178 -0.13732584
0.009823236 0.059718437 0.043557525 0.07545107 -0.006845141 0.062372167 0.052559134 0.027559059
-0.038884293 -0.05687886 -0.02730354 0.07057989 -0.06895848 -0.07410581 -0.007698102 -0.06619979
-0.18418542 -0.08100279 -0.09358166 0.16431715 0.05865835 0.023928763 0.11009969 0.11224366
-0.0085080415 0.15223934 -0.084911875 -0.059160125 -0.10153847 -0.01271393 -0.025127854 -0.089860395
-0.06814354 0.076906644 -0.16163778 -0.15044738 -0.1407488 -0.30128777 0.005255409 -0.123054445
-0.14204416 0.16050616 0.14579202 0.059651002 0.102894664 0.15584919 0.0769462 0.21162724
0.2791928 0.23898551 0.17984882 0.45367908 0.20708482 -0.08478575 0.15944347 0.18865567
0.07101522 0.13388865 0.058768738 0.2192253 0.10935374 0.18011373 -0.17428826 0.037365057
0.010603706 -0.17246862 0.019643439 0.07439953 -0.114541985 0.12869632 -0.022895027 -0.003313765
0.07657325 -0.19142006 0.06954143 -0.0867277 -0.19727743 0.006798217 -0.10693168 -0.31679684
-0.085393466 -0.07529335 0.0668076 -0.090758994 -0.0007902299 0.115524545 -0.15579945 0.09543741
0.13557793 -0.044190932 -0.08986181 -0.08592248 -0.04199482 0.0663992 0.1007944 0.08991708
0.11105597 0.18155555 0.11666052 -0.027688164 0.14291444 0.04989603 -0.03892198 0.057181917
0.16252187 -0.11250809 0.2036503 0.0749172 -0.039747827 0.032823924 0.028044328 0.14363104
0.082080565 -0.036310706 0.05551345 0.073093414 -0.4209672 -0.15856165 0.24423796 -0.38005373

weight f4 [16]
00000000: 7853 ae3e 22d5 883d ef8e 053f 82d7 4f3f
00000010: 843d 313f d345 f93e e9e5 7f3f 3495 883e
00000020: 12e9 a53e 3574 543f a42e 663f 6b20 a43e
00000030: 1fbe 793f c495 c33d 2d11 233f ac16 4f3f
0.34048057 0.06681277 0.52171224 0.81188214 0.6923449 0.48686084 0.9996019 0.26676333
0.3240438 0.8298982 0.8991492 0.32055983 0.97555727 0.0955005 0.63698083 0.8089397

bias f4 [16]
00000000: cec3 bdbd 7872 063e 6e91 dfbb 6174 82bc
00000010: dfdd 023a da6d a6bd b084 59bd 8d01 d4ba
00000020: e57e 4abd 1e49 72be 10a2 23be 1bd2 1b3c
00000030: cf71 733d ecda 103e cccb 1e3c b20b 25be
-0.092658624 0.13129604 -0.0068227565 -0.015924634 0.0004992168 -0.08126421 -0.053105056 -0.0016174779
-0.049437422 -0.23660704 -0.1597979 0.009510542 0.05943471 0.14146012 0.009692144 -0.16117743

running_mean f4 [16]
00000000: 1888 abbe 6058 b53e df9c ca3e cf59 88be
00000010: 1fe2 d9bc c6a6 5d3e a79a 993e 8282 c1be
00000020: 3cdb f0bd 30a3 923e 3b54 1e3d 218e f6be
00000030: 864a 48bf 3b9f 77bf ee35 123d a48c 5e3b
-0.3350227 0.35418987 0.39572808 -0.2663102 -0.02659708 0.2164565 0.30000803 -0.37794882
-0.11760566 0.28640127 0.038654547 -0.4815531 -0.78238714 -0.9672734 0.035695963 0.003395834

running_var f4 [16]
00000000: 894e b43e 6c31 fe3e 3342 c43e 39d1 0d3f
00000010: 5408 cb3e 11e9 4f3f bb2b ed3e e0d4 0e3f
00000020: d054 d13e e848 5d3f 623c 113f 9798 1f3f
00000030: 0527 6b3f e49a 503f bdb6 593f 42b9 ef3e
0.35216168 0.4964708 0.38331756 0.55397373 0.3965479 0.81215006 0.46322426 0.5579357
0.4088502 0.8643937 0.5673276 0.6234221 0.91856414 0.81486344 0.8504446 0.46821028

weight f4 [32, 16, 3, 3]
00000000: 011e 37bd 238e b1bd 1495 c33d a9e1 b93d
00000010: 122a 7ebd 6408 b0bd ea79 293c 8031 73bd
00000020: a4d9 b3bd efdc 40bc e574 a93d 4d65 d03d
00000030: 2fe9 c0bd 3462 97bc 14e3 f83d 85e8 ad3c
00000040: 2f5b 9a3c cbfe 133e 0e61 923d 4bb8 7d3d
00000050: bb2f adbd 9cca 563d 46ff 1fbc c567 443d
00000060: 7f1a 1a3e 211f 903d c9aa 683d 074c d6bd
00000070: 9b82 8cbe b4cb 35be e540 043d 60e5 26be
00000080: 5ebe 123d 8183 abbd d74e a7bd f65d 8d3d
00000090: 90ab 05be d690 113d 609a 143e 053a 3ebe
000000a0: 2d2d ad3c ac11 783d f09c 3ebe 2058 5cbd
000000b0: eb31 613b 221b 4e3e 3508 b5bb 3715 80bd
000000c0: 5a7b f33d efed 1f3d 3915 e23c 0027 fe3d
000000d0: 80c0 b7bd 6875 383d d41c 343e a3df 95bb
000000e0: be51 f4bd ce21 313d 62a0 79be f504 59be
000000f0: 46a4 0ebe b324 87be 8823 42be 39b7 41be
00000100: 696f cabd 2fcd 0c3d 4122 b2bd ee1e 59bd
00000110: 2cdb 043e 7bb7 11be 0ddf 95bd 4942 2f3e
00000120: 8371 a6bc df8f 4cbd a894 8bbd ca5d 7cbd
00000130: e2c5 bcbd 35a3 49bc b50d 7ebd 7b04 10bd
00000140: bf5d abbc ce73 b3bd 3657 26be fe9d 2a3d
00000150: 0e08 87bc 1316 69be e50f 8dbd bfc5 6b3c
00000160: 2fad 75bd 6882 cd3d 9188 dbbd 6151 d1bd
00000170: 70f5 d6ba 8e3e c8bd 57e2 d03c 9317 88bd
00000180: 9026 12bd d04a da3d 3c66 8bbd 48a1 a53d
00000190: fe8f 08bd 12e3 0c3d 7131 a73c c1c1 d13d
000001a0: 3a52 ac3c 969a 9e3d cc49 25bc 3cc3 c8bd
000001b0: 59f7 d5bd b972 8bbd da08 a1bc 77ec 96bc
000001c0: 07b6 a6bc 2f19 023c 14ef 7cbd 5f22 d13d
000001d0: 34ac 6b3d fa9a 30be 1e1a 1cbd 571f 583e
000001e0: 4fac 3dbe df2a a33c 97cd 943e e255 aabe
000001f0: 2c27 1cbd 420c 123e 8685 35be 9956 8dbc
00000200: cd7e 4d3d 9fb8 8fbd 2923 2c3d 9dd0 023d
00000210: 2770 19bd 454b fb3c bfec f43d 1e16 8e3d
00000220: 82c2 1abe a6be cebd 97a2 89bd a981 82be
00000230: f03d f3bd 3d82 10be edf7 7fbe fd2b 9b3c
00000240: eb27 17be 6fff ecbd 2bb1 1abd b885 07be
00000250: 99a5 923b 6f4a 35bd a027 9dbd 3762 01be
00000260: ac84 b03d 8e07 a83d a3d5 853d 7bf7 f5bd
00000270: 0ce2 1d3e 0240 2dba f378 ac3d 399d e0bc
00000280: cb4a 04bd 30c1 0abc a3dd 50be 1562 92be
00000290: d6a6 62be b4b8 cbbe c116 a3be 17be 63be
000002a0: 27d6 c1be 1b1b 71be 8a70 87bd 8133 4f3d
000002b0: 5ecf 0fbd bd20 ebbb 2b2f ea3d 3eb9 95bd
000002c0: f10e 71bd a155 86bd 4d99 33be 8935 a6bd
000002d0: 3599 593b 9472 b2bd be9c 0bbb 0f71 41be
000002e0: 3591 0fbe 5de7 ddbc 3977 a1bd 17fe a3bd
000002f0: 9045 5c3c 3b85 a5bc a0d8 63bc e1f4 3fbd
00000300: e5d6 613d 06bd 31bd dfae 653d 13d0 a63d
00000310: b796 fd3d 748e 4bbd 20cb 033d 54db 4f3d
00000320: da85 3a3d 4bb9 a03d 09ed aebb 512d ce3c
00000330: b027 233e 66dd 463e b7f3 dfbc c432 c93d
00000340: c561 703d 8687 fe3d 580c a13c be59 643d
00000350: 90aa 0c3e d229 603d a720 dc3d 22e8 dc3d
00000360: d900 ea3d bb3d 1f3e 18d0 a43d e232 d43d
00000370: 56de 7a3e c797 1a3e f6fc d53d 8411 db3d
00000380: 70f1 833d f580 2e3d 5850 a83d d9b5 3f3b
00000390: 857b db3d a280 8cbb 9eca 44bd 89f0 47bc
000003a0: c322 13bc 67f3 903c 7603 753d 3432 6e3d
000003b0: c32a a83d 4fcd 713d 4965 093e e993 913d
000003c0: ca2d 503d f6be d2bc 3859 6ebd da8d c5bd
000003d0: 1ac2 f9bc 0957 5e3c 507a 1ebd 81b4 993d
000003e0: 8f74 85bc 0e7a 7ebc 3452 963d 651b 243e
000003f0: c255 d3bd a83c 9bbc 167b 0d3d 75a9 24be
-0.04470635 -0.086696886 0.09549919 0.090762444 -0.06205184 -0.085953504 0.010344008 -0.05937338
-0.08781746 -0.011771425 0.08274249 0.101755716 -0.09419476 -0.018479444 0.12152687 0.021229038
0.018842308 0.14452665 0.07147418 0.061943334 -0.084563695 0.052439317 -0.009765452 0.047950525
0.1504917 0.07037187 0.0568035 -0.1046372 -0.27443394 -0.17753488 0.03228845 -0.16298437
0.03582608 -0.08374692 -0.081693344 0.06902687 -0.13053727 0.035538517 0.14512014 -0.1857682
0.021139706 0.06056373 -0.18614554 -0.05379498 0.0034362029 0.20127538 -0.00552466 -0.062540464
0.11888762 0.03904527 0.02759801 0.124097824 -0.08972263 0.045033842 0.17589122 -0.0045737787
-0.119296536 0.04324513 -0.24377587 -0.21193297 -0.13929853 -0.26395187 -0.18958867 -0.1891755
-0.09884531 0.034375366 -0.0869794 -0.053008012 0.12974232 -0.14230148 -0.07317934 0.1711513
-0.020317798 -0.049941894 -0.06815463 -0.06161288 -0.09217431 -0.012306978 -0.06202479 -0.035160523
-0.020918725 -0.08762322 -0.16244206 0.04165458 -0.016483333 -0.22762327 -0.06887797 0.014390408
-0.059979614 0.10034639 -0.10719407 -0.102206 -0.001640005 -0.09777556 0.025498552 -0.066451214
-0.035681307 0.106588006 -0.06806609 0.080874026 -0.033340447 0.03439624 0.020409318 0.10242034
0.021035302 0.07744329 -0.010088395 -0.09802863 -0.104475684 -0.06808991 -0.019657541 -0.018423302
-0.02035047 0.007940575 -0.06175144 0.10211634 0.057537273 -0.17246619 -0.038110845 0.21105705
-0.18522762 0.019917903 0.29063103 -0.33268648 -0.038123295 0.14262488 -0.17726716 -0.017253207
0.050169755 -0.070176356 0.04202572 0.03193723 -0.037460472 0.03067554 0.11959218 0.06937812
-0.15113261 -0.10094957 -0.06720465 -0.25489548 -0.11877048 -0.14112182 -0.2499692 0.018941874
-0.14761321 -0.115721576 -0.037766617 -0.13234603 0.004475307 -0.04426044 -0.076735735 -0.12635122
0.08619055 0.08204566 0.065348886 -0.12010094 0.15418261 -0.0006608964 0.08421507 -0.02741872
-0.03229789 -0.008468911 -0.20397048 -0.28590456 -0.22133955 -0.39789355 -0.31853297 -0.22240482
-0.37858698 -0.23545496 -0.06613262 0.050586227 -0.03510987 -0.0071755336 0.11434778 -0.07310723
-0.05885214 -0.06559301 -0.17538948 -0.0811568 0.003320289 -0.0871326 -0.0021303142 -0.18890785
-0.14020236 -0.027087862 -0.07884068 -0.08007448 0.013444319 -0.02020513 -0.013906628 -0.046864394
0.05513658 -0.043393157 0.056074973 0.08145156 0.12382262 -0.0496964 0.032176137 0.050746277
0.045537807 0.07847842 -0.0053383154 0.025168093 0.15933108 0.19420394 -0.027337892 0.09824136
0.05868699 0.12428193 0.019659206 0.055749647 0.1373694 0.054727383 0.107484154 0.10786463
0.11425943 0.15550892 0.08047503 0.103612676 0.24498877 0.15096961 0.10448639 0.106967
0.06442535 0.04260345 0.08218449 0.0029252677 0.10716919 -0.004287795 -0.048044793 -0.012203344
-0.008980456 0.017694188 0.059817754 0.058153346 0.08211281 0.05903369 0.13417543 0.0710829
0.050824918 -0.025725823 -0.058190554 -0.09646197 -0.030488063 0.0135705555 -0.038690865 0.075051315
-0.016290931 -0.01553203 0.07339898 0.16026075 -0.103190914 -0.018949822 0.034541212 -0.16080268

weight f4 [32]
00000000: 6412 0d3f b280 433f dcfc 403f a1ed 2e3f
00000010: 9cee 523f 9679 293f c001 9b3e fb47 0d3f
00000020: 3e2e 7a3f 33b4 943e 3b4d fb3e f513 f43e
00000030: 0974 503f 697d 9d3e 4045 af3e 3c1c ae3e
00000040: 4651 2b3f 4be2 fa3e a721 4a3f 01e4 4e3f
00000050: 2417 0b3f e477 b33e 3b2e e83e 4860 123f
00000060: 6795 d83e 6c98 d93e d8b2 c93e 6d07 fb3e
00000070: 78f5 4e3f 51d7 543f 2c2c 813f ec56 483f
0.55106187 0.7636825 0.7538583 0.6833134 0.8239534 0.6620115 0.30274773 0.5518796
0.9772681 0.2904373 0.4908236 0.47671476 0.81427056 0.30759743 0.3423252 0.34005916
0.6692089 0.49000773 0.789576 0.80816656 0.54332185 0.35052407 0.4534777 0.57178164
0.42301485 0.424991 0.3939426 0.49029103 0.80843306 0.83141047 1.0091605 0.7825763

bias f4 [32]
00000000: e152 be3d be0a 383d d47c 3e3d d87c a0be
00000010: bcff 23be 2062 5fbd 841a 0dbe ed4e 19bd
00000020: 5eb1 bcbd 5de8 6ebd 9b0f e2bd c3cd 42be
00000030: 4db4 8fbd bae1 1abe cc54 e6bd 5c4a 31be
00000040: 00ce 5bbd a316 9abd 3635 e1bd 10cb f3ba
00000050: 1084 6e3c c395 cfbd 7b5d 0bbe 75bc 13be
00000060: 8f07 28bd 123f 91bc 422e 91bd b985 293d
00000070: 3367 abbd 57d3 06be 95d9 86bd 40fe fbbd
0.09293152 0.04493212 0.046505764 -0.31345248 -0.16015524 -0.05453694 -0.13779646 -0.037428785
-0.092135176 -0.058327068 -0.11038133 -0.19023804 -0.070168115 -0.1512517 -0.112466425 -0.17313522
-0.053663254 -0.07523849 -0.10996477 -0.0018599946 0.014557853 -0.10135987 -0.13609879 -0.1442736
-0.041022833 -0.01773027 -0.07088901 0.041387293 -0.08369293 -0.13166557 -0.06584469 -0.12304354

running_mean f4 [32]
00000000: c2da c7bf 20d2 34bf 3dba 18c0 0d93 30bf
00000010: 17d6 1a3f 4633 b9be caba e2bf 0e23 19c0
00000020: be94 04c0 5f37 7bbf 45ac dd3f beb1 c53e
00000030: a8ef 6fbe c9ac 703e a1ce b33f cad8 edbe
00000040: e60a b0bf 568e f83c b990 89bf 85c9 abbf
00000050: 9228 483c 2517 de3f 5616 2e3f bf15 a73d
00000060: 33a5 013f 4ff9 1ec0 07f3 9b3f 0b09 cbbf
00000070: 6db2 d63f 5cf2 c9bf f607 edbf 5122 dfbf
-1.5613635 -0.70633125 -2.386367 -0.6897438 0.60482925 -0.3617193 -1.7713253 -2.3927646
-2.0715785 -0.98131365 1.7318197 0.3861217 -0.23431265 0.23503412 1.4047433 -0.4645446
-1.3753326 0.030341309 -1.0747291 -1.3420874 0.012216704 1.7350813 0.6800283 0.081584446
0.506427 -2.4839666 1.2183541 -1.5862135 1.6773201 -1.5777087 -1.8518054 -1.7432348

running_var f4 [32]
00000000: d349 2440 c378 3540 8e23 0f40 6ed3 953f
00000010: cae2 4440 6840 0c40 3dee 863f aaf6 1340
00000020: 0d3e 1f40 990a c33f de92 2d40 e8db bd3f
00000030: 4293 4e40 8b19 ba3f d81a 1640 ebf1 713f
00000040: 4493 ec3f c5b3 c13f d9cc df3f 58ac 0540
00000050: dab0 1140 c54e a33f 2ec8 d53f 5be3 f83f
00000060: b41c 0740 e00d ff3f 6c56 1140 9b20 fc3f
00000070: 14cb 4540 ca78 e63f a615 7e40 0956 4440
2.5670059 2.8354957 2.236545 1.1705148 3.076342 2.191431 1.0541455 2.3119302
2.4881623 1.5237609 2.712089 1.4832735 3.227738 1.4539045 2.3453884 0.9450976
1.8482442 1.5132986 1.748439 2.088644 2.2764192 1.2758414 1.6701715 1.9444383
2.111127 1.9926109 2.2708998 1.969745 3.09052 1.8005612 3.9700713 3.0677512
