resnet.pkl (torch_old, 823055 bytes, 77 tensors)

weight f4 [16, 1, 3, 3]
00000000: 19ef 34be 8f9c 45bd 6508 673e e73f 92be
00000010: c32d 153e 61ab 3f3e 3157 74be 4d33 873e
00000020: 58fd b0bc b061 99bd be80 f0bd ecc6 abbe
00000030: de6f 6cbb 7bba e5bd a8f9 863e fda9 4cbd
00000040: 3a93 e9bd cd85 953e 3c66 80be f9af 653e
00000050: 4716 4fbd 707a 12bf fa3e c5be 481a 943d
00000060: f4a5 d6bc 1335 013e 2b78 c53d ba95 3ebe
00000070: 22df a7be c28b 81be 84b5 1a3e 2025 cabe
00000080: a060 8b3e a966 053e a7ad 96be 8db4 ce3d
00000090: cfd0 86be a759 e5bd 7ef3 b33e 19e3 d83d
000000a0: 1ad5 95be b00f 4d3e 9248 713e 1a0a 3dbd
000000b0: 24ac 05be 5fb2 3c3e 1d1e 63be 6e15 3d3e
000000c0: b556 c63d 30c0 e6bd 7457 e6be 325a bebd
000000d0: e4f1 b63d e8f8 23bf c58f c8bc d31f b8bd
000000e0: ccbf 273e 744d 6f3e 9ee3 443e 5b43 9fbe
000000f0: e079 c63e 8c35 173e c956 1c3d 4f66 723e
00000100: f8d9 9bbd 0eb2 923e 28bd a23d 70b1 8fbd
00000110: 2d83 b63d 5dc1 09be 7e1a c63d 81c7 b2be
00000120: 4403 d43d 27a0 adbe 3f6d 363d 643d bdbe
00000130: 2c36 4abf 0ea1 26be 5e44 813d e360 cabd
00000140: fb44 2abc e9b7 e13c 710a 0ebe 9529 a43d
00000150: badd c23d df72 16bf 867e 313d 4276 a7bd
00000160: fa8e 3bbf fb0f c5bd fd0d 543d 184f f5be
00000170: 5319 f9be 76a5 163e 80f4 89be fe4e febd
00000180: 4f21 45bd 9995 4c3e 90df 203e 230a b33e
00000190: cea6 99be 8787 30be 62d1 dabd 523a 763e
000001a0: e9b8 4e3e 8d50 6abd cf64 943e c7f5 9cbe
000001b0: 3e7f ec3c 69af 093e 1502 73be d2aa 823e
000001c0: e6a0 2d3d 0770 80be 4b99 cd3d e7a5 63be
000001d0: a3ea 76bc d0e6 433e 3168 5ebe b103 c3bc
000001e0: 9a70 20be 6197 81be 2d0e fabe 02fc 943e
000001f0: 3cfd d13d e2ec 47be dc7c efbd 435c 2f3e
00000200: 361b d13e 94d1 ef3d 939a 1e3e 1f67 72be
00000210: 7bd4 fa3d e30b 223e ddb5 44be 7192 c93d
00000220: 01a0 6c3e 963d b43d 7f78 c8be 2919 8a3d
00000230: 737a 41be 47d5 a0be 2521 873e fac4 1f3e
-0.17669334 -0.04824501 0.22561796 -0.2856438 0.14568238 0.1871772 -0.23861386 0.26406327
-0.021605179 -0.074893355 -0.117433056 -0.33550203 -0.003607742 -0.11217209 0.26362348 -0.0499668
-0.11405034 0.29203644 -0.25078 0.2243041 -0.050558355 -0.57218075 -0.3852461 0.07231575
-0.02620218 0.12617902 0.09642061 -0.18611804 -0.32787424 -0.2530194 0.15108305 -0.3948145
0.27222157 0.13027443 -0.2942936 0.10093031 -0.26331183 -0.111987405 0.35146707 0.105901904
-0.29264146 0.20025516 0.2356284 -0.04615221 -0.13053948 0.18427418 -0.22179456 0.18465206
0.09684507 -0.112671256 -0.44988596 -0.09294547 0.08932856 -0.64051676 -0.024482617 -0.08990445
0.16381758 0.2336939 0.19227454 -0.31106076 0.38764858 0.1476652 0.038168702 0.2367184
-0.076099336 0.2865147 0.07946235 -0.070162654 0.089117385 -0.13452668 0.09673022 -0.34917834
0.10352185 -0.3391125 0.04453778 -0.369609 -0.7898891 -0.16272375 0.06311868 -0.09881761
-0.010392423 0.027553516 -0.1387117 0.08015744 0.09514947 -0.5876903 0.043333553 -0.08176853
-0.7326504 -0.09622189 0.051771153 -0.47911906 -0.48652133 0.14711556 -0.2694435 -0.1241741
-0.04812747 0.19978942 0.15710282 0.3496867 -0.30010074 -0.172392 -0.10684468 0.24045685
0.20187725 -0.057205725 0.2898316 -0.30656263 0.028869268 0.1344582 -0.23731263 0.2552095
0.042389773 -0.2508547 0.10039004 -0.22231255 -0.01507059 0.19131017 -0.21719433 -0.023805471
-0.15667954 -0.25310805 -0.4883894 0.29098517 0.10253379 -0.19523957 -0.11693737 0.17125039
0.40841073 0.11709896 0.15488653 -0.2367215 0.12247559 0.15824847 -0.1921 0.098423846
0.23107912 0.08800809 -0.3915443 0.0674308 -0.18894367 -0.31412718 0.26392475 0.15602484

weight f4 [16]
00000000: 26ed 123f 3a06 433f 0ad7 f03e ffd0 193f
00000010: 8608 1c3f a6f5 783e 0367 ad3e 748d 203e
00000020: 3c60 ab3e e0fe e93e 885b 4e3f 9c9b 1d3f
00000030: abd4 563e b7bf 873e 8f85 853e 4967 c53d
0.5739311 0.76181376 0.47039062 0.6008453 0.60950506 0.24312457 0.33867654 0.1567896
0.33471859 0.45702267 0.80608416 0.61565566 0.20979564 0.26513454 0.2607846 0.09638841

bias f4 [16]
00000000: 4a2c f83d 24f2 3dbe b119 31be bcf7 41be
00000010: abe6 843e 53bf debd 97c6 82be ba0d 7f3d
00000020: 751c 98bd d418 52be 277b a5be 1b33 d6ba
00000030: 039d d43c aac3 c6bd 57ab 223b 986d c23d
0.121178225 -0.185494 -0.17294957 -0.1894216 0.25957236 -0.10876336 -0.25542137 0.06226895
-0.07427303 -0.20517284 -0.3232052 -0.0016342135 0.025953775 -0.09705289 0.0024821365 0.094935596

running_mean f4 [16]
00000000: e1fa 203c e6ef 6fbd 93be 2ebe aefb 35be
00000010: c17c 1a3c 1d62 5dbe 3de9 293e 07db 093d
00000020: e455 b2be 9c1b 9fbe 2af3 3fbe 33c2 d33c
00000030: 8e13 18bd e1bb 2abe 93b0 053e d208 0fb9
0.009825439 -0.058578394 -0.17064886 -0.1777179 0.009429158 -0.21619458 0.1659288 0.033656146
-0.34831154 -0.31075752 -0.18745103 0.025849437 -0.037128024 -0.16673233 0.13055639 -0.00013640829

running_var f4 [16]
00000000: 974e 863c b9d3 623c 478a 913d 00e4 943d
00000010: 7b64 d83b 2fcc db3d 9536 753d a6ae 103c
00000020: e109 803e 73b7 533e e8bc b03d 8fa5 e93b
00000030: 0ef1 503c 80c7 913d 6e90 163d bd56 433c
0.016394896 0.013844424 0.071064524 0.0727005 0.006603775 0.10732304 0.059866507 0.008830702
0.25007537 0.20675449 0.08629781 0.007130332 0.012752784 0.0711813 0.036758833 0.0119225355

weight f4 [16, 16, 3, 3]
00000000: 0d82 40be 20ad 653e 115a 1bbd 44a5 b63d
00000010: 8c67 6e3e 690a a03d 9054 b83d 65ed 593e
00000020: b303 b4bc 4ecc 61be cfbb c5bc 4c60 153e
00000030: cbbb 4dbe 4940 d53d a0c0 ea3c 03ba f6bd
00000040: 7c34 023e dc9f 513d c5d6 cbbb 6d43 f03d
00000050: d5c3 733b e58d 5a3d d93e 5b3e e440 35bd
00000060: 5f4c d5bd e76a ca3d b51c 153c 96b2 e0bd
00000070: 9c98 a03d d21b 1e3e 8031 ca3d 839c 35bd
00000080: 18cb 1c3d c2c5 a83d 51b7 7abd b34f 8bbd
00000090: b2fe 27be cb12 97be fe2b b73c f6b2 6b3d
000000a0: 5ba2 a6bd b680 36bd a7ee 753d be46 86bc
000000b0: 2286 66be 4716 abbe a991 6abb 4c3e 80bd
000000c0: d787 15be 0dfa 07bd d842 d2bc a6bf 5bbb
000000d0: 617e 0dbe 3ce2 f53d 5248 f33d 8a95 563d
000000e0: 3f32 133d 1ad2 04be e529 283e 7625 c03d
000000f0: 4c8a b03d abde 9b3d 16dd 143a b3be 44be
00000100: 804f 9d3d a6ae 52bd ef49 37bc f90b 01be
00000110: 5703 f53d c60c b6bc 194c abbd 7ef9 393d
00000120: 4ba5 173e a2dc 89bd cd82 9e3c 6ec5 ff3d
00000130: 7744 a8bb b400 a4bc 08cb 873e c770 b6bc
00000140: 7ebd 913b df90 913e 55cb dfbc 658e 1e3d
00000150: e80b 9b3e b414 16be 132f 98bd 6118 b03e
00000160: 2fad a2bc 7733 9a3d 9a53 f4bd 95f9 c7bc
00000170: caa1 a03d e498 08be 3bd5 01bc 191a c23d
00000180: 09b9 47bb e32b b83c 34bd 0f3e 4b83 10be
00000190: 32e7 563e 04c4 5e3d c311 f6bb 046c 99bc
000001a0: b8ad b0bd 6eae 42be 8097 2dbe 2d09 01bc
000001b0: ab40 ce3d 936a 9fbc bec1 70bd dee8 e8bc
000001c0: 3e3b 41be 5c46 a2bd 46e5 09be ee57 79be
000001d0: d374 03be 34a6 b0bd 071f 24be 7f74 89bd
000001e0: 7fef 04be 2c99 b4bd 7a14 af3d 6df0 0ebe
000001f0: 5c22 dcbd 2409 b93d 8048 cabb cabf 8e3d
00000200: d940 a8bc bfc1 06bd ebd5 9d3d b792 973d
00000210: 1007 033d 9d5c 713d f72d 63bd 36d0 aebd
00000220: ed86 8f3e ca14 ecbd 3c31 1b3d 22c7 753e
00000230: 60f1 c8bd 05b9 30be fe75 47bd 43b5 febc
00000240: db16 ab3b b2ff 3a3e 10fa 3fbe d1ee a53d
00000250: 31f8 1a3d 6fd4 89be bf99 a23d 0156 1c3d
00000260: cd61 f0bd 7b3f a4bd da7e 8d3d 629d a73c
00000270: b78e 28bd bf22 7cbe cf4a 153e d552 9d3d
00000280: 3ffe 1fbc fa7a 68bb e47e 14be f264 45be
00000290: 8c48 34be 4ad9 93bc be2b 2bbe 32bc 29bd
000002a0: bb37 cc3d 5541 c5bb a278 86bd 3b17 ef3d
000002b0: 564d 32bc 0af2 ac3d e209 d8bd 10b5 cabc
000002c0: 8c98 153e 7552 ebbd 0a34 d4bd ee9c 293e
000002d0: 9c2d 093e ddc1 283e c9ef b5bc 8832 093d
000002e0: d7d3 4cbe b370 cb3d c322 d33d a442 b2be
000002f0: ef88 433e 645b 30bd 4b65 ccbd 109f 333c
00000300: a8d7 73bd fac0 533d 835c d13e bb92 d8bd
00000310: ef9b 1f3d 8349 b73c 19d3 67bd 3bbc b1bd
00000320: 6860 edbd 664b 1abd 6855 d73c 02f1 19bd
00000330: 109c 913d 51e4 aa37 2c34 cd3d 38bf 68bd
00000340: 55ec 2bbd 8ee4 59bd f89d 653d f765 d93c
00000350: 057e 903d 7136 1cbd 911a c2bd c998 993c
00000360: d6fb dbbd 91fd 2dbd 94bf 8cbb 7e04 2dbd
00000370: 26bf ddbd 0749 053e 837b fabc 230a 703d
00000380: 4f41 453e 9724 80bc 98c1 31be ec4d 8e3d
00000390: 2760 eabd ea92 2b3d 3962 643e 8442 b6bd
000003a0: 94e7 14bd 5817 4f3d 2a4d 04be 2386 53be
000003b0: 1cce 8fbc 1353 24bd e528 39be 092d cf3c
000003c0: 0fb5 2dbd af45 bfbc be45 993e 6361 223d
000003d0: 237d 533d b8a6 a2bd ee53 1d3e b2cb 16bc
000003e0: a99d 3bbe bcbd 19be 566d 7c3d a68e 403d
000003f0: eecf a23c 60f2 cabd f0e1 733d 93bb 643e
-0.1879961 0.22429323 -0.03792769 0.08918241 0.23281687 0.078144856 0.09000504 0.21281965
-0.02197442 -0.22050592 -0.024137406 0.14587516 -0.20091169 0.10412652 0.028656304 -0.12047198
0.12715334 0.051177844 -0.006220671 0.117316104 0.0037195582 0.053357977 0.21410693 -0.044251338
-0.10414957 0.09883671 0.009101083 -0.109715626 0.07841608 0.154403 0.098727226 -0.044338714
0.038279623 0.08240844 -0.06120998 -0.06802311 -0.16405752 -0.29506525 0.022359844 0.057543717
-0.081364356 -0.044556342 0.06004205 -0.016391154 -0.22512105 -0.33415434 -0.0035792387 -0.06261882
-0.146026 -0.03319745 -0.02566664 -0.003353098 -0.13817741 0.120060414 0.118790284 0.052388705
0.03593659 -0.12970772 0.16422231 0.09382145 0.08620128 0.0761083 0.00056786963 -0.19213371
0.07681179 -0.05143609 -0.011187061 -0.12602223 0.11963528 -0.022222888 -0.08364124 0.04540395
0.14809148 -0.067315355 0.01934948 0.124888286 -0.005135115 -0.020019867 0.26522088 -0.022270573
0.004447638 0.2843084 -0.027318636 0.038710017 0.3028252 -0.14656335 -0.07430854 0.343936
-0.019857971 0.075293474 -0.11930008 -0.024411002 0.07843359 -0.13339573 -0.007924373 0.09477634
-0.003047528 0.022481864 0.14037019 -0.14112584 0.20986632 0.054386154 -0.0075094416 -0.018728264
-0.08626884 -0.19011852 -0.16952324 -0.007875723 0.10070928 -0.019459998 -0.058778517 -0.028431352
-0.18870255 -0.07923576 -0.13466367 -0.24349949 -0.12837534 -0.08625451 -0.16027461 -0.06711673
-0.12981986 -0.08818278 0.085488275 -0.13958903 -0.10748741 0.090349466 -0.0061731935 0.069701746
-0.020538734 -0.032899614 0.07706817 0.074010305 0.031989157 0.058926214 -0.055463757 -0.08535807
0.28032628 -0.11527403 0.03788875 0.24001744 -0.09811664 -0.1725808 -0.04869651 -0.031092292
0.0052212304 0.18261603 -0.18747735 0.08102191 0.03783435 -0.26919886 0.07939481 0.038167957
-0.11737404 -0.080199204 0.06908961 0.020460788 -0.04115173 -0.2462263 0.14579318 0.076818146
-0.009765207 -0.003547369 -0.1450153 -0.19276789 -0.176058 -0.018047947 -0.16715905 -0.041439243
0.09971567 -0.006019751 -0.06565978 0.11674353 -0.010882696 0.08444603 -0.1054876 -0.02474454
0.14608973 -0.11490337 -0.10361488 0.1656377 0.13396305 0.16480203 -0.022209065 0.033495456
-0.20002685 0.09933605 0.10309365 -0.34816468 0.19095205 -0.043055907 -0.099802576 0.010963216
-0.059531838 0.05169771 0.40890893 -0.105748616 0.03896707 0.02237392 -0.056597803 -0.0867848
-0.11590654 -0.03766956 0.026285842 -0.03758336 0.07109845 2.0371897e-05 0.100197166 -0.056822985
-0.04197343 -0.053196482 0.056058854 0.026537878 0.07055286 -0.038137857 -0.094777234 0.018749611
-0.10741393 -0.042478148 -0.004295299 -0.042240612 -0.10827474 0.13016139 -0.030576473 0.058603417
0.19263195 -0.015642447 -0.17359006 0.06948456 -0.11444121 0.041888155 0.22303094 -0.088994056
-0.036353663 0.05055937 -0.12920061 -0.20656638 -0.017554335 -0.04011829 -0.18082006 0.02529003
-0.042409 -0.023348657 0.29936022 0.039643656 0.05163301 -0.07941955 0.15364048 -0.009203838
-0.18321861 -0.15013784 0.06162771 0.04701104 0.01987454 -0.099095106 0.059541643 0.22337179

weight f4 [16]
00000000: 860d c03e b55e 6b3f 3bdb b23e 2c10 ac3b
00000010: 2df1 b23e 5aed a93e fb24 dc3e 5512 283f
00000020: 4e97 8c3f eb11 2f3e 25d1 8d3e ff8a 023f
00000030: 1df3 493f 4544 153f def9 f63e 2ae5 423e
0.37510318 0.91941386 0.34932885 0.0052509513 0.34949628 0.33188897 0.42996964 0.6565297
1.0983675 0.17096679 0.27698627 0.5099334 0.78886586 0.58307296 0.4823751 0.19032732

bias f4 [16]
00000000: 2e3d d63d 4ca5 31be 5e64 a53d fe62 e7bc
00000010: 993f a2bd ab01 92bd 3a0c 87bd 41de 97bd
00000020: aa57 433d 94da d7bd e115 bebd 12dd f4bd
00000030: 42c6 1fbe 6a4b 8ebd b581 2bbd f00a 0c3d
0.10460888 -0.17348212 0.08075784 -0.028245445 -0.079222865 -0.071292244 -0.06594129 -0.074154384
0.047691025 -0.10539737 -0.09281517 -0.11956228 -0.15602973 -0.06947978 -0.041871745 0.03419012

running_mean f4 [16]
00000000: c9a9 e7bd 955e b2bd 9ecf 1dbf 936a 813d
00000010: 19fb 90be acaf 8f3e aa04 f3be ac29 f2be
00000020: 172b cfbe d666 623c 8441 193f 8d33 98be
00000030: 35a7 49bd e6cc dbbe 78bc 813e 1bdb 91be
-0.11311681 -0.08709446 -0.61644924 0.063191555 -0.28316572 0.28063715 -0.47464496 -0.47297418
-0.40462562 0.013818463 0.59865594 -0.2972683 -0.049231727 -0.42929763 0.25339103 -0.28487477

running_var f4 [16]
00000000: 4124 3e3e 6db2 843e 0fd1 e53e cf5f b13d
00000010: e0e2 8b3e 5333 dd3e b3ea 103e 2c88 403e
00000020: 7d03 0c3f 85d1 2b3e b22c 7c3e d775 083e
00000030: 63ef 483e 39b8 2b3e 1a21 8f3e 40a9 1a3e
0.18568517 0.25917378 0.44886062 0.08660852 0.2732153 0.4320322 0.1415203 0.18801945
0.5469282 0.16779144 0.24626425 0.13326202 0.19622569 0.16769494 0.27954942 0.15103626

weight f4 [16, 16, 3, 3]
00000000: 49a8 223d 2812 86bd 374c 06be c0f4 33be
00000010: 1d0a 713e 82d8 293d 8676 9cbe a66e 053e
00000020: ea17 76bc 8dad 4ebd 7ea7 a8bd 5ac8 90bd
00000030: 8073 15be b7a0 8dbd 06d8 c2bd 8bb2 d4bd
00000040: a4f0 83be 6974 33be b65c 193d 620a a0bc
00000050: cddf 80bd 829e 833d 08ee 17be 0a4f 13be
00000060: ea8c 1cbd a82a 20be f863 44be 0185 30bd
00000070: 925c 463d 71dc 12bd 7ccb 11b8 f132 d7bb
00000080: 9ba9 5bbd 1859 973d 253e 02bd 4a23 883c
00000090: a1b6 043c 8f24 42be f356 c13c c602 e3bd
000000a0: 214e 8abe be2b 0bbe ad83 123e b49e 3ebe
000000b0: ab06 ddbc 07b9 dfbd 31c5 0b3d c602 89bd
000000c0: 5760 1c3e 7cda 5e3d 0265 86bd b540 9a3d
000000d0: 5b5c ef3d 2c91 84bd f8bd 24bb 5aef ae3d
000000e0: d602 e03d 1d1a 823c 7dc0 473e 1a3b 723d
000000f0: cc29 73be 2529 0cbe 9f79 efbd 4ad6 30bc
00000100: 836b 05be a9f5 bfbc 5c59 7b3d 8e23 1dbd
00000110: f8f3 563e eebf d53c baa7 383b c472 e13c
00000120: 0f3a e73c 44c9 ecbd 1564 0e3e e524 903d
00000130: deba 8ebe e8bb 6e3d c963 583d 6e17 64be
00000140: e4ab 1f3e 9dca cebb a181 1c3d 5ff0 0f3e
00000150: b14f 5fbe 3510 49be b3f0 d23d 947b bcbd
00000160: 6eed 4ebe 431e 37bd f950 513c 7793 053e
00000170: f73a 61bc c4c8 1c3e 2d20 e2bc f63d ddbd
00000180: 8e6f 373d 8353 f33b e91e acbd cf92 863d
00000190: 0442 f13d 4a45 c53c 540b 44bd 7538 f83c
000001a0: 75d0 bd3d 9418 c8bd 8de0 a9bd 8a55 7cbd
000001b0: 4b5b 38be 4cfc 48be ed12 183b 3fa7 90bd
000001c0: 4156 2e3c fe78 8bbc 3076 b9bd 4c02 1f3d
000001d0: 1fd1 66bc e2e3 a3bd 2088 78bd 9c92 2e3e
000001e0: 22cb 33be 324a 9dbc b7a0 aebc cc83 b53c
000001f0: a552 0fbc cceb 1bbc 5c63 0bbe a8cf 8d3c
00000200: 2cce 28be 2da7 393e dcc8 1b3e 0552 ffbd
00000210: 2637 553e 7d1f 253e 871a 32bd 424c 073d
00000220: 76e6 4f3d 5a91 6ebe 61a8 a0bb 82a3 c33d
00000230: 9ad6 9ebc 0fdb 8a3c 451a f83d d141 05bd
00000240: 6fb3 0d3e 017c 893e 52d4 3d3c 0b7a d2bc
00000250: 4429 133e e4fa 16be 9515 6bbc 2b23 b7bc
00000260: ce58 94bd 6303 94bd 5436 33bd a1c9 c53d
00000270: 7001 96bd b277 96bc b7ae 9cbc a3d6 6bbd
00000280: 709a 823c 5fd4 50bd 85ef 8dbd 33a4 05be
00000290: cb3d c2bb c75c a2be e7a5 21be 4dd3 a0bc
000002a0: 0472 78be afa7 29bd 6008 c73d 7532 22bd
000002b0: 44f7 aa3c 3e63 85bd 088d 0cbb 6b20 1fbd
000002c0: 5027 923d 8a2f 6bbd 16c6 1bbd 910c 47bd
000002d0: 0731 96bc be1d cabd 34ec a33e 68f1 603d
000002e0: ddd1 c0bc 818e 5c3e a05c bd3d c570 e8bc
000002f0: 34de 26bd f081 d13c 254f 7ebd ea83 d0bc
00000300: b993 7d3d 5683 d7bd aa98 65bb e62a 923c
00000310: 6f44 54be 072a 51be 3df1 b03d 15f4 153d
00000320: ce1b a63c 838d 883d f946 5d3e 0099 a73d
00000330: a1b1 0bbe 2708 bfbd 7bc6 7cbc f4b5 c83b
00000340: 7c78 ec3c 4757 57be 76d1 443d 4e48 0d3e
00000350: e38c 8dba bc32 b03d 3854 b73d da21 e4bd
00000360: 5729 a83d 6835 6bbe 3ae4 df3d e798 443d
00000370: ce0b 90be dc61 bb3d 0f8a ebbd aef0 3cbe
00000380: a612 84bb 3cce c53c 59de f6bd d654 ef3c
00000390: 6913 d4bd c1f1 c8bd a887 913d a9b5 dcbc
000003a0: 118e 133e 56c3 7e3d 51c7 793c 5ae9 293d
000003b0: 265e 853d c156 03bc 90ba aabd e751 91bd
000003c0: 17f3 70bb a951 b5bd c620 29be af9b de3d
000003d0: 850d a4bc bf0c a2be 3886 8dbc eb4a 59bd
000003e0: 731d d4bd c457 a8bd bd1d 8b3d d560 8fbd
000003f0: 5ef1 1e3d 0627 e8bc 0ee4 32be 0b58 a73d
0.03971127 -0.06546432 -0.13115011 -0.17573833 0.23539014 0.041466244 -0.30559176 0.1303049
-0.01502035 -0.05045848 -0.082350716 -0.07069464 -0.14594841 -0.069154195 -0.095138595 -0.10385617
-0.25769532 -0.17524876 0.03744193 -0.0195362 -0.062926866 0.06426717 -0.14836895 -0.1438562
-0.038220324 -0.15641272 -0.1917876 -0.043095592 0.048428126 -0.03585476 -3.4760204e-05 -0.006567352
-0.053628545 0.0739004 -0.031797547 0.01661839 0.008100183 -0.18959258 0.02360103 -0.11084513
-0.27012733 -0.13590905 0.14308043 -0.18615228 -0.026980719 -0.10923963 0.034123603 -0.06689982
0.15271126 0.05440758 -0.065622345 0.07531873 0.11687537 -0.06473002 -0.0025137644 0.085417464
0.10938041 0.015881592 0.19507022 0.059138395 -0.23746413 -0.1368757 -0.11693119 -0.010793278
-0.13029294 -0.02343257 0.061364517 -0.038363986 0.20991504 0.026092496 0.0028176145 0.027520545
0.028225927 -0.11561826 0.13905366 0.07038287 -0.27876943 0.05828467 0.052829538 -0.22274563
0.15592915 -0.0063107745 0.03820956 0.14056538 -0.21807744 -0.19635089 0.10299816 -0.09203258
-0.2020776 -0.044706594 0.012775653 0.13044535 -0.0137469685 0.15310961 -0.027603233 -0.10802834
0.04478412 0.007425727 -0.08404333 0.0657097 0.117801696 0.024080891 -0.047862366 0.030300358
0.09268276 -0.09770313 -0.08294783 -0.061605014 -0.18003576 -0.19627494 0.002320464 -0.0706315
0.010640682 -0.017025467 -0.090557456 0.03882055 -0.014087944 -0.080024496 -0.060676694 0.17048115
-0.17557958 -0.019200418 -0.02131687 0.022157572 -0.008747731 -0.009516668 -0.13612121 0.017310932
-0.16484898 0.18130179 0.1521334 -0.12466816 0.20821819 0.16125293 -0.04348233 0.03303171
0.050756894 -0.23297635 -0.004902885 0.09552671 -0.01938944 0.016950158 0.121143855 -0.03253347
0.1383798 0.2685242 0.011586266 -0.02569296 0.1437121 -0.14744145 -0.014348407 -0.022355637
-0.07243501 -0.072272085 -0.043752983 0.09657598 -0.07324493 -0.018367622 -0.01912628 -0.05757774
0.015942782 -0.050983783 -0.0693045 -0.13050918 -0.0059277765 -0.31711408 -0.15785943 -0.019632006
-0.24262244 -0.04141968 0.09718394 -0.0395989 0.020869859 -0.065130696 -0.0021446366 -0.038849276
0.071364045 -0.057418384 -0.038030706 -0.04859597 -0.018333925 -0.09868954 0.32016146 0.054917723
-0.02353757 0.21538736 0.092461824 -0.028374085 -0.040739253 0.025574654 -0.062087197 -0.025453527
0.061908457 -0.10523097 -0.0035033622 0.017842721 -0.2072923 -0.20426188 0.086397626 0.036609728
0.02027693 0.06667616 0.21609105 0.08183479 -0.13641979 -0.09327727 -0.015428181 0.006125206
0.028866045 -0.21029387 0.04805132 0.13797113 -0.0010799434 0.08603427 0.0895161 -0.11139269
0.0821101 -0.22969592 0.10932203 0.04799738 -0.28134006 0.091495246 -0.11500942 -0.18451187
-0.0040305434 0.024146192 -0.12054128 0.029215258 -0.10355265 -0.09811736 0.071059525 -0.026942091
0.14409663 0.062198006 0.015245275 0.041482307 0.06512098 -0.008016289 -0.08336365 -0.070957
-0.0036765987 -0.08853466 -0.16516408 0.10869538 -0.020025978 -0.3165035 -0.017275915 -0.053049963
-0.103571795 -0.08219865 0.067927815 -0.07000891 0.038804404 -0.02833892 -0.17469808 0.0817109

weight f4 [16]
00000000: 07b4 863f 3193 333f b3d4 033f c975 323f
00000010: a761 ea3e 9a1f 843e 9a97 3abd eef2 f23e
00000020: 5417 6e3f 9e88 a63e 0c9e 683f 9e2c 0c3f
00000030: 162b 253e 60ae 7b3f 9f1d 3f3f c531 213f
1.052369 0.7014647 0.5149643 0.69710976 0.45777628 0.2580536 -0.045554735 0.47450966
0.93004346 0.32526106 0.9086616 0.5475558 0.16129717 0.9831295 0.74654573 0.6296657

bias f4 [16]
00000000: 522f 39bd 1b25 fa3c dfe3 05be e66a 57bd
00000010: 9c64 13be 3aa6 2abe 68da fcbd c1b5 00bd
00000020: 3450 71bd 9f23 b4bb 1c9f 67bb f366 533d
00000030: 0793 58bd e7e8 41bd ae0f cdbd fb51 cabd
-0.045211144 0.030535271 -0.13075207 -0.05259218 -0.14393848 -0.16664973 -0.12346345 -0.031423334
-0.05891438 -0.0054974104 -0.003534264 0.051611852 -0.05287459 -0.047341254 -0.10012756 -0.09878918

running_mean f4 [16]
00000000: 4f5e ecbe 4b8f c4be 6b86 a6be 53c7 90bd
00000010: 0e95 d13e a6f7 93be c005 6ebf 6d7c ecbe
00000020: fc5b 07bf 52d1 84be 848a 06bf 44e4 43bd
00000030: 0d1b 20be b49c febd 4f8f 6d3d bab0 87be
-0.46165702 -0.38390574 -0.32524428 -0.07069268 0.40934032 -0.28899878 -0.92977524 -0.4618868
-0.5287473 -0.2594095 -0.5255511 -0.047825113 -0.15635319 -0.124322325 0.057997998 -0.2650202

running_var f4 [16]
00000000: 58fe b63e f6c4 c53e 84b1 823e 122f a03e
00000010: 58c3 4c3e 2048 6e3e 4433 043f 2036 263e
00000020: 81ea 6f3e 1ec9 543e 1143 053f 6f7a 693e
00000030: 8860 303e f907 b03e f415 b13e 267d b03e
0.35740924 0.38626832 0.2552606 0.31285912 0.19996393 0.23269701 0.51640725 0.16231585
0.234293 0.20779845 0.5205546 0.22800611 0.17224324 0.34381083 0.3458706 0.3447048

weight f4 [16, 16, 3, 3]
00000000: 1d92 ab3d 0744 f33d 7cc2 723d bdf4 c6bd
00000010: bbd4 ac3c facf 373d 659c 8cbd 78ed ffbb
00000020: d183 193d 4e1c e73c db90 933d f079 35be
00000030: 2073 15bd 9829 613c e6ba 89be 3a14 073d
00000040: 76ec 6abc 8ec7 86be 2374 fd3d cfff 203e
00000050: 8fa1 c23c 71b7 e23d 1c64 b8bb d081 39bc
00000060: bc57 80bd 0dc5 92bc 16f6 bf3d f8a5 34bd
00000070: c288 2fbe ad34 0e3d 91d2 02be 05cb debd
00000080: cdbb 0ebc c413 d9bd d786 89bd 387a d9bd
00000090: 53a9 97bd a73c f23c 5c0c ccbd ede8 55be
000000a0: 64f8 6f3c 9e46 583e 2a95 dabd 2df6 67be
000000b0: e5f1 49be 27c1 123e 783b 55bd 8791 51be
000000c0: 5f2f 593c ebeb dabb 7bbc 75be a64a b4bd
000000d0: a43a 83bd d887 293d 545f 863c 65da 033a
000000e0: 9e67 343d eb80 24bd d2d3 b6bd 1b03 4abd
000000f0: 3850 c73c 7b4d 3c3d 8d59 e23d 051c 0c3d
00000100: a581 8fbb 19a5 a83d 20f8 2d3c c30d 3d3e
00000110: 967d 443d 8b74 13be a205 b2bd 27e0 c6bc
00000120: 3768 4cbd ecce 4bbc 0fc5 c4bd 9ad6 d73d
00000130: bd33 333e d2a3 debd 07f5 193e 1653 4a3e
00000140: 268c 1ebd 65a1 813d 9255 663d f387 0cbe
00000150: 0717 d53d 7fdf a1bb e20a 27be 310e 65bd
00000160: 16bd 12bd 9dc9 a6bb 1caa 5b3d c2be 2fbd
00000170: 0904 07be c1ca 883d 6499 9e3d f644 f53d
00000180: 0678 cfbd 4773 d83d 4774 6c3e 0c3f 07bd
00000190: 35e6 a53c b7be 4b3e 782b 1c3d a0cd 243d
000001a0: 9a5d 243d 979f 46bd db8f 54be 5106 93be
000001b0: e017 92bd 3c1b f5bd e449 9ebc e363 103d
000001c0: b178 bfbd d943 c23d 363c 213e 0142 e53d
000001d0: 8d46 ba3c b509 c5bd e43f fdbd fd9a 0ebe
000001e0: 0f0d 43be 05c5 67bc 2e23 8a3d 9cc1 b23d
000001f0: f663 5fbd 646c 823c 7047 663d ac17 e43d
00000200: 3664 123e 1b8a 923d 39cd babc 83c5 d9bc
00000210: a529 22bd e537 41be b20b 23be b1f5 96bd
00000220: 4eb3 21be 4960 6ebe 7bf9 5f3d 426e 07be
00000230: b559 4ebe afe1 b33d e875 d3bd 739d 4bbe
00000240: e3d3 95bd a2dd 09be c92f 2dbe 1f6c e53c
00000250: e8d5 8d3b 07bd 99bc fa86 403e 8e2c bf3c
00000260: ce3c 82bd a577 abbe a445 ccbd 5603 2dbd
00000270: e3af 81be c323 36bd 1af1 78bd f795 243c
00000280: 72d4 a93c 8e30 afbc 44a6 ebbd 1a54 513c
00000290: b68b 49bc 689a 05be 7248 05bd 7ba4 30bd
000002a0: df44 5dbe c426 0abe dc7a e3bd cfe3 02be
000002b0: 46d0 a2bb e661 03be 7171 9cbe 3802 6cbe
000002c0: 6d83 60be 3f4a 91be 667c 49be 3999 1ebd
000002d0: 89b0 423e b30b 503d 6dc8 8dbb 35bb 2fbd
000002e0: 8b62 803d a4bf 953d 57e8 3abe 0e25 44be
000002f0: c223 70be 5965 94bc 2971 793e 8240 883e
00000300: 84ae 8e3d b18d 9a3d 729a 3d3c eb37 f1bc
00000310: 650a 0b3d f662 a13c d8b1 b73d 2d08 a53d
00000320: 1a34 aebc 8a1e 8abc e04f 6bbc b17a 373d
00000330: b5cf d1bd ef14 14bc 441f 0bbe 137d 493c
00000340: b7ac e93d d4dc 5b3e 11fd 2c3e 6d33 093e
00000350: a0d9 a3bd 5dca 5d3e 835e c8bc 4dd3 20be
00000360: edfa 7ebd 8e0c 2d3e 6392 89bd 1dd0 313d
00000370: b3d8 b83c 853f 96bd 17e4 c43d 113e b93d
00000380: b03d 013d 8c04 a33d 7733 b23d cd91 553d
00000390: 39c5 b8bd 5575 14be 12af 2c3d e490 2cbe
000003a0: ea5b 1ebe 7026 aa3d ff17 d7bd 9be7 aebc
000003b0: d1b5 c2bd db2c 3abb 5894 d13b 98bb b93c
000003c0: 34ec ccbd 2f3d e33c 4fb3 d3bb b161 073c
000003d0: 12a0 2ebe 3222 0cbe 0120 17bd 3e6d 983d
000003e0: 5545 163b 0c54 193e 67e1 2a3e 277f ff3d
000003f0: 5eda e63d 3056 ab3d 7910 ad3c bc54 e0bb
0.08377478 0.118782096 0.059267506 -0.09714649 0.021097532 0.044876076 -0.068657674 -0.007810291
0.037479226 0.028211739 0.07205363 -0.17722297 -0.036486745 0.013742827 -0.26900405 0.032978274
-0.014338603 -0.26324123 0.12375667 0.15722583 0.023758678 0.11070145 -0.0056271683 -0.011322454
-0.06266734 -0.017916227 0.09373109 -0.044103593 -0.17142013 0.034718204 -0.12775637 -0.10878567
-0.008711767 -0.10599473 -0.06715172 -0.106190145 -0.07405343 0.029569937 -0.09963295 -0.20889635
0.014646623 0.21120688 -0.10672982 -0.22652502 -0.19721182 0.14331494 -0.052058667 -0.2046567
0.013255923 -0.0066809556 -0.23997681 -0.088033006 -0.06407669 0.041389316 0.016402878 0.0005029797
0.04404413 -0.04016201 -0.0892712 -0.049319368 0.024330243 0.04597233 0.11052237 0.03420641
-0.0043794685 0.08234615 0.01061824 0.18462281 0.04797133 -0.14399926 -0.086924806 -0.024276806
-0.049904075 -0.012439471 -0.096078984 0.10538979 0.17500205 -0.1087109 0.15034877 0.19758257
-0.038707875 0.06329612 0.05623395 -0.13723736 0.10404783 -0.004939973 -0.16312745 -0.055921737
-0.035824858 -0.005089952 0.053629026 -0.04290653 -0.13185133 0.06679297 0.07744101 0.11976044
-0.101303145 0.105688624 0.23091231 -0.03301911 0.020251373 0.1989697 0.038127393 0.04023516
0.040128328 -0.04849204 -0.20758002 -0.28715757 -0.0713346 -0.11968085 -0.019322343 0.03525151
-0.09349192 0.09485597 0.15745625 0.1119423 0.02273872 -0.09620992 -0.12365702 -0.13926311
-0.1904795 -0.014146094 0.06744991 0.08728334 -0.05453869 0.015920825 0.05622047 0.111373276
0.1429604 0.07155248 -0.022802936 -0.026583439 -0.039590497 -0.18868978 -0.1592243 -0.07371081
-0.15791056 -0.23278917 0.054681282 -0.13225654 -0.20151408 0.0878328 -0.10325223 -0.19884281
-0.07315805 -0.13463452 -0.1691276 0.028005658 0.004328478 -0.018766893 0.1880149 0.023336675
-0.06359254 -0.3348972 -0.099742204 -0.04223951 -0.25329503 -0.0444677 -0.060776807 0.01004552
0.020731185 -0.021385457 -0.11506322 0.012776399 -0.012301376 -0.13047183 -0.032539792 -0.04312561
-0.21608303 -0.1349135 -0.11107418 -0.12782215 -0.004968676 -0.12830314 -0.305553 -0.23047721
-0.21925135 -0.28376958 -0.1967636 -0.038720343 0.19012655 0.050792407 -0.004326871 -0.042903144
0.062687956 0.07311943 -0.18252693 -0.1915476 -0.2345114 -0.018114733 0.24359573 0.26611716
0.0696688 0.07546557 0.011572467 -0.02944561 0.03394546 0.019700509 0.08969468 0.080582
-0.021265078 -0.016860265 -0.014362305 0.044794742 -0.10244695 -0.009038194 -0.13586146 0.012297886
0.11409896 0.21470958 0.16893412 0.13398524 -0.08000493 0.21659227 -0.02445913 -0.15705605
-0.06225102 0.1689932 -0.06717374 0.043411363 0.022564268 -0.07336334 0.09613817 0.09045041
0.03155297 0.079598516 0.087012224 0.052141 -0.09021992 -0.14497884 0.042159148 -0.16852146
-0.1546475 0.083081126 -0.10502624 -0.021350672 -0.09507335 -0.0028408084 0.006395858 0.02267246
-0.1000599 0.027739136 -0.0064605842 0.008263038 -0.1705325 -0.1368492 -0.036895756 0.07442711
0.0022929509 0.14973468 0.16687547 0.12475424 0.11272119 0.08366048 0.021126019 -0.0068460386

weight f4 [16]
00000000: 688c 4b3f d9ec 133f 4d72 2a3f eaaf 4d3f
00000010: 5ebf 143f 65df ca3e ea5f f33e e31a b73e
00000020: 7f77 2f3f 681e d03e 1035 3f3f b1f8 dd3e
00000030: 506e 4f3e e0ef 183f 1cab ef3e 58fd cb3e
0.7951112 0.57783276 0.6658066 0.8034655 0.58104503 0.39623562 0.47534114 0.357627
0.6854171 0.40648198 0.7469034 0.433538 0.20256925 0.5974102 0.46810234 0.39841723

bias f4 [16]
00000000: 673e 7a3c bfb5 a2bd 87be e0bd 6204 5fbe
00000010: ede0 62be c871 ae3c eb70 edbd 347f b5bd
00000020: 4841 87be e0c9 aabd 9f8d 49be 8bc4 263d
00000030: 6d9c 0cbd 0901 f2bd 41be 3bbe b018 14bd
0.015273667 -0.079448216 -0.1097384 -0.21779016 -0.22156115 0.02129449 -0.11593803 -0.08862153
-0.26416993 -0.08339286 -0.1968293 0.04071478 -0.034328867 -0.11816604 -0.18334295 -0.036156356

running_mean f4 [16]
00000000: 95f2 2cbf 7f44 9cbf a607 c93e 349d 93bf
00000010: b667 8b3b 543f 42be 7974 f2be 89fe ccbf
00000020: 2c23 41be 2c65 8f3d 3474 0abe 07d3 cebe
00000030: 1580 a3bf ed71 69be 05ae 24be 6f8f 79bf
-0.6755765 -1.2208403 0.39263648 -1.153235 0.0042543067 -0.1896947 -0.47354487 -1.6015178
-0.18861073 0.07001719 -0.1352089 -0.40395376 -1.2773463 -0.22797365 -0.16082008 -0.9748449

running_var f4 [16]
00000000: 6775 513f 34f3 6d3f 8be6 693f 9702 723f
00000010: 08a3 0d3f 32f4 903f 72cd 103f 1f15 273f
00000020: 32dc cd3e eab9 823f 57b3 583f a850 833f
00000030: 1731 e83e 769b fc3e 1630 943e 3968 2b3f
0.81819767 0.92949224 0.91367406 0.945352 0.5532689 1.1324522 0.56563485 0.65266603
0.40207058 1.0212986 0.8464865 1.0258989 0.45349953 0.49337357 0.28942937 0.66955906

weight f4 [16, 16, 3, 3]
00000000: c116 e83d d829 973c b2f7 8dbd 0a30 123e
00000010: 1654 6abc 1944 0fbe 2074 babc 40af caba
00000020: 9245 2fbe 75ea d63b 4fbf 823d b9ec 1a3e
00000030: 7cc9 0bbe 8407 33be f6ff 883d 1d9f 02be
00000040: 1d16 163d e9bb f03d 7163 5e3d 5dad 28bc
00000050: e319 ac3d 1679 783d 0d5b a13d 7ece 3d3d
00000060: de90 d3bc 1659 a1bd 4f33 05bc f0c0 23bd
00000070: f0ab e43c 2f28 c33d e901 d2ba ee9f 313d
00000080: 2726 1b3e cac3 6c3d 679e 3cbd 2983 23be
00000090: 588c 083e c296 183d 1237 d83b 9d44 e73e
000000a0: 11f8 443e 5914 393d e4e3 c03e b71f 593e
000000b0: ce11 3d3e 3549 a8bd 69ec 8ebd 46ed 07be
000000c0: 3cef 39be 1081 28be 0755 72be c80e e0bc
000000d0: 15a7 f1bd 7871 a5be c533 423e 5ab7 293e
000000e0: aa84 a13d 9d4e ec3d 6f6a 423e c56b 1f3e
000000f0: fe04 d53d c1a4 be3d 41f9 003d 288b a93d
00000100: fa72 ca3d 4d36 1b3d 6c97 e63d 7fc3 1c3e
00000110: f2cc 3d3e 2dc1 7a3e a612 b2bc d1e9 45be
00000120: 856c 7bbe 0389 87be 7fb4 21be ffd3 eebd
00000130: 1c6b 4abe a8e9 00be 80a9 233d 3bf1 7d3d
00000140: d0fe 813d bfd3 143d 4887 6b3b 8e8b 973d
00000150: d338 af3d 8d21 d83c 6293 023d c142 013d
00000160: 38a6 52bd 0147 a0bd 6d22 f53d fb87 05be
00000170: 4b47 f4bd 7f5d c53d ce26 0a3e 8fb5 ba3d
00000180: 9113 b03d 5761 e0bb d9ac a33a baa2 37bc
00000190: 5117 f6bd c668 a9bd b57c 2ebd f0ea cdbd
000001a0: 4d12 02bd 0d27 5b3d da1d a2bd becd 46be
000001b0: ecf1 913d a88c 493e d085 c2bd 30ac e43c
000001c0: 2f6e 04bd ff77 aabd 8626 af3d 065e d23c
000001d0: 4710 30be 6f46 2a3e 8853 62bc ed8a 46b7
000001e0: cd86 b13d 0e1e c93d 8da0 2d3d 5ea0 983c
000001f0: 50a3 a03d 791e 5abd 5b7f daba eed1 a83c
00000200: 4295 903c 13c6 8e3d 0790 ba3c f6ee 873c
00000210: 36e7 123e 5615 d83d a3e8 e9b9 7756 303c
00000220: 3291 1dbd 29e0 153e 95d3 ce3d 1dda 9e3c
00000230: bf09 133d 9e42 323d 12da 11be 90d9 c53d
00000240: 7cb9 1dbe 04e2 0abd 90b9 e63d 575b 19be
00000250: 2404 753b 7eb9 9a3d 7c7b 57bd e80d df3d
00000260: 5b41 3b3e 6834 d3bc 68ca 113e eec7 803d
00000270: 1d41 423c f907 c5bd c1fd 0abc 0398 39be
00000280: 1a6d d5bc 30f5 54bd 4938 c1bc 32ea 89bc
00000290: da2f 92be c647 803c e2bf 33bd 9729 0cbe
000002a0: b023 37bd d681 11bd e297 afbd 92c8 5c3d
000002b0: e10b 95bd 46f2 5f3d 287d 04be 1f46 063d
000002c0: d372 aa3d 62cf 1dbb f224 f33d 745f 143e
000002d0: 2326 c33d 2999 3f3e fe10 a4be 4636 d73d
000002e0: 1574 023d 7772 4fbe b2f8 8ebd 78b1 9cbe
000002f0: 6695 40be b0c4 a3bd 0794 aabd 18a0 e73d
00000300: a4eb cc3b 05f8 8f3c 8f9b 1b3e 59ce 90bd
00000310: 3d35 8dbd 211b 1d3e 843b da3d 5fca ffbc
00000320: 7988 42bd c756 b1bc d4c8 fcbd ec43 e8bd
00000330: 6c01 86bd 4d07 21be b69d 0fbe 6a9d 43bd
00000340: 43b5 2f3e 3a39 a03d 4e03 78bd 53d3 4a3e
00000350: 7a1a 163e a44a 0c3d cd0d 81bc 4e9c c9bd
00000360: ba99 0c3e 7ace c23d f90a 0a3e 5237 82bd
00000370: 4503 00be 5c86 81bc 6682 09be 642a 84be
00000380: e32c ef3d c855 3c3e 5e5a 7c3d 6341 07be
00000390: 02cf a6bc e73c 3bbd 261e 36be b8e4 dabd
000003a0: f036 20bc 02ef da3c 0f8a 923d 878b f03d
000003b0: 4d18 a43d fae4 393e 5c1a 083e 9fd1 ae3d
000003c0: ab9d 2f3d e8ae adbd 8c81 6cbd 5a2d 57be
000003d0: aec2 99bc 9a65 ba3d 6f56 4abe 1746 5ebd
000003e0: 8219 ec3d ecef 3cbd a8b6 b63c c1a3 4c3d
000003f0: 6e28 d9bd 0519 d0bd 09e1 64bd e821 e13c
0.11332465 0.01845257 -0.0693201 0.14276138 -0.014302274 -0.13990821 -0.02276045 -0.0015463606
-0.17116383 0.006558711 0.063841455 0.15129365 -0.13651079 -0.17483336 0.06689446 -0.1275601
0.036642183 0.11754591 0.054294053 -0.010295239 0.08403375 0.06066235 0.07878695 0.046339504
-0.025825914 -0.0787832 -0.008129909 -0.03997892 0.027914017 0.09529149 -0.0016022298 0.04336541
0.15151273 0.057803907 -0.0460495 -0.15968002 0.13334787 0.03725315 0.006598362 0.45169535
0.19235255 0.04518542 0.37673867 0.21203505 0.18463823 -0.08217088 -0.069786854 -0.13274106
-0.18157667 -0.16455483 -0.23665248 -0.027350798 -0.117994465 -0.32313132 0.18965061 0.1657385
0.07886632 0.11538432 0.18985914 0.15568455 0.10401343 0.09308768 0.031487707 0.08278495
0.09885211 0.037893582 0.1125935 0.15308951 0.18535212 0.24487753 -0.021737408 -0.19327475
-0.24553116 -0.2647172 -0.1579151 -0.11661529 -0.19767421 -0.12589133 0.03995657 0.061997633
0.0634743 0.03633475 0.0035938788 0.07399665 0.0855576 0.026383186 0.031878836 0.031557802
-0.05142805 -0.07826043 0.11969457 -0.13040154 -0.119276606 0.096369736 0.13491365 0.09116661
0.08597482 -0.0068475413 0.0012487426 -0.011208231 -0.12016166 -0.08271937 -0.0425994 -0.100545764
-0.031755734 0.05350404 -0.0791585 -0.19414422 0.07126221 0.19682562 -0.09498179 0.027914137
-0.03233164 -0.08323669 0.0855227 0.0256796 -0.1719371 0.16628431 -0.013813861 -1.1834066e-05
0.08668289 0.098201856 0.04238944 0.018631157 0.078436494 -0.053251717 -0.0016670035 0.020607915
0.017649297 0.069713734 0.022773756 0.016593438 0.14346012 0.105509445 -0.0004461455 0.010762802
-0.038468547 0.14636292 0.1009895 0.019391114 0.035897966 0.043520562 -0.14243343 0.096606374
-0.15402788 -0.03390695 0.11265862 -0.1497625 0.0037386501 0.07554911 -0.052608 0.10891324
0.1828665 -0.025781825 0.14237368 0.062881336 0.0118563445 -0.09620661 -0.008483351 -0.18124394
-0.026053 -0.05199164 -0.02358641 -0.016835306 -0.28552133 0.015659224 -0.043884166 -0.1368774
-0.04471177 -0.03552421 -0.08573891 0.053902216 -0.07277656 0.05467441 -0.12938368 0.032781716
0.08322682 -0.0024079909 0.11872281 0.14489537 0.095287584 0.1871077 -0.32044214 0.10508399
0.031848986 -0.20258509 -0.069810286 -0.30604148 -0.18806991 -0.079964995 -0.08329015 0.11309832
0.0062536765 0.01757432 0.1519606 -0.07070608 -0.0689492 0.1534238 0.10655883 -0.031224428
-0.04749343 -0.021647824 -0.123429924 -0.1134108 -0.0654324 -0.15725441 -0.14025006 -0.047757544
0.1715899 0.07823415 -0.060550027 0.19807176 0.14658538 0.03425087 -0.015753651 -0.09844266
0.13730517 0.095120385 0.13480748 -0.06358208 -0.12501247 -0.015811138 -0.1342865 -0.2581359
0.11678483 0.18392098 0.06160962 -0.13208537 -0.02036238 -0.045712378 -0.17784938 -0.10688156
-0.009778723 0.026725296 0.07155239 0.11745363 0.080124475 0.18153754 0.13291305 0.08536076
0.042874973 -0.08480626 -0.057740733 -0.21013394 -0.018769588 0.0910141 -0.19759534 -0.05426606
0.11528303 -0.046127245 0.022303894 0.049960855 -0.106034145 -0.10161022 -0.055878673 0.027481988

weight f4 [16]
00000000: 24be 3c3f 8de6 673f 3b7f be3e 56da a53e
00000010: 1b94 323e d310 273f 2318 023f e6ef 4d3f
00000020: 7e2b 1b3f 0b25 ef3e 3cf1 513f b40e 3d3f
00000030: de60 763f bc8a 023e ed93 0c3e 92fc 563f
0.7372763 0.9058617 0.37206444 0.3239314 0.1743931 0.65260047 0.5081808 0.8044418
0.6061324 0.4670795 0.8200872 0.7385056 0.9624156 0.12748235 0.13728304 0.8397914

bias f4 [16]
00000000: b0ce 5cbe 7ed0 43be 8844 363c d3e5 ce3c
00000010: d105 613c a6b5 eabd 814c 193d 9b40 17be
00000020: 91ac a0bd 4f41 8fbd a2e7 8cbd c9ad 6f3d
00000030: 4f7b 023c d0f2 3b3d c1fe 083e 6e40 27be
-0.2156322 -0.19122502 0.011124738 0.025256073 0.013734297 -0.11460428 0.037426475 -0.14770739
-0.078454144 -0.069948785 -0.06880118 0.058515344 0.007963969 0.04588586 0.13378431 -0.16333172

running_mean f4 [16]
00000000: 712c 6b3d a303 37be 9746 fcbc 158a fbbc
00000010: 6352 22be 10f9 7f3e 219e f0bd d6be 97be
00000020: fef8 95be 3494 993e d3ec 18bf 0660 83bf
00000030: 614c 843e d332 e23e fe98 83bf a455 55bd
0.05741543 -0.17872481 -0.030795379 -0.030705491 -0.1585174 0.24997354 -0.11748911 -0.29637784
-0.29291528 0.29995883 -0.59736365 -1.0263679 0.25839522 0.441794 -1.0281065 -0.052083626

running_var f4 [16]
00000000: df4a 0c3f 01b9 f93e 9631 813e 15dc a33e
00000010: c457 0c3f abc1 b63e 1336 a53e b5c1 9c3e
00000020: cec7 023f 822c 903e 1752 cf3e 66aa 853f
00000030: fe4a f93e f5ee 563e 6221 0e3f c5c0 7a3f
0.54801744 0.4877396 0.25233144 0.32003847 0.5482142 0.35694632 0.32267818 0.30616537
0.5108613 0.28158957 0.40492317 1.0442626 0.48690027 0.20989592 0.5551969 0.9795039

weight f4 [32, 16, 3, 3]
00000000: a52d 4dbd b244 57bd 33a2 1fbd 6e7f 94bb
00000010: 2b36 cabd fec1 cebd 1e69 453d 1e48 ec3d
00000020: 87d8 7dbd 0fa0 b7bc eee9 42bd 6984 d8bd
00000030: 37b5 e4bc 907a 3cbe 7552 00be db1d 41bd
00000040: 7e8d f7bd 27b7 113d 5724 673d 51e8 853d
00000050: 63ef 583d 101b af3d 51bc acbc 66b3 d23d
00000060: 7eb0 86bd 6686 2cbd 349d 77bd 4734 f1bd
00000070: 579b 00be 3d64 40be 3c22 93bd 6864 c6bc
00000080: 91b7 023d 9e8b 853d a15f 6d3d 8965 2dbd
00000090: 0dfc f63d ecf2 853d 18a7 153d 1ed0 893e
000000a0: 2396 023e b1f0 15bc 88b3 643e 7f2c 2f3e
000000b0: 4fee 8e3d c32a 563c 6c41 713d 56f4 39bd
000000c0: 8487 ac3d f19e e53d e3b0 013e a03f 213e
000000d0: e67f 213e 9510 7b3d b843 acbb 4a96 413d
000000e0: 1f00 63be ae1d ce3d 9ef5 d23b ded4 75be
000000f0: 936c cebd 994d 38bd 17e7 f1bd 5595 c83c
00000100: 177a 0dbe fa36 2fbe 3f8c 33bd 8295 adbd
00000110: 0dc9 24bd 342b 42bc 16fa f43c 629e 0d3e
00000120: b52f 6abc 2c8c 93be 372f 84be b7d9 fbbc
00000130: 473a 88be 1c14 0dbe 25c5 943d 471a a8bd
00000140: 8e8b 393d 81e5 89bc 5e79 e3bd 5733 a5bd
00000150: 5555 1fbc 9698 76bd 9365 0abe e812 c53b
00000160: 9ac2 06be 2e5e c43c 3ea4 9fbd b0b4 863d
00000170: 90fa e13d 849e f9bd 33fd ffbc 1130 093e
00000180: 1452 17bc 22b5 e63c 8ab5 babb ef19 82bd
00000190: 123b f3bd 0b91 6bbb 579d 443c a578 7abc
000001a0: 5e1b 23ba efd4 9f3d 82db cf3d f9b3 cd3c
000001b0: 5de3 ab3d 6d6e 1abd 22dd 2bbd 6ec1 293d
000001c0: 2e8f b03d c151 873c 7828 8dbb 8d12 3c3e
000001d0: 8116 663d 95da 5f3e 5245 9c3d 7c3e 22bd
000001e0: f51e 3e3e f4cc f13d 521f 37bd 4aa6 943d
000001f0: 74b4 46bd 8d97 3dbe afe4 56be 07f2 87be
00000200: 9d0e babe d5f5 10be a4e0 a0be 7f5e 60be
00000210: 0341 89bd 2086 17bc 8c91 97bd 3d68 b53d
00000220: 0b87 303d 4d3b 58be 9ee7 093d da84 bebd
00000230: b544 28be d8f0 8fbd 5e47 e2bc 6fc4 9c3d
00000240: 1fad d1bc 8981 15be 70a0 f9bd 6cdc fcbc
00000250: bfd7 11be b6b6 30be b49d 3dbd feae 0ebe
00000260: d7a9 dbbd e7c0 c6bd fe85 933b e39d ff3d
00000270: 2d63 a0bd 477b 4a3d 0656 063e bf3b 23be
00000280: a206 513d b9cd 843d 6e17 dabc 0556 02bd
00000290: 10d6 e23d 18eb 61bd 12e8 a73d 7dfc c7bd
000002a0: 8568 033e a33f f93c 2aa5 d3bd f4ee 15bd
000002b0: 46a1 003e 9601 00bd 5dab 913c 28c9 003e
000002c0: 97b9 083d d8cf d03c abe6 0fbe 1c8f 1c3d
000002d0: 7f2f 12be 0d19 7dbd 98e9 7b3d 9c8b 8fbd
000002e0: 40c2 9cbd 3d32 dabd 6be5 5e3d c196 9f3d
000002f0: 5b1a 973d 8789 d43a e2c0 5cbe e053 49be
00000300: ec6b febd 3f9c 9cbe 7abd 9dbe 72dc 65bd
00000310: 1f4f f4bd ce28 21be b9a0 fcbd f911 1cbe
00000320: cf1a 4bbe 2a19 cabd 9bff 0abe 78da 2abe
00000330: 19c5 58bd ab4a 3abe cb86 75be 0a84 0d3e
00000340: efea 4b3e dd35 d03d 677c f23d 9fcb e33d
00000350: f112 3bbc 7f57 c93d 72d6 4abc 24bf 01be
00000360: 069d 3fbd 378b c03b 74b6 1dbd 2048 cbbd
00000370: 9bae e3bc b762 2abe be71 ddbd b6f3 53be
00000380: 5c94 32be f302 16be 7ec2 143d 877c 8bbc
00000390: b34a 64bd 2012 143d ec42 da3c e77b c03d
000003a0: ae0a ca3d 4b57 4b3e a1d9 33bd 11d9 eb3d
000003b0: efb2 543d 41a5 5dbc 8462 1b3e 6bbc 873b
000003c0: 6417 cb3d f39b 0b3e 484d cc3d a986 cd3c
000003d0: f0e6 7f3c 3407 74bd bd23 943c 3dc2 4f3b
000003e0: dd22 053d 383d f9bc dcff 3fbc 0e7d afbd
000003f0: b6a9 5c3d 68c4 853c 3a29 3b3d dcfe 213d
-0.05009236 -0.052555747 -0.038973045 -0.0045317924 -0.09873613 -0.10095595 0.04819595 0.11537193
-0.061974075 -0.02241519 -0.047586374 -0.1057213 -0.027918441 -0.18406129 -0.12531455 -0.047147613
-0.12087534 0.03557506 0.05643114 0.065384515 0.052962672 0.08550084 -0.02108589 0.10288124
-0.06576632 -0.04212036 -0.060452655 -0.11777549 -0.12559257 -0.18788238 -0.07184264 -0.0242178
0.031913344 0.065207705 0.057952527 -0.04233316 0.120597936 0.06540474 0.036536306 0.26916593
0.12752585 -0.009151624 0.2233411 0.17106818 0.069790475 0.013071719 0.05890028 -0.045399033
0.08424285 0.11211956 0.12665133 0.15746927 0.15771446 0.06129511 -0.005257096 0.047262467
-0.22168015 0.10064255 0.0064379713 -0.24006984 -0.10079303 -0.044995878 -0.11811655 0.02448527
-0.13816105 -0.17110816 -0.04383492 -0.08475782 -0.0402308 -0.011851121 0.029904407 0.1382995
-0.014293601 -0.2881788 -0.25817272 -0.030743463 -0.26606962 -0.13777202 0.07264165 -0.08208137
0.045299105 -0.016833069 -0.11107133 -0.08066433 -0.009724935 -0.06020411 -0.1351531 0.0060142167
-0.13160172 0.02397069 -0.077949986 0.06577432 0.11034119 -0.121884376 -0.031248664 0.13397242
-0.009235878 0.028162543 -0.0056979107 -0.06352603 -0.11876501 -0.0035944607 0.012000403 -0.015287553
-0.00062220346 0.07804286 0.1014929 0.025110232 0.083929755 -0.037702966 -0.041958936 0.041444235
0.08621059 0.016518475 -0.0043078028 0.18366452 0.056173805 0.21860726 0.07630409 -0.03961037
0.18566497 0.1180667 -0.044707604 0.072582796 -0.048511937 -0.18514843 -0.20985673 -0.2655184
-0.36339274 -0.14156277 -0.31421387 -0.21911047 -0.06701853 -0.0092482865 -0.07400808 0.088577725
0.043097537 -0.21116371 0.033668153 -0.09302683 -0.1643246 -0.07028359 -0.027621921 0.07654654
-0.025595246 -0.14600195 -0.12188804 -0.030866824 -0.14242457 -0.17257199 -0.046292976 -0.13933942
-0.10725754 -0.09704762 0.004502057 0.124812864 -0.07831416 0.049433973 0.13118753 -0.1594076
0.051031716 0.06484551 -0.0266225 -0.031820316 0.110759854 -0.055155843 0.08198561 -0.09764955
0.1283284 0.030425852 -0.10334237 -0.036604837 0.12561521 -0.031251512 0.017781908 0.12576735
0.033380117 0.025489733 -0.14052837 0.038222417 -0.14275931 -0.06179147 0.06150207 -0.0700905
-0.07654238 -0.106541134 0.05441801 0.07792426 0.07378074 0.0016215303 -0.21557954 -0.19660902
-0.12422928 -0.30587956 -0.30808622 -0.056118436 -0.11929154 -0.15738222 -0.12335343 -0.15241231
-0.19834445 -0.09868081 -0.13574068 -0.16684902 -0.052922342 -0.18192546 -0.239772 0.138199
0.19913839 0.101665236 0.11840134 0.11122822 -0.01141809 0.09831142 -0.012380229 -0.1267057
-0.04678061 0.0058759707 -0.03850408 -0.09925866 -0.02779322 -0.16639219 -0.1081271 -0.20698437
-0.17439407 -0.14649563 0.036318295 -0.017027153 -0.0557353 0.036150098 0.026643239 0.093986325
0.09865318 0.19857518 -0.04390872 0.115160115 0.051928457 -0.013528169 0.151743 0.004142334
0.09916571 0.13633709 0.09975678 0.025088625 0.015619025 -0.059577182 0.018083448 0.0031701468
0.03250395 -0.0304247 -0.0117187165 -0.08568774 0.053872786 0.016329005 0.045693614 0.039549693

weight f4 [32]
00000000: 1123 463f 5e5f 203f 3005 683f a705 853e
00000010: 02f5 e33e a847 683f 78a4 123f 3004 393f
00000020: 3f43 0e3f fc22 b03e 748c fe3e d433 253f
00000030: b93f 183f 402d 443f cd59 5d3f 364c 653f
00000040: fb03 db3e 9327 ea3e 73c1 633f 010e cc3e
00000050: a642 4e3f bf5b 003f 320f 2a3f 0bbf 443f
00000060: 8d8f 003f 4679 cc3e 8ea1 6b3f b299 573f
00000070: d758 f83e 4873 cc3e 2917 983e f0c2 013f
0.7739726 0.6264552 0.90632915 0.25980875 0.44522864 0.9073434 0.5728221 0.72272015
0.5557136 0.3440169 0.49716532 0.6453221 0.59472233 0.76631546 0.8646515 0.89569414
0.42776474 0.45733318 0.88967055 0.39854434 0.8057045 0.50139993 0.66429436 0.7685401
0.5021904 0.39936274 0.9204339 0.84218895 0.4850528 0.39931703 0.2970517 0.50688076

bias f4 [32]
00000000: c1f8 9dbd d47d c03b 90a6 33bb e903 0dbe
00000010: fecb 1ebe 623a ca3c 67c9 0cbe cb65 95be
00000020: d054 15be 5b90 3cbe e693 c4bc 98da 42be
00000030: 94dd 19be fe1a 3bbe 762c c0bd 590f 513c
00000040: 245f e1bd d07e 24be c215 5b3d d574 c5bb
00000050: 6f35 40be 2257 ccbd e90f c7bd c17c 44be
00000060: d7fd c5bd 0c0b 05be f91c 40bd 85ab 10bd
00000070: ca69 7a3d 4922 b3bd 8d6c 05bd 3e8e c2bd
-0.07713462 0.005874375 -0.0027412511 -0.13771023 -0.15507504 0.024686042 -0.13748704 -0.29179224
-0.14583135 -0.18414442 -0.023996305 -0.190287 -0.15025932 -0.18272015 -0.0938348 0.012760007
-0.11004475 -0.16064 0.053487547 -0.0060258904 -0.18770383 -0.09977557 -0.097198315 -0.19188215
-0.09667557 -0.12992495 -0.04690263 -0.035319824 0.061136045 -0.08746774 -0.032574225 -0.09499787

running_mean f4 [32]
00000000: 4794 9dbf caef a4bf 95c2 96bf 0576 0f3f
00000010: 0334 003e 1308 09bf 7107 12c0 ea0a 17c0
00000020: 95d4 8bbf 5256 18bf 35bc 423f fab8 6bbf
00000030: dddf f13f 0bad 303f a35b 823f 447b b6bf
00000040: d968 52bf 6315 41bf 59ee babf f9cf 863d
00000050: 72d8 d2be c6e3 b63e c9b0 dcbf e436 13bf
00000060: 7a9b 96bf 0c41 62bf 36c1 70bf e3f5 72bf
00000070: 178b 83bf 2354 1340 25f7 98bf cdd8 48be
-1.2310876 -1.2885678 -1.1778132 0.5603946 0.12519841 -0.53527945 -2.2817042 -2.3600411
-1.092425 -0.59506714 0.7606843 -0.92079127 1.8896443 0.6901404 1.0184215 -1.4256368
-0.82191235 -0.7542326 -1.4603988 0.065826364 -0.4118076 0.35720652 -1.724145 -0.5750563
-1.1766198 -0.88380504 -0.94044816 -0.94906443 -1.0276822 2.3020103 -1.1950423 -0.19613953

running_var f4 [32]
00000000: 27cf 4d40 6660 2740 29fe 2440 e948 823f
00000010: 4ca0 c63f 541d 1d40 6741 e83f e500 d33f
00000020: 97da 7d3f c502 0140 f2f7 ca3f dba0 1b40
00000030: 1989 d63f d6f4 c43f f745 3d40 f587 9c40
00000040: 9337 9d3f 6eee f53f 7930 6240 469e 5b3f
00000050: 713d b43f ac38 ed3f f2df ad3f a4c7 8840
00000060: 37de c03f 64d1 f93f a431 f53f 15f1 3940
00000070: aac8 2040 94a7 8a3f 00e6 cd3f e849 3640
3.2157686 2.6152587 2.5780127 1.01785 1.5517669 2.454915 1.8144959 1.6484648
0.99161667 2.015794 1.5856917 2.4316928 1.6760589 1.5387218 2.9573953 4.8915963
1.2282585 1.9213388 3.5342085 0.8578838 1.408125 1.853292 1.3583968 4.27437
1.5067815 1.9517026 1.9155774 2.9053395 2.5122476 1.0832391 1.6085815 2.8482609
